…
snapshot_prefix: "/home/hzzone/1tb/id-model/classification/3d/3d_alexnet/3d_classification_alexnet_train"
solver_mode: GPU
device_id: 0
net: "./train_val.prototxt"
train_state {
  level: 0
  stage: ""
}
I1118 21:22:00.368846 27838 solver.cpp:87] Creating training net from net file: ./train_val.prototxt
I1118 21:22:00.369379 27838 net.cpp:51] Initializing net from parameters: 
name: "AlexNet"
state {
  phase: TRAIN
  level: 0
  stage: ""
}
layer {
  name: "data"
  type: "HDF5Data"
  top: "data"
  top: "label"
  include {
    phase: TRAIN
  }
  hdf5_data_param {
    source: "../train.txt"
    batch_size: 2
  }
}
layer {
  name: "conv1"
  type: "Convolution3D"
  bottom: "data"
  top: "conv1"
  param {
    lr_mult: 1
    decay_mult: 1
  }
  param {
    lr_mult: 2
    decay_mult: 0
  }
  convolution3d_param {
    num_output: 96
    pad: 1
    kernel_size: 3
    kernel_depth: 3
    stride: 1
    temporal_stride: 1
    weight_filler {
      type: "gaussian"
      std: 0.01
    }
    bias_filler {
      type: "constant"
      value: 0
    }
    temporal_pad: 1
  }
}
layer {
  name: "relu1"
  type: "ReLU"
  bottom: "conv1"
  top: "conv1"
}
layer {
  name: "pool1"
  type: "Pooling3D"
  bottom: "conv1"
  top: "pool1"
  pooling3d_param {
    pool: MAX
    kernel_size: 2
    stride: 2
    kernel_depth: 2
    temporal_stride: 2
  }
}
layer {
  name: "conv2"
  type: "Convolution3D"
  bottom: "pool1"
  top: "conv2"
  param {
    lr_mult: 1
    decay_mult: 1
  }
  param {
    lr_mult: 2
    decay_mult: 0
  }
  convolution3d_param {
    num_output: 256
    pad: 1
    kernel_size: 3
    kernel_depth: 3
    stride: 1
    temporal_stride: 1
    weight_filler {
      type: "gaussian"
      std: 0.01
    }
    bias_filler {
      type: "constant"
      value: 0
    }
    temporal_pad: 1
  }
}
layer {
  name: "relu2"
  type: "ReLU"
  bottom: "conv2"
  top: "conv2"
}
layer {
  name: "pool2"
  type: "Pooling3D"
  bottom: "conv2"
  top: "pool2"
  pooling3d_param {
    pool: MAX
    kernel_size: 2
    stride: 2
    kernel_depth: 2
    temporal_stride: 2
  }
}
layer {
  name: "conv3"
  type: "Convolution3D"
  bottom: "pool2"
  top: "conv3"
  param {
    lr_mult: 1
    decay_mult: 1
  }
  param {
    lr_mult: 2
    decay_mult: 0
  }
  convolution3d_param {
    num_output: 384
    pad: 1
    kernel_size: 3
    kernel_depth: 3
    stride: 1
    temporal_stride: 1
    weight_filler {
      type: "gaussian"
      std: 0.01
    }
    bias_filler {
      type: "constant"
      value: 1
    }
    temporal_pad: 1
  }
}
layer {
  name: "relu3"
  type: "ReLU"
  bottom: "conv3"
  top: "conv3"
}
layer {
  name: "conv4"
  type: "Convolution3D"
  bottom: "conv3"
  top: "conv4"
  param {
    lr_mult: 1
    decay_mult: 1
  }
  param {
    lr_mult: 2
    decay_mult: 0
  }
  convolution3d_param {
    num_output: 384
    pad: 1
    kernel_size: 3
    kernel_depth: 3
    stride: 1
    temporal_stride: 1
    weight_filler {
      type: "gaussian"
      std: 0.01
    }
    bias_filler {
      type: "constant"
      value: 1
    }
    temporal_pad: 1
  }
}
layer {
  name: "relu4"
  type: "ReLU"
  bottom: "conv4"
  top: "conv4"
}
layer {
  name: "conv5"
  type: "Convolution3D"
  bottom: "conv4"
  top: "conv5"
  param {
    lr_mult: 1
    decay_mult: 1
  }
  param {
    lr_mult: 2
    decay_mult: 0
  }
  convolution3d_param {
    num_output: 384
    pad: 1
    kernel_size: 3
    kernel_depth: 3
    stride: 1
    temporal_stride: 1
    weight_filler {
      type: "gaussian"
      std: 0.01
    }
    bias_filler {
      type: "constant"
      value: 1
    }
    temporal_pad: 1
  }
}
layer {
  name: "relu5"
  type: "ReLU"
  bottom: "conv5"
  top: "conv5"
}
layer {
  name: "pool5"
  type: "Pooling3D"
  bottom: "conv5"
  top: "pool5"
  pooling3d_param {
    pool: MAX
    kernel_size: 2
    stride: 2
    kernel_depth: 2
    temporal_stride: 2
  }
}
layer {
  name: "fc6"
  type: "InnerProduct"
  bottom: "pool5"
  top: "fc6"
  param {
    lr_mult: 1
    decay_mult: 1
  }
  param {
    lr_mult: 2
    decay_mult: 0
  }
  inner_product_param {
    num_output: 1024
    weight_filler {
      type: "gaussian"
      std: 0.005
    }
    bias_filler {
      type: "constant"
      value: 0.1
    }
  }
}
layer {
  name: "relu6"
  type: "ReLU"
  bottom: "fc6"
  top: "fc6"
}
layer {
  name: "drop6"
  type: "Dropout"
  bottom: "fc6"
  top: "fc6"
  dropout_param {
    dropout_ratio: 0.5
  }
}
layer {
  name: "fc7"
  type: "InnerProduct"
  bottom: "fc6"
  top: "fc7"
  param {
    lr_mult: 1
    decay_mult: 1
  }
  param {
    lr_mult: 2
    decay_mult: 0
  }
  inner_product_param {
    num_output: 1024
    weight_filler {
      type: "gaussian"
      std: 0.005
    }
    bias_filler {
      type: "constant"
      value: 0.1
    }
  }
}
layer {
  name: "relu7"
  type: "ReLU"
  bottom: "fc7"
  top: "fc7"
}
layer {
  name: "drop7"
  type: "Dropout"
  bottom: "fc7"
  top: "fc7"
  dropout_param {
    dropout_ratio: 0.5
  }
}
layer {
  name: "fc8"
  type: "InnerProduct"
  bottom: "fc7"
  top: "fc8"
  param {
    lr_mult: 1
    decay_mult: 1
  }
  param {
    lr_mult: 2
    decay_mult: 0
  }
  inner_product_param {
    num_output: 70
    weight_filler {
      type: "gaussian"
      std: 0.01
    }
    bias_filler {
      type: "constant"
      value: 0
    }
  }
}
layer {
  name: "loss"
  type: "SoftmaxWithLoss"
  bottom: "fc8"
  bottom: "label"
  top: "loss"
}
I1118 21:22:00.369500 27838 layer_factory.hpp:77] Creating layer data
I1118 21:22:00.369514 27838 net.cpp:84] Creating Layer data
I1118 21:22:00.369523 27838 net.cpp:380] data -> data
I1118 21:22:00.369546 27838 net.cpp:380] data -> label
I1118 21:22:00.369560 27838 hdf5_data_layer.cpp:79] Loading list of HDF5 filenames from: ../train.txt
I1118 21:22:00.369668 27838 hdf5_data_layer.cpp:93] Number of HDF5 files: 146
I1118 21:22:00.370824 27838 hdf5.cpp:32] Datatype class: H5T_FLOAT
I1118 21:22:00.377997 27838 net.cpp:122] Setting up data
I1118 21:22:00.378041 27838 net.cpp:129] Top shape: 2 1 40 120 120 (1152000)
I1118 21:22:00.378049 27838 net.cpp:129] Top shape: 2 (2)
I1118 21:22:00.378053 27838 net.cpp:137] Memory required for data: 4608008
I1118 21:22:00.378067 27838 layer_factory.hpp:77] Creating layer conv1
I1118 21:22:00.378089 27838 net.cpp:84] Creating Layer conv1
I1118 21:22:00.378108 27838 net.cpp:406] conv1 <- data
I1118 21:22:00.378125 27838 net.cpp:380] conv1 -> conv1
I1118 21:22:00.382464 27838 net.cpp:122] Setting up conv1
I1118 21:22:00.382514 27838 net.cpp:129] Top shape: 2 96 40 120 120 (110592000)
I1118 21:22:00.382520 27838 net.cpp:137] Memory required for data: 446976008
I1118 21:22:00.382566 27838 layer_factory.hpp:77] Creating layer relu1
I1118 21:22:00.382609 27838 net.cpp:84] Creating Layer relu1
I1118 21:22:00.382632 27838 net.cpp:406] relu1 <- conv1
I1118 21:22:00.382656 27838 net.cpp:367] relu1 -> conv1 (in-place)
I1118 21:22:00.382683 27838 net.cpp:122] Setting up relu1
I1118 21:22:00.382702 27838 net.cpp:129] Top shape: 2 96 40 120 120 (110592000)
I1118 21:22:00.382719 27838 net.cpp:137] Memory required for data: 889344008
I1118 21:22:00.382736 27838 layer_factory.hpp:77] Creating layer pool1
I1118 21:22:00.382758 27838 net.cpp:84] Creating Layer pool1
I1118 21:22:00.382776 27838 net.cpp:406] pool1 <- conv1
I1118 21:22:00.382794 27838 net.cpp:380] pool1 -> pool1
I1118 21:22:00.382884 27838 net.cpp:122] Setting up pool1
I1118 21:22:00.382894 27838 net.cpp:129] Top shape: 2 96 20 60 60 (13824000)
I1118 21:22:00.382899 27838 net.cpp:137] Memory required for data: 944640008
I1118 21:22:00.382903 27838 layer_factory.hpp:77] Creating layer conv2
I1118 21:22:00.382915 27838 net.cpp:84] Creating Layer conv2
I1118 21:22:00.382920 27838 net.cpp:406] conv2 <- pool1
I1118 21:22:00.382925 27838 net.cpp:380] conv2 -> conv2
I1118 21:22:00.394145 27838 net.cpp:122] Setting up conv2
I1118 21:22:00.394191 27838 net.cpp:129] Top shape: 2 256 20 60 60 (36864000)
I1118 21:22:00.394196 27838 net.cpp:137] Memory required for data: 1092096008
I1118 21:22:00.394253 27838 layer_factory.hpp:77] Creating layer relu2
I1118 21:22:00.394271 27838 net.cpp:84] Creating Layer relu2
I1118 21:22:00.394279 27838 net.cpp:406] relu2 <- conv2
I1118 21:22:00.394289 27838 net.cpp:367] relu2 -> conv2 (in-place)
I1118 21:22:00.394306 27838 net.cpp:122] Setting up relu2
I1118 21:22:00.394315 27838 net.cpp:129] Top shape: 2 256 20 60 60 (36864000)
I1118 21:22:00.394320 27838 net.cpp:137] Memory required for data: 1239552008
I1118 21:22:00.394323 27838 layer_factory.hpp:77] Creating layer pool2
I1118 21:22:00.394332 27838 net.cpp:84] Creating Layer pool2
I1118 21:22:00.394337 27838 net.cpp:406] pool2 <- conv2
I1118 21:22:00.394345 27838 net.cpp:380] pool2 -> pool2
I1118 21:22:00.394382 27838 net.cpp:122] Setting up pool2
I1118 21:22:00.394392 27838 net.cpp:129] Top shape: 2 256 10 30 30 (4608000)
I1118 21:22:00.394397 27838 net.cpp:137] Memory required for data: 1257984008
I1118 21:22:00.394400 27838 layer_factory.hpp:77] Creating layer conv3
I1118 21:22:00.394412 27838 net.cpp:84] Creating Layer conv3
I1118 21:22:00.394415 27838 net.cpp:406] conv3 <- pool2
I1118 21:22:00.394423 27838 net.cpp:380] conv3 -> conv3
I1118 21:22:00.433550 27838 net.cpp:122] Setting up conv3
I1118 21:22:00.433598 27838 net.cpp:129] Top shape: 2 384 10 30 30 (6912000)
I1118 21:22:00.433604 27838 net.cpp:137] Memory required for data: 1285632008
I1118 21:22:00.433630 27838 layer_factory.hpp:77] Creating layer relu3
I1118 21:22:00.433648 27838 net.cpp:84] Creating Layer relu3
I1118 21:22:00.433656 27838 net.cpp:406] relu3 <- conv3
I1118 21:22:00.433668 27838 net.cpp:367] relu3 -> conv3 (in-place)
I1118 21:22:00.433681 27838 net.cpp:122] Setting up relu3
I1118 21:22:00.433689 27838 net.cpp:129] Top shape: 2 384 10 30 30 (6912000)
I1118 21:22:00.433694 27838 net.cpp:137] Memory required for data: 1313280008
I1118 21:22:00.433698 27838 layer_factory.hpp:77] Creating layer conv4
I1118 21:22:00.433710 27838 net.cpp:84] Creating Layer conv4
I1118 21:22:00.433715 27838 net.cpp:406] conv4 <- conv3
I1118 21:22:00.433723 27838 net.cpp:380] conv4 -> conv4
I1118 21:22:00.487207 27838 net.cpp:122] Setting up conv4
I1118 21:22:00.487246 27838 net.cpp:129] Top shape: 2 384 10 30 30 (6912000)
I1118 21:22:00.487252 27838 net.cpp:137] Memory required for data: 1340928008
I1118 21:22:00.487270 27838 layer_factory.hpp:77] Creating layer relu4
I1118 21:22:00.487283 27838 net.cpp:84] Creating Layer relu4
I1118 21:22:00.487290 27838 net.cpp:406] relu4 <- conv4
I1118 21:22:00.487300 27838 net.cpp:367] relu4 -> conv4 (in-place)
I1118 21:22:00.487311 27838 net.cpp:122] Setting up relu4
I1118 21:22:00.487319 27838 net.cpp:129] Top shape: 2 384 10 30 30 (6912000)
I1118 21:22:00.487324 27838 net.cpp:137] Memory required for data: 1368576008
I1118 21:22:00.487329 27838 layer_factory.hpp:77] Creating layer conv5
I1118 21:22:00.487339 27838 net.cpp:84] Creating Layer conv5
I1118 21:22:00.487344 27838 net.cpp:406] conv5 <- conv4
I1118 21:22:00.487352 27838 net.cpp:380] conv5 -> conv5
I1118 21:22:00.540588 27838 net.cpp:122] Setting up conv5
I1118 21:22:00.540633 27838 net.cpp:129] Top shape: 2 384 10 30 30 (6912000)
I1118 21:22:00.540642 27838 net.cpp:137] Memory required for data: 1396224008
I1118 21:22:00.540664 27838 layer_factory.hpp:77] Creating layer relu5
I1118 21:22:00.540678 27838 net.cpp:84] Creating Layer relu5
I1118 21:22:00.540685 27838 net.cpp:406] relu5 <- conv5
I1118 21:22:00.540695 27838 net.cpp:367] relu5 -> conv5 (in-place)
I1118 21:22:00.540706 27838 net.cpp:122] Setting up relu5
I1118 21:22:00.540714 27838 net.cpp:129] Top shape: 2 384 10 30 30 (6912000)
I1118 21:22:00.540719 27838 net.cpp:137] Memory required for data: 1423872008
I1118 21:22:00.540724 27838 layer_factory.hpp:77] Creating layer pool5
I1118 21:22:00.540733 27838 net.cpp:84] Creating Layer pool5
I1118 21:22:00.540740 27838 net.cpp:406] pool5 <- conv5
I1118 21:22:00.540746 27838 net.cpp:380] pool5 -> pool5
I1118 21:22:00.540772 27838 net.cpp:122] Setting up pool5
I1118 21:22:00.540809 27838 net.cpp:129] Top shape: 2 384 5 15 15 (864000)
I1118 21:22:00.540839 27838 net.cpp:137] Memory required for data: 1427328008
I1118 21:22:00.540844 27838 layer_factory.hpp:77] Creating layer fc6
I1118 21:22:00.540854 27838 net.cpp:84] Creating Layer fc6
I1118 21:22:00.540859 27838 net.cpp:406] fc6 <- pool5
I1118 21:22:00.540868 27838 net.cpp:380] fc6 -> fc6
I1118 21:22:06.345710 27838 net.cpp:122] Setting up fc6
I1118 21:22:06.345746 27838 net.cpp:129] Top shape: 2 1024 (2048)
I1118 21:22:06.345752 27838 net.cpp:137] Memory required for data: 1427336200
I1118 21:22:06.345767 27838 layer_factory.hpp:77] Creating layer relu6
I1118 21:22:06.345782 27838 net.cpp:84] Creating Layer relu6
I1118 21:22:06.345788 27838 net.cpp:406] relu6 <- fc6
I1118 21:22:06.345798 27838 net.cpp:367] relu6 -> fc6 (in-place)
I1118 21:22:06.345824 27838 net.cpp:122] Setting up relu6
I1118 21:22:06.345832 27838 net.cpp:129] Top shape: 2 1024 (2048)
I1118 21:22:06.345837 27838 net.cpp:137] Memory required for data: 1427344392
I1118 21:22:06.345841 27838 layer_factory.hpp:77] Creating layer drop6
I1118 21:22:06.345855 27838 net.cpp:84] Creating Layer drop6
I1118 21:22:06.345862 27838 net.cpp:406] drop6 <- fc6
I1118 21:22:06.345870 27838 net.cpp:367] drop6 -> fc6 (in-place)
I1118 21:22:06.345896 27838 net.cpp:122] Setting up drop6
I1118 21:22:06.345903 27838 net.cpp:129] Top shape: 2 1024 (2048)
I1118 21:22:06.345908 27838 net.cpp:137] Memory required for data: 1427352584
I1118 21:22:06.345912 27838 layer_factory.hpp:77] Creating layer fc7
I1118 21:22:06.345950 27838 net.cpp:84] Creating Layer fc7
I1118 21:22:06.345966 27838 net.cpp:406] fc7 <- fc6
I1118 21:22:06.345978 27838 net.cpp:380] fc7 -> fc7
I1118 21:22:06.361135 27838 net.cpp:122] Setting up fc7
I1118 21:22:06.361222 27838 net.cpp:129] Top shape: 2 1024 (2048)
I1118 21:22:06.361241 27838 net.cpp:137] Memory required for data: 1427360776
I1118 21:22:06.361273 27838 layer_factory.hpp:77] Creating layer relu7
I1118 21:22:06.361302 27838 net.cpp:84] Creating Layer relu7
I1118 21:22:06.361323 27838 net.cpp:406] relu7 <- fc7
I1118 21:22:06.361349 27838 net.cpp:367] relu7 -> fc7 (in-place)
I1118 21:22:06.361377 27838 net.cpp:122] Setting up relu7
I1118 21:22:06.361397 27838 net.cpp:129] Top shape: 2 1024 (2048)
I1118 21:22:06.361414 27838 net.cpp:137] Memory required for data: 1427368968
I1118 21:22:06.361433 27838 layer_factory.hpp:77] Creating layer drop7
I1118 21:22:06.361456 27838 net.cpp:84] Creating Layer drop7
I1118 21:22:06.361474 27838 net.cpp:406] drop7 <- fc7
I1118 21:22:06.361496 27838 net.cpp:367] drop7 -> fc7 (in-place)
I1118 21:22:06.361537 27838 net.cpp:122] Setting up drop7
I1118 21:22:06.361557 27838 net.cpp:129] Top shape: 2 1024 (2048)
I1118 21:22:06.361574 27838 net.cpp:137] Memory required for data: 1427377160
I1118 21:22:06.361591 27838 layer_factory.hpp:77] Creating layer fc8
I1118 21:22:06.361614 27838 net.cpp:84] Creating Layer fc8
I1118 21:22:06.361631 27838 net.cpp:406] fc8 <- fc7
I1118 21:22:06.361654 27838 net.cpp:380] fc8 -> fc8
I1118 21:22:06.362781 27838 net.cpp:122] Setting up fc8
I1118 21:22:06.362857 27838 net.cpp:129] Top shape: 2 70 (140)
I1118 21:22:06.362877 27838 net.cpp:137] Memory required for data: 1427377720
I1118 21:22:06.362911 27838 layer_factory.hpp:77] Creating layer loss
I1118 21:22:06.362938 27838 net.cpp:84] Creating Layer loss
I1118 21:22:06.362960 27838 net.cpp:406] loss <- fc8
I1118 21:22:06.362983 27838 net.cpp:406] loss <- label
I1118 21:22:06.363009 27838 net.cpp:380] loss -> loss
I1118 21:22:06.363054 27838 layer_factory.hpp:77] Creating layer loss
…
