…
snapshot_prefix: "/home/hzzone/1tb/id-model/classification/2d/2d_caffenet/2d_classification_caffenet_train"
solver_mode: GPU
device_id: 0
net: "./train_val.prototxt"
train_state {
  level: 0
  stage: ""
}
I1118 16:33:21.956776 22939 solver.cpp:91] Creating training net from net file: ./train_val.prototxt
I1118 16:33:21.957329 22939 net.cpp:58] Initializing net from parameters: 
name: "CaffeNet"
state {
  phase: TRAIN
  level: 0
  stage: ""
}
layer {
  name: "data"
  type: "HDF5Data"
  top: "data"
  top: "label"
  include {
    phase: TRAIN
  }
  hdf5_data_param {
    source: "../train.txt"
    batch_size: 50
    shuffle: true
  }
}
layer {
  name: "conv1"
  type: "Convolution"
  bottom: "data"
  top: "conv1"
  param {
    lr_mult: 1
    decay_mult: 1
  }
  param {
    lr_mult: 2
    decay_mult: 0
  }
  convolution_param {
    num_output: 96
    kernel_size: 11
    stride: 4
    weight_filler {
      type: "gaussian"
      std: 0.01
    }
    bias_filler {
      type: "constant"
      value: 0
    }
  }
}
layer {
  name: "relu1"
  type: "ReLU"
  bottom: "conv1"
  top: "conv1"
}
layer {
  name: "pool1"
  type: "Pooling"
  bottom: "conv1"
  top: "pool1"
  pooling_param {
    pool: MAX
    kernel_size: 3
    stride: 2
  }
}
layer {
  name: "norm1"
  type: "LRN"
  bottom: "pool1"
  top: "norm1"
  lrn_param {
    local_size: 5
    alpha: 0.0001
    beta: 0.75
  }
}
layer {
  name: "conv2"
  type: "Convolution"
  bottom: "norm1"
  top: "conv2"
  param {
    lr_mult: 1
    decay_mult: 1
  }
  param {
    lr_mult: 2
    decay_mult: 0
  }
  convolution_param {
    num_output: 256
    pad: 2
    kernel_size: 5
    group: 2
    weight_filler {
      type: "gaussian"
      std: 0.01
    }
    bias_filler {
      type: "constant"
      value: 1
    }
  }
}
layer {
  name: "relu2"
  type: "ReLU"
  bottom: "conv2"
  top: "conv2"
}
layer {
  name: "pool2"
  type: "Pooling"
  bottom: "conv2"
  top: "pool2"
  pooling_param {
    pool: MAX
    kernel_size: 3
    stride: 2
  }
}
layer {
  name: "norm2"
  type: "LRN"
  bottom: "pool2"
  top: "norm2"
  lrn_param {
    local_size: 5
    alpha: 0.0001
    beta: 0.75
  }
}
layer {
  name: "conv3"
  type: "Convolution"
  bottom: "norm2"
  top: "conv3"
  param {
    lr_mult: 1
    decay_mult: 1
  }
  param {
    lr_mult: 2
    decay_mult: 0
  }
  convolution_param {
    num_output: 384
    pad: 1
    kernel_size: 3
    weight_filler {
      type: "gaussian"
      std: 0.01
    }
    bias_filler {
      type: "constant"
      value: 0
    }
  }
}
layer {
  name: "relu3"
  type: "ReLU"
  bottom: "conv3"
  top: "conv3"
}
layer {
  name: "conv4"
  type: "Convolution"
  bottom: "conv3"
  top: "conv4"
  param {
    lr_mult: 1
    decay_mult: 1
  }
  param {
    lr_mult: 2
    decay_mult: 0
  }
  convolution_param {
    num_output: 384
    pad: 1
    kernel_size: 3
    group: 2
    weight_filler {
      type: "gaussian"
      std: 0.01
    }
    bias_filler {
      type: "constant"
      value: 1
    }
  }
}
layer {
  name: "relu4"
  type: "ReLU"
  bottom: "conv4"
  top: "conv4"
}
layer {
  name: "conv5"
  type: "Convolution"
  bottom: "conv4"
  top: "conv5"
  param {
    lr_mult: 1
    decay_mult: 1
  }
  param {
    lr_mult: 2
    decay_mult: 0
  }
  convolution_param {
    num_output: 256
    pad: 1
    kernel_size: 3
    group: 2
    weight_filler {
      type: "gaussian"
      std: 0.01
    }
    bias_filler {
      type: "constant"
      value: 1
    }
  }
}
layer {
  name: "relu5"
  type: "ReLU"
  bottom: "conv5"
  top: "conv5"
}
layer {
  name: "pool5"
  type: "Pooling"
  bottom: "conv5"
  top: "pool5"
  pooling_param {
    pool: MAX
    kernel_size: 3
    stride: 2
  }
}
layer {
  name: "fc6"
  type: "InnerProduct"
  bottom: "pool5"
  top: "fc6"
  param {
    lr_mult: 1
    decay_mult: 1
  }
  param {
    lr_mult: 2
    decay_mult: 0
  }
  inner_product_param {
    num_output: 4096
    weight_filler {
      type: "gaussian"
      std: 0.005
    }
    bias_filler {
      type: "constant"
      value: 1
    }
  }
}
layer {
  name: "relu6"
  type: "ReLU"
  bottom: "fc6"
  top: "fc6"
}
layer {
  name: "drop6"
  type: "Dropout"
  bottom: "fc6"
  top: "fc6"
  dropout_param {
    dropout_ratio: 0.5
  }
}
layer {
  name: "fc7"
  type: "InnerProduct"
  bottom: "fc6"
  top: "fc7"
  param {
    lr_mult: 1
    decay_mult: 1
  }
  param {
    lr_mult: 2
    decay_mult: 0
  }
  inner_product_param {
    num_output: 4096
    weight_filler {
      type: "gaussian"
      std: 0.005
    }
    bias_filler {
      type: "constant"
      value: 1
    }
  }
}
layer {
  name: "relu7"
  type: "ReLU"
  bottom: "fc7"
  top: "fc7"
}
layer {
  name: "drop7"
  type: "Dropout"
  bottom: "fc7"
  top: "fc7"
  dropout_param {
    dropout_ratio: 0.5
  }
}
layer {
  name: "fc8"
  type: "InnerProduct"
  bottom: "fc7"
  top: "fc8"
  param {
    lr_mult: 1
    decay_mult: 1
  }
  param {
    lr_mult: 2
    decay_mult: 0
  }
  inner_product_param {
    num_output: 70
    weight_filler {
      type: "gaussian"
      std: 0.01
    }
    bias_filler {
      type: "constant"
      value: 0
    }
  }
}
layer {
  name: "loss"
  type: "SoftmaxWithLoss"
  bottom: "fc8"
  bottom: "label"
  top: "loss"
}
layer {
  name: "center_loss"
  type: "CenterLoss"
  bottom: "fc8"
  bottom: "label"
  top: "center_loss"
  loss_weight: 0.008
  param {
    lr_mult: 1
    decay_mult: 2
  }
  center_loss_param {
    num_output: 70
    center_filler {
      type: "xavier"
    }
  }
}
I1118 16:33:21.957509 22939 layer_factory.hpp:77] Creating layer data
I1118 16:33:21.957526 22939 net.cpp:100] Creating Layer data
I1118 16:33:21.957535 22939 net.cpp:408] data -> data
I1118 16:33:21.957558 22939 net.cpp:408] data -> label
I1118 16:33:21.957571 22939 hdf5_data_layer.cpp:79] Loading list of HDF5 filenames from: ../train.txt
I1118 16:33:21.957686 22939 hdf5_data_layer.cpp:93] Number of HDF5 files: 146
I1118 16:33:21.958894 22939 hdf5.cpp:32] Datatype class: H5T_FLOAT
I1118 16:33:21.976956 22939 net.cpp:150] Setting up data
I1118 16:33:21.977006 22939 net.cpp:157] Top shape: 50 40 120 120 (28800000)
I1118 16:33:21.977015 22939 net.cpp:157] Top shape: 50 (50)
I1118 16:33:21.977020 22939 net.cpp:165] Memory required for data: 115200200
I1118 16:33:21.977033 22939 layer_factory.hpp:77] Creating layer label_data_1_split
I1118 16:33:21.977053 22939 net.cpp:100] Creating Layer label_data_1_split
I1118 16:33:21.977066 22939 net.cpp:434] label_data_1_split <- label
I1118 16:33:21.977083 22939 net.cpp:408] label_data_1_split -> label_data_1_split_0
I1118 16:33:21.977098 22939 net.cpp:408] label_data_1_split -> label_data_1_split_1
I1118 16:33:21.977136 22939 net.cpp:150] Setting up label_data_1_split
I1118 16:33:21.977144 22939 net.cpp:157] Top shape: 50 (50)
I1118 16:33:21.977149 22939 net.cpp:157] Top shape: 50 (50)
I1118 16:33:21.977154 22939 net.cpp:165] Memory required for data: 115200600
I1118 16:33:21.977159 22939 layer_factory.hpp:77] Creating layer conv1
I1118 16:33:21.977180 22939 net.cpp:100] Creating Layer conv1
I1118 16:33:21.977183 22939 net.cpp:434] conv1 <- data
I1118 16:33:21.977190 22939 net.cpp:408] conv1 -> conv1
I1118 16:33:22.301857 22939 net.cpp:150] Setting up conv1
I1118 16:33:22.301898 22939 net.cpp:157] Top shape: 50 96 28 28 (3763200)
I1118 16:33:22.301903 22939 net.cpp:165] Memory required for data: 130253400
I1118 16:33:22.301977 22939 layer_factory.hpp:77] Creating layer relu1
I1118 16:33:22.301993 22939 net.cpp:100] Creating Layer relu1
I1118 16:33:22.302000 22939 net.cpp:434] relu1 <- conv1
I1118 16:33:22.302011 22939 net.cpp:395] relu1 -> conv1 (in-place)
I1118 16:33:22.302281 22939 net.cpp:150] Setting up relu1
I1118 16:33:22.302291 22939 net.cpp:157] Top shape: 50 96 28 28 (3763200)
I1118 16:33:22.302295 22939 net.cpp:165] Memory required for data: 145306200
I1118 16:33:22.302300 22939 layer_factory.hpp:77] Creating layer pool1
I1118 16:33:22.302312 22939 net.cpp:100] Creating Layer pool1
I1118 16:33:22.302336 22939 net.cpp:434] pool1 <- conv1
I1118 16:33:22.302343 22939 net.cpp:408] pool1 -> pool1
I1118 16:33:22.302413 22939 net.cpp:150] Setting up pool1
I1118 16:33:22.302423 22939 net.cpp:157] Top shape: 50 96 14 14 (940800)
I1118 16:33:22.302426 22939 net.cpp:165] Memory required for data: 149069400
I1118 16:33:22.302430 22939 layer_factory.hpp:77] Creating layer norm1
I1118 16:33:22.302443 22939 net.cpp:100] Creating Layer norm1
I1118 16:33:22.302446 22939 net.cpp:434] norm1 <- pool1
I1118 16:33:22.302454 22939 net.cpp:408] norm1 -> norm1
I1118 16:33:22.302670 22939 net.cpp:150] Setting up norm1
I1118 16:33:22.302680 22939 net.cpp:157] Top shape: 50 96 14 14 (940800)
I1118 16:33:22.302683 22939 net.cpp:165] Memory required for data: 152832600
I1118 16:33:22.302687 22939 layer_factory.hpp:77] Creating layer conv2
I1118 16:33:22.302701 22939 net.cpp:100] Creating Layer conv2
I1118 16:33:22.302706 22939 net.cpp:434] conv2 <- norm1
I1118 16:33:22.302714 22939 net.cpp:408] conv2 -> conv2
I1118 16:33:22.309850 22939 net.cpp:150] Setting up conv2
I1118 16:33:22.309888 22939 net.cpp:157] Top shape: 50 256 14 14 (2508800)
I1118 16:33:22.309892 22939 net.cpp:165] Memory required for data: 162867800
I1118 16:33:22.309912 22939 layer_factory.hpp:77] Creating layer relu2
I1118 16:33:22.309952 22939 net.cpp:100] Creating Layer relu2
I1118 16:33:22.309959 22939 net.cpp:434] relu2 <- conv2
I1118 16:33:22.309973 22939 net.cpp:395] relu2 -> conv2 (in-place)
I1118 16:33:22.310180 22939 net.cpp:150] Setting up relu2
I1118 16:33:22.310189 22939 net.cpp:157] Top shape: 50 256 14 14 (2508800)
I1118 16:33:22.310194 22939 net.cpp:165] Memory required for data: 172903000
I1118 16:33:22.310197 22939 layer_factory.hpp:77] Creating layer pool2
I1118 16:33:22.310211 22939 net.cpp:100] Creating Layer pool2
I1118 16:33:22.310216 22939 net.cpp:434] pool2 <- conv2
I1118 16:33:22.310223 22939 net.cpp:408] pool2 -> pool2
I1118 16:33:22.310282 22939 net.cpp:150] Setting up pool2
I1118 16:33:22.310293 22939 net.cpp:157] Top shape: 50 256 7 7 (627200)
I1118 16:33:22.310298 22939 net.cpp:165] Memory required for data: 175411800
I1118 16:33:22.310303 22939 layer_factory.hpp:77] Creating layer norm2
I1118 16:33:22.310317 22939 net.cpp:100] Creating Layer norm2
I1118 16:33:22.310320 22939 net.cpp:434] norm2 <- pool2
I1118 16:33:22.310330 22939 net.cpp:408] norm2 -> norm2
I1118 16:33:22.310561 22939 net.cpp:150] Setting up norm2
I1118 16:33:22.310573 22939 net.cpp:157] Top shape: 50 256 7 7 (627200)
I1118 16:33:22.310578 22939 net.cpp:165] Memory required for data: 177920600
I1118 16:33:22.310581 22939 layer_factory.hpp:77] Creating layer conv3
I1118 16:33:22.310596 22939 net.cpp:100] Creating Layer conv3
I1118 16:33:22.310601 22939 net.cpp:434] conv3 <- norm2
I1118 16:33:22.310609 22939 net.cpp:408] conv3 -> conv3
I1118 16:33:22.324637 22939 net.cpp:150] Setting up conv3
I1118 16:33:22.324676 22939 net.cpp:157] Top shape: 50 384 7 7 (940800)
I1118 16:33:22.324681 22939 net.cpp:165] Memory required for data: 181683800
I1118 16:33:22.324699 22939 layer_factory.hpp:77] Creating layer relu3
I1118 16:33:22.324714 22939 net.cpp:100] Creating Layer relu3
I1118 16:33:22.324721 22939 net.cpp:434] relu3 <- conv3
I1118 16:33:22.324731 22939 net.cpp:395] relu3 -> conv3 (in-place)
I1118 16:33:22.325244 22939 net.cpp:150] Setting up relu3
I1118 16:33:22.325263 22939 net.cpp:157] Top shape: 50 384 7 7 (940800)
I1118 16:33:22.325279 22939 net.cpp:165] Memory required for data: 185447000
I1118 16:33:22.325285 22939 layer_factory.hpp:77] Creating layer conv4
I1118 16:33:22.325304 22939 net.cpp:100] Creating Layer conv4
I1118 16:33:22.325310 22939 net.cpp:434] conv4 <- conv3
I1118 16:33:22.325320 22939 net.cpp:408] conv4 -> conv4
I1118 16:33:22.337667 22939 net.cpp:150] Setting up conv4
I1118 16:33:22.337702 22939 net.cpp:157] Top shape: 50 384 7 7 (940800)
I1118 16:33:22.337707 22939 net.cpp:165] Memory required for data: 189210200
I1118 16:33:22.337723 22939 layer_factory.hpp:77] Creating layer relu4
I1118 16:33:22.337736 22939 net.cpp:100] Creating Layer relu4
I1118 16:33:22.337771 22939 net.cpp:434] relu4 <- conv4
I1118 16:33:22.337785 22939 net.cpp:395] relu4 -> conv4 (in-place)
I1118 16:33:22.338300 22939 net.cpp:150] Setting up relu4
I1118 16:33:22.338315 22939 net.cpp:157] Top shape: 50 384 7 7 (940800)
I1118 16:33:22.338318 22939 net.cpp:165] Memory required for data: 192973400
I1118 16:33:22.338325 22939 layer_factory.hpp:77] Creating layer conv5
I1118 16:33:22.338341 22939 net.cpp:100] Creating Layer conv5
I1118 16:33:22.338347 22939 net.cpp:434] conv5 <- conv4
I1118 16:33:22.338357 22939 net.cpp:408] conv5 -> conv5
I1118 16:33:22.347388 22939 net.cpp:150] Setting up conv5
I1118 16:33:22.347424 22939 net.cpp:157] Top shape: 50 256 7 7 (627200)
I1118 16:33:22.347429 22939 net.cpp:165] Memory required for data: 195482200
I1118 16:33:22.347452 22939 layer_factory.hpp:77] Creating layer relu5
I1118 16:33:22.347467 22939 net.cpp:100] Creating Layer relu5
I1118 16:33:22.347474 22939 net.cpp:434] relu5 <- conv5
I1118 16:33:22.347487 22939 net.cpp:395] relu5 -> conv5 (in-place)
I1118 16:33:22.347700 22939 net.cpp:150] Setting up relu5
I1118 16:33:22.347709 22939 net.cpp:157] Top shape: 50 256 7 7 (627200)
I1118 16:33:22.347713 22939 net.cpp:165] Memory required for data: 197991000
I1118 16:33:22.347719 22939 layer_factory.hpp:77] Creating layer pool5
I1118 16:33:22.347734 22939 net.cpp:100] Creating Layer pool5
I1118 16:33:22.347745 22939 net.cpp:434] pool5 <- conv5
I1118 16:33:22.347754 22939 net.cpp:408] pool5 -> pool5
I1118 16:33:22.347805 22939 net.cpp:150] Setting up pool5
I1118 16:33:22.347813 22939 net.cpp:157] Top shape: 50 256 3 3 (115200)
I1118 16:33:22.347817 22939 net.cpp:165] Memory required for data: 198451800
I1118 16:33:22.347822 22939 layer_factory.hpp:77] Creating layer fc6
I1118 16:33:22.347834 22939 net.cpp:100] Creating Layer fc6
I1118 16:33:22.347838 22939 net.cpp:434] fc6 <- pool5
I1118 16:33:22.347847 22939 net.cpp:408] fc6 -> fc6
I1118 16:33:22.477404 22939 net.cpp:150] Setting up fc6
I1118 16:33:22.477454 22939 net.cpp:157] Top shape: 50 4096 (204800)
I1118 16:33:22.477459 22939 net.cpp:165] Memory required for data: 199271000
I1118 16:33:22.477475 22939 layer_factory.hpp:77] Creating layer relu6
I1118 16:33:22.477490 22939 net.cpp:100] Creating Layer relu6
I1118 16:33:22.477497 22939 net.cpp:434] relu6 <- fc6
I1118 16:33:22.477509 22939 net.cpp:395] relu6 -> fc6 (in-place)
I1118 16:33:22.477794 22939 net.cpp:150] Setting up relu6
I1118 16:33:22.477805 22939 net.cpp:157] Top shape: 50 4096 (204800)
I1118 16:33:22.477809 22939 net.cpp:165] Memory required for data: 200090200
I1118 16:33:22.477813 22939 layer_factory.hpp:77] Creating layer drop6
I1118 16:33:22.477823 22939 net.cpp:100] Creating Layer drop6
I1118 16:33:22.477826 22939 net.cpp:434] drop6 <- fc6
I1118 16:33:22.477834 22939 net.cpp:395] drop6 -> fc6 (in-place)
I1118 16:33:22.477864 22939 net.cpp:150] Setting up drop6
I1118 16:33:22.477872 22939 net.cpp:157] Top shape: 50 4096 (204800)
I1118 16:33:22.477875 22939 net.cpp:165] Memory required for data: 200909400
I1118 16:33:22.477880 22939 layer_factory.hpp:77] Creating layer fc7
I1118 16:33:22.477890 22939 net.cpp:100] Creating Layer fc7
I1118 16:33:22.477893 22939 net.cpp:434] fc7 <- fc6
I1118 16:33:22.477901 22939 net.cpp:408] fc7 -> fc7
I1118 16:33:22.698734 22939 net.cpp:150] Setting up fc7
I1118 16:33:22.698786 22939 net.cpp:157] Top shape: 50 4096 (204800)
I1118 16:33:22.698793 22939 net.cpp:165] Memory required for data: 201728600
I1118 16:33:22.698808 22939 layer_factory.hpp:77] Creating layer relu7
I1118 16:33:22.698822 22939 net.cpp:100] Creating Layer relu7
I1118 16:33:22.698828 22939 net.cpp:434] relu7 <- fc7
I1118 16:33:22.698837 22939 net.cpp:395] relu7 -> fc7 (in-place)
I1118 16:33:22.699122 22939 net.cpp:150] Setting up relu7
I1118 16:33:22.699132 22939 net.cpp:157] Top shape: 50 4096 (204800)
I1118 16:33:22.699136 22939 net.cpp:165] Memory required for data: 202547800
I1118 16:33:22.699141 22939 layer_factory.hpp:77] Creating layer drop7
I1118 16:33:22.699151 22939 net.cpp:100] Creating Layer drop7
I1118 16:33:22.699154 22939 net.cpp:434] drop7 <- fc7
I1118 16:33:22.699195 22939 net.cpp:395] drop7 -> fc7 (in-place)
I1118 16:33:22.699223 22939 net.cpp:150] Setting up drop7
I1118 16:33:22.699232 22939 net.cpp:157] Top shape: 50 4096 (204800)
I1118 16:33:22.699236 22939 net.cpp:165] Memory required for data: 203367000
I1118 16:33:22.699240 22939 layer_factory.hpp:77] Creating layer fc8
I1118 16:33:22.699249 22939 net.cpp:100] Creating Layer fc8
I1118 16:33:22.699254 22939 net.cpp:434] fc8 <- fc7
I1118 16:33:22.699260 22939 net.cpp:408] fc8 -> fc8
I1118 16:33:22.704056 22939 net.cpp:150] Setting up fc8
I1118 16:33:22.704097 22939 net.cpp:157] Top shape: 50 70 (3500)
I1118 16:33:22.704102 22939 net.cpp:165] Memory required for data: 203381000
I1118 16:33:22.704115 22939 layer_factory.hpp:77] Creating layer fc8_fc8_0_split
I1118 16:33:22.704129 22939 net.cpp:100] Creating Layer fc8_fc8_0_split
I1118 16:33:22.704136 22939 net.cpp:434] fc8_fc8_0_split <- fc8
I1118 16:33:22.704146 22939 net.cpp:408] fc8_fc8_0_split -> fc8_fc8_0_split_0
I1118 16:33:22.704157 22939 net.cpp:408] fc8_fc8_0_split -> fc8_fc8_0_split_1
I1118 16:33:22.704229 22939 net.cpp:150] Setting up fc8_fc8_0_split
I1118 16:33:22.704236 22939 net.cpp:157] Top shape: 50 70 (3500)
I1118 16:33:22.704241 22939 net.cpp:157] Top shape: 50 70 (3500)
I1118 16:33:22.704246 22939 net.cpp:165] Memory required for data: 203409000
I1118 16:33:22.704249 22939 layer_factory.hpp:77] Creating layer loss
I1118 16:33:22.704255 22939 net.cpp:100] Creating Layer loss
I1118 16:33:22.704259 22939 net.cpp:434] loss <- fc8_fc8_0_split_0
I1118 16:33:22.704264 22939 net.cpp:434] loss <- label_data_1_split_0
I1118 16:33:22.704270 22939 net.cpp:408] loss -> loss
…
