…
net: "./face_train_test.prototxt"
train_state {
  level: 0
  stage: ""
}
I1021 16:47:24.816630 22318 solver.cpp:91] Creating training net from net file: ./face_train_test.prototxt
I1021 16:47:24.817888 22318 net.cpp:58] Initializing net from parameters: 
name: "LeNet"
state {
  phase: TRAIN
  level: 0
  stage: ""
}
layer {
  name: "data"
  type: "Data"
  top: "data"
  top: "label"
  include {
    phase: TRAIN
  }
  transform_param {
    scale: 0.00390625
  }
  data_param {
    source: "./ordinary_train_lmdb"
    batch_size: 10
    backend: LMDB
  }
}
layer {
  name: "conv1a"
  type: "Convolution"
  bottom: "data"
  top: "conv1a"
  param {
    lr_mult: 1
    decay_mult: 1
  }
  param {
    lr_mult: 2
    decay_mult: 0
  }
  convolution_param {
    num_output: 32
    kernel_size: 3
    stride: 1
    weight_filler {
      type: "xavier"
    }
    bias_filler {
      type: "constant"
      value: 0
    }
  }
}
layer {
  name: "relu1a"
  type: "PReLU"
  bottom: "conv1a"
  top: "conv1a"
}
layer {
  name: "conv1b"
  type: "Convolution"
  bottom: "conv1a"
  top: "conv1b"
  param {
    lr_mult: 1
    decay_mult: 1
  }
  param {
    lr_mult: 2
    decay_mult: 0
  }
  convolution_param {
    num_output: 64
    kernel_size: 3
    stride: 1
    weight_filler {
      type: "xavier"
    }
    bias_filler {
      type: "constant"
      value: 0
    }
  }
}
layer {
  name: "relu1b"
  type: "PReLU"
  bottom: "conv1b"
  top: "conv1b"
}
layer {
  name: "pool1b"
  type: "Pooling"
  bottom: "conv1b"
  top: "pool1b"
  pooling_param {
    pool: MAX
    kernel_size: 2
    stride: 2
  }
}
layer {
  name: "conv2_1"
  type: "Convolution"
  bottom: "pool1b"
  top: "conv2_1"
  param {
    lr_mult: 1
    decay_mult: 1
  }
  param {
    lr_mult: 0
    decay_mult: 0
  }
  convolution_param {
    num_output: 64
    pad: 1
    kernel_size: 3
    stride: 1
    weight_filler {
      type: "gaussian"
      std: 0.01
    }
    bias_filler {
      type: "constant"
      value: 0
    }
  }
}
layer {
  name: "relu2_1"
  type: "PReLU"
  bottom: "conv2_1"
  top: "conv2_1"
}
layer {
  name: "conv2_2"
  type: "Convolution"
  bottom: "conv2_1"
  top: "conv2_2"
  param {
    lr_mult: 1
    decay_mult: 1
  }
  param {
    lr_mult: 0
    decay_mult: 0
  }
  convolution_param {
    num_output: 64
    pad: 1
    kernel_size: 3
    stride: 1
    weight_filler {
      type: "gaussian"
      std: 0.01
    }
    bias_filler {
      type: "constant"
      value: 0
    }
  }
}
layer {
  name: "relu2_2"
  type: "PReLU"
  bottom: "conv2_2"
  top: "conv2_2"
}
layer {
  name: "res2_2"
  type: "Eltwise"
  bottom: "pool1b"
  bottom: "conv2_2"
  top: "res2_2"
  eltwise_param {
    operation: SUM
  }
}
layer {
  name: "conv2"
  type: "Convolution"
  bottom: "res2_2"
  top: "conv2"
  param {
    lr_mult: 1
    decay_mult: 1
  }
  param {
    lr_mult: 2
    decay_mult: 0
  }
  convolution_param {
    num_output: 128
    kernel_size: 3
    stride: 1
    weight_filler {
      type: "xavier"
    }
    bias_filler {
      type: "constant"
      value: 0
    }
  }
}
layer {
  name: "relu2"
  type: "PReLU"
  bottom: "conv2"
  top: "conv2"
}
layer {
  name: "pool2"
  type: "Pooling"
  bottom: "conv2"
  top: "pool2"
  pooling_param {
    pool: MAX
    kernel_size: 2
    stride: 2
  }
}
layer {
  name: "conv3_1"
  type: "Convolution"
  bottom: "pool2"
  top: "conv3_1"
  param {
    lr_mult: 1
    decay_mult: 1
  }
  param {
    lr_mult: 0
    decay_mult: 0
  }
  convolution_param {
    num_output: 128
    pad: 1
    kernel_size: 3
    stride: 1
    weight_filler {
      type: "gaussian"
      std: 0.01
    }
    bias_filler {
      type: "constant"
      value: 0
    }
  }
}
layer {
  name: "relu3_1"
  type: "PReLU"
  bottom: "conv3_1"
  top: "conv3_1"
}
layer {
  name: "conv3_2"
  type: "Convolution"
  bottom: "conv3_1"
  top: "conv3_2"
  param {
    lr_mult: 1
    decay_mult: 1
  }
  param {
    lr_mult: 0
    decay_mult: 0
  }
  convolution_param {
    num_output: 128
    pad: 1
    kernel_size: 3
    stride: 1
    weight_filler {
      type: "gaussian"
      std: 0.01
    }
    bias_filler {
      type: "constant"
      value: 0
    }
  }
}
layer {
  name: "relu3_2"
  type: "PReLU"
  bottom: "conv3_2"
  top: "conv3_2"
}
layer {
  name: "res3_2"
  type: "Eltwise"
  bottom: "pool2"
  bottom: "conv3_2"
  top: "res3_2"
  eltwise_param {
    operation: SUM
  }
}
layer {
  name: "conv3_3"
  type: "Convolution"
  bottom: "res3_2"
  top: "conv3_3"
  param {
    lr_mult: 1
    decay_mult: 1
  }
  param {
    lr_mult: 0
    decay_mult: 0
  }
  convolution_param {
    num_output: 128
    pad: 1
    kernel_size: 3
    stride: 1
    weight_filler {
      type: "gaussian"
      std: 0.01
    }
    bias_filler {
      type: "constant"
      value: 0
    }
  }
}
layer {
  name: "relu3_3"
  type: "PReLU"
  bottom: "conv3_3"
  top: "conv3_3"
}
layer {
  name: "conv3_4"
  type: "Convolution"
  bottom: "conv3_3"
  top: "conv3_4"
  param {
    lr_mult: 1
    decay_mult: 1
  }
  param {
    lr_mult: 0
    decay_mult: 0
  }
  convolution_param {
    num_output: 128
    pad: 1
    kernel_size: 3
    stride: 1
    weight_filler {
      type: "gaussian"
      std: 0.01
    }
    bias_filler {
      type: "constant"
      value: 0
    }
  }
}
layer {
  name: "relu3_4"
  type: "PReLU"
  bottom: "conv3_4"
  top: "conv3_4"
}
layer {
  name: "res3_4"
  type: "Eltwise"
  bottom: "res3_2"
  bottom: "conv3_4"
  top: "res3_4"
  eltwise_param {
    operation: SUM
  }
}
layer {
  name: "conv3"
  type: "Convolution"
  bottom: "res3_4"
  top: "conv3"
  param {
    lr_mult: 1
    decay_mult: 1
  }
  param {
    lr_mult: 2
    decay_mult: 0
  }
  convolution_param {
    num_output: 256
    kernel_size: 3
    stride: 1
    weight_filler {
      type: "xavier"
    }
    bias_filler {
      type: "constant"
      value: 0
    }
  }
}
layer {
  name: "relu3"
  type: "PReLU"
  bottom: "conv3"
  top: "conv3"
}
layer {
  name: "pool3"
  type: "Pooling"
  bottom: "conv3"
  top: "pool3"
  pooling_param {
    pool: MAX
    kernel_size: 2
    stride: 2
  }
}
layer {
  name: "conv4_1"
  type: "Convolution"
  bottom: "pool3"
  top: "conv4_1"
  param {
    lr_mult: 1
    decay_mult: 1
  }
  param {
    lr_mult: 0
    decay_mult: 0
  }
  convolution_param {
    num_output: 256
    pad: 1
    kernel_size: 3
    stride: 1
    weight_filler {
      type: "gaussian"
      std: 0.01
    }
    bias_filler {
      type: "constant"
      value: 0
    }
  }
}
layer {
  name: "relu4_1"
  type: "PReLU"
  bottom: "conv4_1"
  top: "conv4_1"
}
layer {
  name: "conv4_2"
  type: "Convolution"
  bottom: "conv4_1"
  top: "conv4_2"
  param {
    lr_mult: 1
    decay_mult: 1
  }
  param {
    lr_mult: 0
    decay_mult: 0
  }
  convolution_param {
    num_output: 256
    pad: 1
    kernel_size: 3
    stride: 1
    weight_filler {
      type: "gaussian"
      std: 0.01
    }
    bias_filler {
      type: "constant"
      value: 0
    }
  }
}
layer {
  name: "relu4_2"
  type: "PReLU"
  bottom: "conv4_2"
  top: "conv4_2"
}
layer {
  name: "res4_2"
  type: "Eltwise"
  bottom: "pool3"
  bottom: "conv4_2"
  top: "res4_2"
  eltwise_param {
    operation: SUM
  }
}
layer {
  name: "conv4_3"
  type: "Convolution"
  bottom: "res4_2"
  top: "conv4_3"
  param {
    lr_mult: 1
    decay_mult: 1
  }
  param {
    lr_mult: 0
    decay_mult: 0
  }
  convolution_param {
    num_output: 256
    pad: 1
    kernel_size: 3
    stride: 1
    weight_filler {
      type: "gaussian"
      std: 0.01
    }
    bias_filler {
      type: "constant"
      value: 0
    }
  }
}
layer {
  name: "relu4_3"
  type: "PReLU"
  bottom: "conv4_3"
  top: "conv4_3"
}
layer {
  name: "conv4_4"
  type: "Convolution"
  bottom: "conv4_3"
  top: "conv4_4"
  param {
    lr_mult: 1
    decay_mult: 1
  }
  param {
    lr_mult: 0
    decay_mult: 0
  }
  convolution_param {
    num_output: 256
    pad: 1
    kernel_size: 3
    stride: 1
    weight_filler {
      type: "gaussian"
      std: 0.01
    }
    bias_filler {
      type: "constant"
      value: 0
    }
  }
}
layer {
  name: "relu4_4"
  type: "PReLU"
  bottom: "conv4_4"
  top: "conv4_4"
}
layer {
  name: "res4_4"
  type: "Eltwise"
  bottom: "res4_2"
  bottom: "conv4_4"
  top: "res4_4"
  eltwise_param {
    operation: SUM
  }
}
layer {
  name: "conv4_5"
  type: "Convolution"
  bottom: "res4_4"
  top: "conv4_5"
  param {
    lr_mult: 1
    decay_mult: 1
  }
  param {
    lr_mult: 0
    decay_mult: 0
  }
  convolution_param {
    num_output: 256
    pad: 1
    kernel_size: 3
    stride: 1
    weight_filler {
      type: "gaussian"
      std: 0.01
    }
    bias_filler {
      type: "constant"
      value: 0
    }
  }
}
layer {
  name: "relu4_5"
  type: "PReLU"
  bottom: "conv4_5"
  top: "conv4_5"
}
layer {
  name: "conv4_6"
  type: "Convolution"
  bottom: "conv4_5"
  top: "conv4_6"
  param {
    lr_mult: 1
    decay_mult: 1
  }
  param {
    lr_mult: 0
    decay_mult: 0
  }
  convolution_param {
    num_output: 256
    pad: 1
    kernel_size: 3
    stride: 1
    weight_filler {
      type: "gaussian"
      std: 0.01
    }
    bias_filler {
      type: "constant"
      value: 0
    }
  }
}
layer {
  name: "relu4_6"
  type: "PReLU"
  bottom: "conv4_6"
  top: "conv4_6"
}
layer {
  name: "res4_6"
  type: "Eltwise"
  bottom: "res4_4"
  bottom: "conv4_6"
  top: "res4_6"
  eltwise_param {
    operation: SUM
  }
}
layer {
  name: "conv4_7"
  type: "Convolution"
  bottom: "res4_6"
  top: "conv4_7"
  param {
    lr_mult: 1
    decay_mult: 1
  }
  param {
    lr_mult: 0
    decay_mult: 0
  }
  convolution_param {
    num_output: 256
    pad: 1
    kernel_size: 3
    stride: 1
    weight_filler {
      type: "gaussian"
      std: 0.01
    }
    bias_filler {
      type: "constant"
      value: 0
    }
  }
}
layer {
  name: "relu4_7"
  type: "PReLU"
  bottom: "conv4_7"
  top: "conv4_7"
}
layer {
  name: "conv4_8"
  type: "Convolution"
  bottom: "conv4_7"
  top: "conv4_8"
  param {
    lr_mult: 1
    decay_mult: 1
  }
  param {
    lr_mult: 0
    decay_mult: 0
  }
  convolution_param {
    num_output: 256
    pad: 1
    kernel_size: 3
    stride: 1
    weight_filler {
      type: "gaussian"
      std: 0.01
    }
    bias_filler {
      type: "constant"
      value: 0
    }
  }
}
layer {
  name: "relu4_8"
  type: "PReLU"
  bottom: "conv4_8"
  top: "conv4_8"
}
layer {
  name: "res4_8"
  type: "Eltwise"
  bottom: "res4_6"
  bottom: "conv4_8"
  top: "res4_8"
  eltwise_param {
    operation: SUM
  }
}
layer {
  name: "conv4_9"
  type: "Convolution"
  bottom: "res4_8"
  top: "conv4_9"
  param {
    lr_mult: 1
    decay_mult: 1
  }
  param {
    lr_mult: 0
    decay_mult: 0
  }
  convolution_param {
    num_output: 256
    pad: 1
    kernel_size: 3
    stride: 1
    weight_filler {
      type: "gaussian"
      std: 0.01
    }
    bias_filler {
      type: "constant"
      value: 0
    }
  }
}
layer {
  name: "relu4_9"
  type: "PReLU"
  bottom: "conv4_9"
  top: "conv4_9"
}
layer {
  name: "conv4_10"
  type: "Convolution"
  bottom: "conv4_9"
  top: "conv4_10"
  param {
    lr_mult: 1
    decay_mult: 1
  }
  param {
    lr_mult: 0
    decay_mult: 0
  }
  convolution_param {
    num_output: 256
    pad: 1
    kernel_size: 3
    stride: 1
    weight_filler {
      type: "gaussian"
      std: 0.01
    }
    bias_filler {
      type: "constant"
      value: 0
    }
  }
}
layer {
  name: "relu4_10"
  type: "PReLU"
  bottom: "conv4_10"
  top: "conv4_10"
}
layer {
  name: "res4_10"
  type: "Eltwise"
  bottom: "res4_8"
  bottom: "conv4_10"
  top: "res4_10"
  eltwise_param {
    operation: SUM
  }
}
layer {
  name: "conv4"
  type: "Convolution"
  bottom: "res4_10"
  top: "conv4"
  param {
    lr_mult: 1
    decay_mult: 1
  }
  param {
    lr_mult: 2
    decay_mult: 0
  }
  convolution_param {
    num_output: 512
    kernel_size: 3
    stride: 1
    weight_filler {
      type: "xavier"
    }
    bias_filler {
      type: "constant"
      value: 0
    }
  }
}
layer {
  name: "relu4"
  type: "PReLU"
  bottom: "conv4"
  top: "conv4"
}
layer {
  name: "pool4"
  type: "Pooling"
  bottom: "conv4"
  top: "pool4"
  pooling_param {
    pool: MAX
    kernel_size: 2
    stride: 2
  }
}
layer {
  name: "conv5_1"
  type: "Convolution"
  bottom: "pool4"
  top: "conv5_1"
  param {
    lr_mult: 1
    decay_mult: 1
  }
  param {
    lr_mult: 0
    decay_mult: 0
  }
  convolution_param {
    num_output: 512
    pad: 1
    kernel_size: 3
    stride: 1
    weight_filler {
      type: "gaussian"
      std: 0.01
    }
    bias_filler {
      type: "constant"
      value: 0
    }
  }
}
layer {
  name: "relu5_1"
  type: "PReLU"
  bottom: "conv5_1"
  top: "conv5_1"
}
layer {
  name: "conv5_2"
  type: "Convolution"
  bottom: "conv5_1"
  top: "conv5_2"
  param {
    lr_mult: 1
    decay_mult: 1
  }
  param {
    lr_mult: 0
    decay_mult: 0
  }
  convolution_param {
    num_output: 512
    pad: 1
    kernel_size: 3
    stride: 1
    weight_filler {
      type: "gaussian"
      std: 0.01
    }
    bias_filler {
      type: "constant"
      value: 0
    }
  }
}
layer {
  name: "relu5_2"
  type: "PReLU"
  bottom: "conv5_2"
  top: "conv5_2"
}
layer {
  name: "res5_2"
  type: "Eltwise"
  bottom: "pool4"
  bottom: "conv5_2"
  top: "res5_2"
  eltwise_param {
    operation: SUM
  }
}
layer {
  name: "conv5_3"
  type: "Convolution"
  bottom: "res5_2"
  top: "conv5_3"
  param {
    lr_mult: 1
    decay_mult: 1
  }
  param {
    lr_mult: 0
    decay_mult: 0
  }
  convolution_param {
    num_output: 512
    pad: 1
    kernel_size: 3
    stride: 1
    weight_filler {
      type: "gaussian"
      std: 0.01
    }
    bias_filler {
      type: "constant"
      value: 0
    }
  }
}
layer {
  name: "relu5_3"
  type: "PReLU"
  bottom: "conv5_3"
  top: "conv5_3"
}
layer {
  name: "conv5_4"
  type: "Convolution"
  bottom: "conv5_3"
  top: "conv5_4"
  param {
    lr_mult: 1
    decay_mult: 1
  }
  param {
    lr_mult: 0
    decay_mult: 0
  }
  convolution_param {
    num_output: 512
    pad: 1
    kernel_size: 3
    stride: 1
    weight_filler {
      type: "gaussian"
      std: 0.01
    }
    bias_filler {
      type: "constant"
      value: 0
    }
  }
}
layer {
  name: "relu5_4"
  type: "PReLU"
  bottom: "conv5_4"
  top: "conv5_4"
}
layer {
  name: "res5_4"
  type: "Eltwise"
  bottom: "res5_2"
  bottom: "conv5_4"
  top: "res5_4"
  eltwise_param {
    operation: SUM
  }
}
layer {
  name: "conv5_5"
  type: "Convolution"
  bottom: "res5_4"
  top: "conv5_5"
  param {
    lr_mult: 1
    decay_mult: 1
  }
  param {
    lr_mult: 0
    decay_mult: 0
  }
  convolution_param {
    num_output: 512
    pad: 1
    kernel_size: 3
    stride: 1
    weight_filler {
      type: "gaussian"
      std: 0.01
    }
    bias_filler {
      type: "constant"
      value: 0
    }
  }
}
layer {
  name: "relu5_5"
  type: "PReLU"
  bottom: "conv5_5"
  top: "conv5_5"
}
layer {
  name: "conv5_6"
  type: "Convolution"
  bottom: "conv5_5"
  top: "conv5_6"
  param {
    lr_mult: 1
    decay_mult: 1
  }
  param {
    lr_mult: 0
    decay_mult: 0
  }
  convolution_param {
    num_output: 512
    pad: 1
    kernel_size: 3
    stride: 1
    weight_filler {
      type: "gaussian"
      std: 0.01
    }
    bias_filler {
      type: "constant"
      value: 0
    }
  }
}
layer {
  name: "relu5_6"
  type: "PReLU"
  bottom: "conv5_6"
  top: "conv5_6"
}
layer {
  name: "res5_6"
  type: "Eltwise"
  bottom: "res5_4"
  bottom: "conv5_6"
  top: "res5_6"
  eltwise_param {
    operation: SUM
  }
}
layer {
  name: "fc5"
  type: "InnerProduct"
  bottom: "res5_6"
  top: "fc5"
  param {
    lr_mult: 1
    decay_mult: 1
  }
  param {
    lr_mult: 2
    decay_mult: 0
  }
  inner_product_param {
    num_output: 512
    weight_filler {
      type: "xavier"
    }
    bias_filler {
      type: "constant"
      value: 0
    }
  }
}
layer {
  name: "fc6"
  type: "InnerProduct"
  bottom: "fc5"
  top: "fc6"
  param {
    lr_mult: 1
    decay_mult: 1
  }
  param {
    lr_mult: 2
    decay_mult: 0
  }
  inner_product_param {
    num_output: 5
    weight_filler {
      type: "xavier"
    }
    bias_filler {
      type: "constant"
      value: 0
    }
  }
}
layer {
  name: "softmax_loss"
  type: "SoftmaxWithLoss"
  bottom: "fc6"
  bottom: "label"
  top: "softmax_loss"
}
layer {
  name: "center_loss"
  type: "CenterLoss"
  bottom: "fc5"
  bottom: "label"
  top: "center_loss"
  loss_weight: 0.008
  param {
    lr_mult: 1
    decay_mult: 2
  }
  center_loss_param {
    num_output: 5
    center_filler {
      type: "xavier"
    }
  }
}
I1021 16:47:24.818307 22318 layer_factory.hpp:77] Creating layer data
I1021 16:47:24.818904 22318 net.cpp:100] Creating Layer data
I1021 16:47:24.818943 22318 net.cpp:408] data -> data
I1021 16:47:24.818974 22318 net.cpp:408] data -> label
…
[libprotobuf ERROR google/protobuf/io/coded_stream.cc:180] A protocol message was rejected because it was too big (more than 67108864 bytes).  To increase the limit (or to disable these warnings), see CodedInputStream::SetTotalBytesLimit() in google/protobuf/io/coded_stream.h.
[libprotobuf ERROR google/protobuf/io/coded_stream.cc:180] A protocol message was rejected because it was too big (more than 67108864 bytes).  To increase the limit (or to disable these warnings), see CodedInputStream::SetTotalBytesLimit() in google/protobuf/io/coded_stream.h.
I1021 16:47:26.107125 22318 net.cpp:150] Setting up data
I1021 16:47:26.107188 22318 net.cpp:157] Top shape: 10 250 227 227 (128822500)
I1021 16:47:26.107197 22318 net.cpp:157] Top shape: 10 (10)
I1021 16:47:26.107201 22318 net.cpp:165] Memory required for data: 515290040
I1021 16:47:26.107223 22318 layer_factory.hpp:77] Creating layer label_data_1_split
I1021 16:47:26.107249 22318 net.cpp:100] Creating Layer label_data_1_split
I1021 16:47:26.107259 22318 net.cpp:434] label_data_1_split <- label
I1021 16:47:26.107282 22318 net.cpp:408] label_data_1_split -> label_data_1_split_0
I1021 16:47:26.107300 22318 net.cpp:408] label_data_1_split -> label_data_1_split_1
I1021 16:47:26.107539 22318 net.cpp:150] Setting up label_data_1_split
I1021 16:47:26.107548 22318 net.cpp:157] Top shape: 10 (10)
I1021 16:47:26.107599 22318 net.cpp:157] Top shape: 10 (10)
I1021 16:47:26.107605 22318 net.cpp:165] Memory required for data: 515290120
I1021 16:47:26.107632 22318 layer_factory.hpp:77] Creating layer conv1a
I1021 16:47:26.107697 22318 net.cpp:100] Creating Layer conv1a
I1021 16:47:26.107703 22318 net.cpp:434] conv1a <- data
I1021 16:47:26.107755 22318 net.cpp:408] conv1a -> conv1a
[libprotobuf ERROR google/protobuf/io/coded_stream.cc:180] A protocol message was rejected because it was too big (more than 67108864 bytes).  To increase the limit (or to disable these warnings), see CodedInputStream::SetTotalBytesLimit() in google/protobuf/io/coded_stream.h.
I1021 16:47:26.412554 22325 blocking_queue.cpp:50] Waiting for data
[libprotobuf ERROR google/protobuf/io/coded_stream.cc:180] A protocol message was rejected because it was too big (more than 67108864 bytes).  To increase the limit (or to disable these warnings), see CodedInputStream::SetTotalBytesLimit() in google/protobuf/io/coded_stream.h.
[libprotobuf ERROR google/protobuf/io/coded_stream.cc:180] A protocol message was rejected because it was too big (more than 67108864 bytes).  To increase the limit (or to disable these warnings), see CodedInputStream::SetTotalBytesLimit() in google/protobuf/io/coded_stream.h.
I1021 16:47:26.665922 22318 net.cpp:150] Setting up conv1a
I1021 16:47:26.665976 22318 net.cpp:157] Top shape: 10 32 225 225 (16200000)
I1021 16:47:26.665983 22318 net.cpp:165] Memory required for data: 580090120
I1021 16:47:26.666033 22318 layer_factory.hpp:77] Creating layer relu1a
I1021 16:47:26.666054 22318 net.cpp:100] Creating Layer relu1a
I1021 16:47:26.666064 22318 net.cpp:434] relu1a <- conv1a
I1021 16:47:26.666075 22318 net.cpp:395] relu1a -> conv1a (in-place)
I1021 16:47:26.673611 22318 net.cpp:150] Setting up relu1a
I1021 16:47:26.673684 22318 net.cpp:157] Top shape: 10 32 225 225 (16200000)
I1021 16:47:26.673691 22318 net.cpp:165] Memory required for data: 644890120
I1021 16:47:26.673719 22318 layer_factory.hpp:77] Creating layer conv1b
I1021 16:47:26.673760 22318 net.cpp:100] Creating Layer conv1b
I1021 16:47:26.673770 22318 net.cpp:434] conv1b <- conv1a
I1021 16:47:26.673784 22318 net.cpp:408] conv1b -> conv1b
I1021 16:47:26.676239 22318 net.cpp:150] Setting up conv1b
I1021 16:47:26.676259 22318 net.cpp:157] Top shape: 10 64 223 223 (31826560)
I1021 16:47:26.676265 22318 net.cpp:165] Memory required for data: 772196360
I1021 16:47:26.676285 22318 layer_factory.hpp:77] Creating layer relu1b
I1021 16:47:26.676297 22318 net.cpp:100] Creating Layer relu1b
I1021 16:47:26.676303 22318 net.cpp:434] relu1b <- conv1b
I1021 16:47:26.676312 22318 net.cpp:395] relu1b -> conv1b (in-place)
I1021 16:47:26.691686 22318 net.cpp:150] Setting up relu1b
I1021 16:47:26.691766 22318 net.cpp:157] Top shape: 10 64 223 223 (31826560)
I1021 16:47:26.691773 22318 net.cpp:165] Memory required for data: 899502600
I1021 16:47:26.691792 22318 layer_factory.hpp:77] Creating layer pool1b
I1021 16:47:26.691820 22318 net.cpp:100] Creating Layer pool1b
I1021 16:47:26.691828 22318 net.cpp:434] pool1b <- conv1b
I1021 16:47:26.691845 22318 net.cpp:408] pool1b -> pool1b
I1021 16:47:26.691936 22318 net.cpp:150] Setting up pool1b
I1021 16:47:26.691985 22318 net.cpp:157] Top shape: 10 64 112 112 (8028160)
I1021 16:47:26.692042 22318 net.cpp:165] Memory required for data: 931615240
I1021 16:47:26.692059 22318 layer_factory.hpp:77] Creating layer pool1b_pool1b_0_split
I1021 16:47:26.692082 22318 net.cpp:100] Creating Layer pool1b_pool1b_0_split
I1021 16:47:26.692103 22318 net.cpp:434] pool1b_pool1b_0_split <- pool1b
I1021 16:47:26.692122 22318 net.cpp:408] pool1b_pool1b_0_split -> pool1b_pool1b_0_split_0
I1021 16:47:26.692143 22318 net.cpp:408] pool1b_pool1b_0_split -> pool1b_pool1b_0_split_1
I1021 16:47:26.692204 22318 net.cpp:150] Setting up pool1b_pool1b_0_split
I1021 16:47:26.692214 22318 net.cpp:157] Top shape: 10 64 112 112 (8028160)
I1021 16:47:26.692222 22318 net.cpp:157] Top shape: 10 64 112 112 (8028160)
I1021 16:47:26.692227 22318 net.cpp:165] Memory required for data: 995840520
I1021 16:47:26.692231 22318 layer_factory.hpp:77] Creating layer conv2_1
I1021 16:47:26.692255 22318 net.cpp:100] Creating Layer conv2_1
I1021 16:47:26.692260 22318 net.cpp:434] conv2_1 <- pool1b_pool1b_0_split_0
I1021 16:47:26.692270 22318 net.cpp:408] conv2_1 -> conv2_1
I1021 16:47:26.695899 22318 net.cpp:150] Setting up conv2_1
I1021 16:47:26.695960 22318 net.cpp:157] Top shape: 10 64 112 112 (8028160)
I1021 16:47:26.695966 22318 net.cpp:165] Memory required for data: 1027953160
I1021 16:47:26.696069 22318 layer_factory.hpp:77] Creating layer relu2_1
I1021 16:47:26.696126 22318 net.cpp:100] Creating Layer relu2_1
I1021 16:47:26.696161 22318 net.cpp:434] relu2_1 <- conv2_1
I1021 16:47:26.696200 22318 net.cpp:395] relu2_1 -> conv2_1 (in-place)
I1021 16:47:26.701406 22318 net.cpp:150] Setting up relu2_1
I1021 16:47:26.701481 22318 net.cpp:157] Top shape: 10 64 112 112 (8028160)
I1021 16:47:26.701489 22318 net.cpp:165] Memory required for data: 1060065800
I1021 16:47:26.701539 22318 layer_factory.hpp:77] Creating layer conv2_2
I1021 16:47:26.701580 22318 net.cpp:100] Creating Layer conv2_2
I1021 16:47:26.701591 22318 net.cpp:434] conv2_2 <- conv2_1
I1021 16:47:26.701606 22318 net.cpp:408] conv2_2 -> conv2_2
I1021 16:47:26.704720 22318 net.cpp:150] Setting up conv2_2
I1021 16:47:26.704744 22318 net.cpp:157] Top shape: 10 64 112 112 (8028160)
I1021 16:47:26.704761 22318 net.cpp:165] Memory required for data: 1092178440
I1021 16:47:26.704785 22318 layer_factory.hpp:77] Creating layer relu2_2
I1021 16:47:26.704800 22318 net.cpp:100] Creating Layer relu2_2
I1021 16:47:26.704807 22318 net.cpp:434] relu2_2 <- conv2_2
I1021 16:47:26.704818 22318 net.cpp:395] relu2_2 -> conv2_2 (in-place)
I1021 16:47:26.709134 22318 net.cpp:150] Setting up relu2_2
I1021 16:47:26.709208 22318 net.cpp:157] Top shape: 10 64 112 112 (8028160)
I1021 16:47:26.709215 22318 net.cpp:165] Memory required for data: 1124291080
I1021 16:47:26.709257 22318 layer_factory.hpp:77] Creating layer res2_2
I1021 16:47:26.709287 22318 net.cpp:100] Creating Layer res2_2
I1021 16:47:26.709298 22318 net.cpp:434] res2_2 <- pool1b_pool1b_0_split_1
I1021 16:47:26.709311 22318 net.cpp:434] res2_2 <- conv2_2
I1021 16:47:26.709322 22318 net.cpp:408] res2_2 -> res2_2
I1021 16:47:26.709389 22318 net.cpp:150] Setting up res2_2
I1021 16:47:26.709399 22318 net.cpp:157] Top shape: 10 64 112 112 (8028160)
I1021 16:47:26.709408 22318 net.cpp:165] Memory required for data: 1156403720
I1021 16:47:26.709417 22318 layer_factory.hpp:77] Creating layer conv2
I1021 16:47:26.709434 22318 net.cpp:100] Creating Layer conv2
I1021 16:47:26.709441 22318 net.cpp:434] conv2 <- res2_2
I1021 16:47:26.709455 22318 net.cpp:408] conv2 -> conv2
I1021 16:47:26.711999 22318 net.cpp:150] Setting up conv2
I1021 16:47:26.712024 22318 net.cpp:157] Top shape: 10 128 110 110 (15488000)
I1021 16:47:26.712038 22318 net.cpp:165] Memory required for data: 1218355720
I1021 16:47:26.712056 22318 layer_factory.hpp:77] Creating layer relu2
I1021 16:47:26.712070 22318 net.cpp:100] Creating Layer relu2
I1021 16:47:26.712077 22318 net.cpp:434] relu2 <- conv2
I1021 16:47:26.712087 22318 net.cpp:395] relu2 -> conv2 (in-place)
I1021 16:47:26.719838 22318 net.cpp:150] Setting up relu2
I1021 16:47:26.719908 22318 net.cpp:157] Top shape: 10 128 110 110 (15488000)
I1021 16:47:26.719970 22318 net.cpp:165] Memory required for data: 1280307720
I1021 16:47:26.719990 22318 layer_factory.hpp:77] Creating layer pool2
I1021 16:47:26.720016 22318 net.cpp:100] Creating Layer pool2
I1021 16:47:26.720023 22318 net.cpp:434] pool2 <- conv2
I1021 16:47:26.720038 22318 net.cpp:408] pool2 -> pool2
I1021 16:47:26.720106 22318 net.cpp:150] Setting up pool2
I1021 16:47:26.720114 22318 net.cpp:157] Top shape: 10 128 55 55 (3872000)
I1021 16:47:26.720118 22318 net.cpp:165] Memory required for data: 1295795720
I1021 16:47:26.720124 22318 layer_factory.hpp:77] Creating layer pool2_pool2_0_split
I1021 16:47:26.720140 22318 net.cpp:100] Creating Layer pool2_pool2_0_split
I1021 16:47:26.720145 22318 net.cpp:434] pool2_pool2_0_split <- pool2
I1021 16:47:26.720155 22318 net.cpp:408] pool2_pool2_0_split -> pool2_pool2_0_split_0
I1021 16:47:26.720163 22318 net.cpp:408] pool2_pool2_0_split -> pool2_pool2_0_split_1
I1021 16:47:26.720207 22318 net.cpp:150] Setting up pool2_pool2_0_split
I1021 16:47:26.720214 22318 net.cpp:157] Top shape: 10 128 55 55 (3872000)
I1021 16:47:26.720221 22318 net.cpp:157] Top shape: 10 128 55 55 (3872000)
I1021 16:47:26.720226 22318 net.cpp:165] Memory required for data: 1326771720
I1021 16:47:26.720229 22318 layer_factory.hpp:77] Creating layer conv3_1
I1021 16:47:26.720247 22318 net.cpp:100] Creating Layer conv3_1
I1021 16:47:26.720252 22318 net.cpp:434] conv3_1 <- pool2_pool2_0_split_0
I1021 16:47:26.720262 22318 net.cpp:408] conv3_1 -> conv3_1
I1021 16:47:26.725563 22318 net.cpp:150] Setting up conv3_1
I1021 16:47:26.725623 22318 net.cpp:157] Top shape: 10 128 55 55 (3872000)
I1021 16:47:26.725630 22318 net.cpp:165] Memory required for data: 1342259720
I1021 16:47:26.725667 22318 layer_factory.hpp:77] Creating layer relu3_1
I1021 16:47:26.725684 22318 net.cpp:100] Creating Layer relu3_1
I1021 16:47:26.725693 22318 net.cpp:434] relu3_1 <- conv3_1
I1021 16:47:26.725708 22318 net.cpp:395] relu3_1 -> conv3_1 (in-place)
I1021 16:47:26.728689 22318 net.cpp:150] Setting up relu3_1
I1021 16:47:26.728847 22318 net.cpp:157] Top shape: 10 128 55 55 (3872000)
I1021 16:47:26.728868 22318 net.cpp:165] Memory required for data: 1357747720
I1021 16:47:26.728899 22318 layer_factory.hpp:77] Creating layer conv3_2
I1021 16:47:26.728940 22318 net.cpp:100] Creating Layer conv3_2
I1021 16:47:26.728960 22318 net.cpp:434] conv3_2 <- conv3_1
I1021 16:47:26.728984 22318 net.cpp:408] conv3_2 -> conv3_2
I1021 16:47:26.732929 22318 net.cpp:150] Setting up conv3_2
I1021 16:47:26.732975 22318 net.cpp:157] Top shape: 10 128 55 55 (3872000)
I1021 16:47:26.732980 22318 net.cpp:165] Memory required for data: 1373235720
I1021 16:47:26.733000 22318 layer_factory.hpp:77] Creating layer relu3_2
I1021 16:47:26.733019 22318 net.cpp:100] Creating Layer relu3_2
I1021 16:47:26.733026 22318 net.cpp:434] relu3_2 <- conv3_2
I1021 16:47:26.733039 22318 net.cpp:395] relu3_2 -> conv3_2 (in-place)
I1021 16:47:26.735544 22318 net.cpp:150] Setting up relu3_2
I1021 16:47:26.735610 22318 net.cpp:157] Top shape: 10 128 55 55 (3872000)
I1021 16:47:26.735618 22318 net.cpp:165] Memory required for data: 1388723720
I1021 16:47:26.735635 22318 layer_factory.hpp:77] Creating layer res3_2
I1021 16:47:26.735659 22318 net.cpp:100] Creating Layer res3_2
I1021 16:47:26.735669 22318 net.cpp:434] res3_2 <- pool2_pool2_0_split_1
I1021 16:47:26.735682 22318 net.cpp:434] res3_2 <- conv3_2
I1021 16:47:26.735692 22318 net.cpp:408] res3_2 -> res3_2
I1021 16:47:26.735747 22318 net.cpp:150] Setting up res3_2
I1021 16:47:26.735780 22318 net.cpp:157] Top shape: 10 128 55 55 (3872000)
I1021 16:47:26.735796 22318 net.cpp:165] Memory required for data: 1404211720
I1021 16:47:26.735812 22318 layer_factory.hpp:77] Creating layer res3_2_res3_2_0_split
I1021 16:47:26.735833 22318 net.cpp:100] Creating Layer res3_2_res3_2_0_split
I1021 16:47:26.735852 22318 net.cpp:434] res3_2_res3_2_0_split <- res3_2
I1021 16:47:26.735872 22318 net.cpp:408] res3_2_res3_2_0_split -> res3_2_res3_2_0_split_0
I1021 16:47:26.735893 22318 net.cpp:408] res3_2_res3_2_0_split -> res3_2_res3_2_0_split_1
I1021 16:47:26.735987 22318 net.cpp:150] Setting up res3_2_res3_2_0_split
I1021 16:47:26.736019 22318 net.cpp:157] Top shape: 10 128 55 55 (3872000)
I1021 16:47:26.736037 22318 net.cpp:157] Top shape: 10 128 55 55 (3872000)
I1021 16:47:26.736052 22318 net.cpp:165] Memory required for data: 1435187720
I1021 16:47:26.736066 22318 layer_factory.hpp:77] Creating layer conv3_3
I1021 16:47:26.736096 22318 net.cpp:100] Creating Layer conv3_3
I1021 16:47:26.736112 22318 net.cpp:434] conv3_3 <- res3_2_res3_2_0_split_0
I1021 16:47:26.736131 22318 net.cpp:408] conv3_3 -> conv3_3
I1021 16:47:26.741442 22318 net.cpp:150] Setting up conv3_3
I1021 16:47:26.741492 22318 net.cpp:157] Top shape: 10 128 55 55 (3872000)
I1021 16:47:26.741497 22318 net.cpp:165] Memory required for data: 1450675720
I1021 16:47:26.741516 22318 layer_factory.hpp:77] Creating layer relu3_3
I1021 16:47:26.741534 22318 net.cpp:100] Creating Layer relu3_3
I1021 16:47:26.741542 22318 net.cpp:434] relu3_3 <- conv3_3
I1021 16:47:26.741554 22318 net.cpp:395] relu3_3 -> conv3_3 (in-place)
I1021 16:47:26.743830 22318 net.cpp:150] Setting up relu3_3
I1021 16:47:26.743893 22318 net.cpp:157] Top shape: 10 128 55 55 (3872000)
I1021 16:47:26.743901 22318 net.cpp:165] Memory required for data: 1466163720
I1021 16:47:26.743918 22318 layer_factory.hpp:77] Creating layer conv3_4
I1021 16:47:26.743952 22318 net.cpp:100] Creating Layer conv3_4
I1021 16:47:26.743960 22318 net.cpp:434] conv3_4 <- conv3_3
I1021 16:47:26.743974 22318 net.cpp:408] conv3_4 -> conv3_4
I1021 16:47:26.747768 22318 net.cpp:150] Setting up conv3_4
I1021 16:47:26.747808 22318 net.cpp:157] Top shape: 10 128 55 55 (3872000)
I1021 16:47:26.747814 22318 net.cpp:165] Memory required for data: 1481651720
I1021 16:47:26.747834 22318 layer_factory.hpp:77] Creating layer relu3_4
I1021 16:47:26.747850 22318 net.cpp:100] Creating Layer relu3_4
I1021 16:47:26.747858 22318 net.cpp:434] relu3_4 <- conv3_4
I1021 16:47:26.747870 22318 net.cpp:395] relu3_4 -> conv3_4 (in-place)
[libprotobuf ERROR google/protobuf/io/coded_stream.cc:180] A protocol message was rejected because it was too big (more than 67108864 bytes).  To increase the limit (or to disable these warnings), see CodedInputStream::SetTotalBytesLimit() in google/protobuf/io/coded_stream.h.
I1021 16:47:26.750313 22318 net.cpp:150] Setting up relu3_4
I1021 16:47:26.750470 22318 net.cpp:157] Top shape: 10 128 55 55 (3872000)
I1021 16:47:26.750530 22318 net.cpp:165] Memory required for data: 1497139720
I1021 16:47:26.750567 22318 layer_factory.hpp:77] Creating layer res3_4
I1021 16:47:26.750607 22318 net.cpp:100] Creating Layer res3_4
I1021 16:47:26.750630 22318 net.cpp:434] res3_4 <- res3_2_res3_2_0_split_1
I1021 16:47:26.750659 22318 net.cpp:434] res3_4 <- conv3_4
I1021 16:47:26.750682 22318 net.cpp:408] res3_4 -> res3_4
I1021 16:47:26.750764 22318 net.cpp:150] Setting up res3_4
I1021 16:47:26.750787 22318 net.cpp:157] Top shape: 10 128 55 55 (3872000)
I1021 16:47:26.750803 22318 net.cpp:165] Memory required for data: 1512627720
I1021 16:47:26.750821 22318 layer_factory.hpp:77] Creating layer conv3
I1021 16:47:26.750859 22318 net.cpp:100] Creating Layer conv3
I1021 16:47:26.750879 22318 net.cpp:434] conv3 <- res3_4
I1021 16:47:26.750902 22318 net.cpp:408] conv3 -> conv3
I1021 16:47:26.757732 22318 net.cpp:150] Setting up conv3
I1021 16:47:26.757867 22318 net.cpp:157] Top shape: 10 256 53 53 (7191040)
I1021 16:47:26.757889 22318 net.cpp:165] Memory required for data: 1541391880
I1021 16:47:26.757925 22318 layer_factory.hpp:77] Creating layer relu3
I1021 16:47:26.757959 22318 net.cpp:100] Creating Layer relu3
I1021 16:47:26.757979 22318 net.cpp:434] relu3 <- conv3
I1021 16:47:26.758007 22318 net.cpp:395] relu3 -> conv3 (in-place)
I1021 16:47:26.762923 22318 net.cpp:150] Setting up relu3
I1021 16:47:26.763078 22318 net.cpp:157] Top shape: 10 256 53 53 (7191040)
I1021 16:47:26.763101 22318 net.cpp:165] Memory required for data: 1570156040
I1021 16:47:26.763135 22318 layer_factory.hpp:77] Creating layer pool3
I1021 16:47:26.763175 22318 net.cpp:100] Creating Layer pool3
I1021 16:47:26.763197 22318 net.cpp:434] pool3 <- conv3
I1021 16:47:26.763227 22318 net.cpp:408] pool3 -> pool3
I1021 16:47:26.763326 22318 net.cpp:150] Setting up pool3
I1021 16:47:26.763353 22318 net.cpp:157] Top shape: 10 256 27 27 (1866240)
I1021 16:47:26.763407 22318 net.cpp:165] Memory required for data: 1577621000
I1021 16:47:26.763424 22318 layer_factory.hpp:77] Creating layer pool3_pool3_0_split
I1021 16:47:26.763447 22318 net.cpp:100] Creating Layer pool3_pool3_0_split
I1021 16:47:26.763465 22318 net.cpp:434] pool3_pool3_0_split <- pool3
I1021 16:47:26.763487 22318 net.cpp:408] pool3_pool3_0_split -> pool3_pool3_0_split_0
I1021 16:47:26.763510 22318 net.cpp:408] pool3_pool3_0_split -> pool3_pool3_0_split_1
I1021 16:47:26.763571 22318 net.cpp:150] Setting up pool3_pool3_0_split
I1021 16:47:26.763594 22318 net.cpp:157] Top shape: 10 256 27 27 (1866240)
I1021 16:47:26.763613 22318 net.cpp:157] Top shape: 10 256 27 27 (1866240)
I1021 16:47:26.763630 22318 net.cpp:165] Memory required for data: 1592550920
I1021 16:47:26.763648 22318 layer_factory.hpp:77] Creating layer conv4_1
I1021 16:47:26.763695 22318 net.cpp:100] Creating Layer conv4_1
I1021 16:47:26.763715 22318 net.cpp:434] conv4_1 <- pool3_pool3_0_split_0
I1021 16:47:26.763736 22318 net.cpp:408] conv4_1 -> conv4_1
I1021 16:47:26.779605 22318 net.cpp:150] Setting up conv4_1
I1021 16:47:26.779744 22318 net.cpp:157] Top shape: 10 256 27 27 (1866240)
I1021 16:47:26.779767 22318 net.cpp:165] Memory required for data: 1600015880
I1021 16:47:26.779803 22318 layer_factory.hpp:77] Creating layer relu4_1
I1021 16:47:26.779837 22318 net.cpp:100] Creating Layer relu4_1
I1021 16:47:26.779860 22318 net.cpp:434] relu4_1 <- conv4_1
I1021 16:47:26.779886 22318 net.cpp:395] relu4_1 -> conv4_1 (in-place)
I1021 16:47:26.780441 22318 net.cpp:150] Setting up relu4_1
I1021 16:47:26.780508 22318 net.cpp:157] Top shape: 10 256 27 27 (1866240)
I1021 16:47:26.780529 22318 net.cpp:165] Memory required for data: 1607480840
I1021 16:47:26.780593 22318 layer_factory.hpp:77] Creating layer conv4_2
I1021 16:47:26.780640 22318 net.cpp:100] Creating Layer conv4_2
I1021 16:47:26.780663 22318 net.cpp:434] conv4_2 <- conv4_1
I1021 16:47:26.780690 22318 net.cpp:408] conv4_2 -> conv4_2
I1021 16:47:26.792623 22318 net.cpp:150] Setting up conv4_2
I1021 16:47:26.792762 22318 net.cpp:157] Top shape: 10 256 27 27 (1866240)
I1021 16:47:26.792783 22318 net.cpp:165] Memory required for data: 1614945800
I1021 16:47:26.792819 22318 layer_factory.hpp:77] Creating layer relu4_2
I1021 16:47:26.792851 22318 net.cpp:100] Creating Layer relu4_2
I1021 16:47:26.792872 22318 net.cpp:434] relu4_2 <- conv4_2
I1021 16:47:26.792901 22318 net.cpp:395] relu4_2 -> conv4_2 (in-place)
I1021 16:47:26.793432 22318 net.cpp:150] Setting up relu4_2
I1021 16:47:26.793495 22318 net.cpp:157] Top shape: 10 256 27 27 (1866240)
I1021 16:47:26.793515 22318 net.cpp:165] Memory required for data: 1622410760
I1021 16:47:26.793543 22318 layer_factory.hpp:77] Creating layer res4_2
I1021 16:47:26.793578 22318 net.cpp:100] Creating Layer res4_2
I1021 16:47:26.793599 22318 net.cpp:434] res4_2 <- pool3_pool3_0_split_1
I1021 16:47:26.793624 22318 net.cpp:434] res4_2 <- conv4_2
I1021 16:47:26.793648 22318 net.cpp:408] res4_2 -> res4_2
I1021 16:47:26.793738 22318 net.cpp:150] Setting up res4_2
I1021 16:47:26.793766 22318 net.cpp:157] Top shape: 10 256 27 27 (1866240)
I1021 16:47:26.793782 22318 net.cpp:165] Memory required for data: 1629875720
I1021 16:47:26.793799 22318 layer_factory.hpp:77] Creating layer res4_2_res4_2_0_split
I1021 16:47:26.793823 22318 net.cpp:100] Creating Layer res4_2_res4_2_0_split
I1021 16:47:26.793841 22318 net.cpp:434] res4_2_res4_2_0_split <- res4_2
I1021 16:47:26.793870 22318 net.cpp:408] res4_2_res4_2_0_split -> res4_2_res4_2_0_split_0
I1021 16:47:26.793895 22318 net.cpp:408] res4_2_res4_2_0_split -> res4_2_res4_2_0_split_1
I1021 16:47:26.793977 22318 net.cpp:150] Setting up res4_2_res4_2_0_split
I1021 16:47:26.794030 22318 net.cpp:157] Top shape: 10 256 27 27 (1866240)
I1021 16:47:26.794052 22318 net.cpp:157] Top shape: 10 256 27 27 (1866240)
I1021 16:47:26.794070 22318 net.cpp:165] Memory required for data: 1644805640
I1021 16:47:26.794087 22318 layer_factory.hpp:77] Creating layer conv4_3
I1021 16:47:26.794121 22318 net.cpp:100] Creating Layer conv4_3
I1021 16:47:26.794169 22318 net.cpp:434] conv4_3 <- res4_2_res4_2_0_split_0
I1021 16:47:26.794191 22318 net.cpp:408] conv4_3 -> conv4_3
I1021 16:47:26.805646 22318 net.cpp:150] Setting up conv4_3
I1021 16:47:26.805693 22318 net.cpp:157] Top shape: 10 256 27 27 (1866240)
I1021 16:47:26.805699 22318 net.cpp:165] Memory required for data: 1652270600
I1021 16:47:26.805717 22318 layer_factory.hpp:77] Creating layer relu4_3
I1021 16:47:26.805735 22318 net.cpp:100] Creating Layer relu4_3
I1021 16:47:26.805743 22318 net.cpp:434] relu4_3 <- conv4_3
I1021 16:47:26.805757 22318 net.cpp:395] relu4_3 -> conv4_3 (in-place)
I1021 16:47:26.807807 22318 net.cpp:150] Setting up relu4_3
I1021 16:47:26.807873 22318 net.cpp:157] Top shape: 10 256 27 27 (1866240)
I1021 16:47:26.807880 22318 net.cpp:165] Memory required for data: 1659735560
I1021 16:47:26.807899 22318 layer_factory.hpp:77] Creating layer conv4_4
I1021 16:47:26.807940 22318 net.cpp:100] Creating Layer conv4_4
I1021 16:47:26.807948 22318 net.cpp:434] conv4_4 <- conv4_3
I1021 16:47:26.808035 22318 net.cpp:408] conv4_4 -> conv4_4
I1021 16:47:26.819411 22318 net.cpp:150] Setting up conv4_4
I1021 16:47:26.819453 22318 net.cpp:157] Top shape: 10 256 27 27 (1866240)
I1021 16:47:26.819458 22318 net.cpp:165] Memory required for data: 1667200520
I1021 16:47:26.819475 22318 layer_factory.hpp:77] Creating layer relu4_4
I1021 16:47:26.819491 22318 net.cpp:100] Creating Layer relu4_4
I1021 16:47:26.819499 22318 net.cpp:434] relu4_4 <- conv4_4
I1021 16:47:26.819510 22318 net.cpp:395] relu4_4 -> conv4_4 (in-place)
I1021 16:47:26.819882 22318 net.cpp:150] Setting up relu4_4
I1021 16:47:26.819898 22318 net.cpp:157] Top shape: 10 256 27 27 (1866240)
I1021 16:47:26.819903 22318 net.cpp:165] Memory required for data: 1674665480
I1021 16:47:26.819912 22318 layer_factory.hpp:77] Creating layer res4_4
I1021 16:47:26.819923 22318 net.cpp:100] Creating Layer res4_4
I1021 16:47:26.819931 22318 net.cpp:434] res4_4 <- res4_2_res4_2_0_split_1
I1021 16:47:26.819937 22318 net.cpp:434] res4_4 <- conv4_4
I1021 16:47:26.819950 22318 net.cpp:408] res4_4 -> res4_4
I1021 16:47:26.819985 22318 net.cpp:150] Setting up res4_4
I1021 16:47:26.820011 22318 net.cpp:157] Top shape: 10 256 27 27 (1866240)
I1021 16:47:26.820026 22318 net.cpp:165] Memory required for data: 1682130440
I1021 16:47:26.820042 22318 layer_factory.hpp:77] Creating layer res4_4_res4_4_0_split
I1021 16:47:26.820065 22318 net.cpp:100] Creating Layer res4_4_res4_4_0_split
I1021 16:47:26.820081 22318 net.cpp:434] res4_4_res4_4_0_split <- res4_4
I1021 16:47:26.820102 22318 net.cpp:408] res4_4_res4_4_0_split -> res4_4_res4_4_0_split_0
I1021 16:47:26.820124 22318 net.cpp:408] res4_4_res4_4_0_split -> res4_4_res4_4_0_split_1
I1021 16:47:26.820184 22318 net.cpp:150] Setting up res4_4_res4_4_0_split
I1021 16:47:26.820195 22318 net.cpp:157] Top shape: 10 256 27 27 (1866240)
I1021 16:47:26.820201 22318 net.cpp:157] Top shape: 10 256 27 27 (1866240)
I1021 16:47:26.820206 22318 net.cpp:165] Memory required for data: 1697060360
I1021 16:47:26.820211 22318 layer_factory.hpp:77] Creating layer conv4_5
I1021 16:47:26.820228 22318 net.cpp:100] Creating Layer conv4_5
I1021 16:47:26.820233 22318 net.cpp:434] conv4_5 <- res4_4_res4_4_0_split_0
I1021 16:47:26.820241 22318 net.cpp:408] conv4_5 -> conv4_5
I1021 16:47:26.831763 22318 net.cpp:150] Setting up conv4_5
I1021 16:47:26.831881 22318 net.cpp:157] Top shape: 10 256 27 27 (1866240)
I1021 16:47:26.831899 22318 net.cpp:165] Memory required for data: 1704525320
I1021 16:47:26.831940 22318 layer_factory.hpp:77] Creating layer relu4_5
I1021 16:47:26.831971 22318 net.cpp:100] Creating Layer relu4_5
I1021 16:47:26.831992 22318 net.cpp:434] relu4_5 <- conv4_5
I1021 16:47:26.832016 22318 net.cpp:395] relu4_5 -> conv4_5 (in-place)
I1021 16:47:26.834451 22318 net.cpp:150] Setting up relu4_5
I1021 16:47:26.834599 22318 net.cpp:157] Top shape: 10 256 27 27 (1866240)
I1021 16:47:26.834609 22318 net.cpp:165] Memory required for data: 1711990280
I1021 16:47:26.834627 22318 layer_factory.hpp:77] Creating layer conv4_6
I1021 16:47:26.834704 22318 net.cpp:100] Creating Layer conv4_6
I1021 16:47:26.834725 22318 net.cpp:434] conv4_6 <- conv4_5
I1021 16:47:26.834756 22318 net.cpp:408] conv4_6 -> conv4_6
I1021 16:47:26.846400 22318 net.cpp:150] Setting up conv4_6
I1021 16:47:26.846451 22318 net.cpp:157] Top shape: 10 256 27 27 (1866240)
I1021 16:47:26.846456 22318 net.cpp:165] Memory required for data: 1719455240
I1021 16:47:26.846477 22318 layer_factory.hpp:77] Creating layer relu4_6
I1021 16:47:26.846506 22318 net.cpp:100] Creating Layer relu4_6
I1021 16:47:26.846513 22318 net.cpp:434] relu4_6 <- conv4_6
I1021 16:47:26.846525 22318 net.cpp:395] relu4_6 -> conv4_6 (in-place)
I1021 16:47:26.846947 22318 net.cpp:150] Setting up relu4_6
I1021 16:47:26.846966 22318 net.cpp:157] Top shape: 10 256 27 27 (1866240)
I1021 16:47:26.846971 22318 net.cpp:165] Memory required for data: 1726920200
I1021 16:47:26.846981 22318 layer_factory.hpp:77] Creating layer res4_6
I1021 16:47:26.846993 22318 net.cpp:100] Creating Layer res4_6
I1021 16:47:26.847019 22318 net.cpp:434] res4_6 <- res4_4_res4_4_0_split_1
I1021 16:47:26.847048 22318 net.cpp:434] res4_6 <- conv4_6
I1021 16:47:26.847071 22318 net.cpp:408] res4_6 -> res4_6
I1021 16:47:26.847131 22318 net.cpp:150] Setting up res4_6
I1021 16:47:26.847141 22318 net.cpp:157] Top shape: 10 256 27 27 (1866240)
I1021 16:47:26.847144 22318 net.cpp:165] Memory required for data: 1734385160
I1021 16:47:26.847149 22318 layer_factory.hpp:77] Creating layer res4_6_res4_6_0_split
I1021 16:47:26.847160 22318 net.cpp:100] Creating Layer res4_6_res4_6_0_split
I1021 16:47:26.847196 22318 net.cpp:434] res4_6_res4_6_0_split <- res4_6
I1021 16:47:26.847218 22318 net.cpp:408] res4_6_res4_6_0_split -> res4_6_res4_6_0_split_0
I1021 16:47:26.847241 22318 net.cpp:408] res4_6_res4_6_0_split -> res4_6_res4_6_0_split_1
I1021 16:47:26.847302 22318 net.cpp:150] Setting up res4_6_res4_6_0_split
I1021 16:47:26.847312 22318 net.cpp:157] Top shape: 10 256 27 27 (1866240)
I1021 16:47:26.847318 22318 net.cpp:157] Top shape: 10 256 27 27 (1866240)
I1021 16:47:26.847322 22318 net.cpp:165] Memory required for data: 1749315080
I1021 16:47:26.847327 22318 layer_factory.hpp:77] Creating layer conv4_7
I1021 16:47:26.847350 22318 net.cpp:100] Creating Layer conv4_7
I1021 16:47:26.847368 22318 net.cpp:434] conv4_7 <- res4_6_res4_6_0_split_0
I1021 16:47:26.847390 22318 net.cpp:408] conv4_7 -> conv4_7
I1021 16:47:26.858312 22318 net.cpp:150] Setting up conv4_7
I1021 16:47:26.858359 22318 net.cpp:157] Top shape: 10 256 27 27 (1866240)
I1021 16:47:26.858364 22318 net.cpp:165] Memory required for data: 1756780040
I1021 16:47:26.858386 22318 layer_factory.hpp:77] Creating layer relu4_7
I1021 16:47:26.858402 22318 net.cpp:100] Creating Layer relu4_7
I1021 16:47:26.858412 22318 net.cpp:434] relu4_7 <- conv4_7
I1021 16:47:26.858425 22318 net.cpp:395] relu4_7 -> conv4_7 (in-place)
I1021 16:47:26.860399 22318 net.cpp:150] Setting up relu4_7
I1021 16:47:26.860469 22318 net.cpp:157] Top shape: 10 256 27 27 (1866240)
I1021 16:47:26.860476 22318 net.cpp:165] Memory required for data: 1764245000
I1021 16:47:26.860497 22318 layer_factory.hpp:77] Creating layer conv4_8
I1021 16:47:26.860532 22318 net.cpp:100] Creating Layer conv4_8
I1021 16:47:26.860579 22318 net.cpp:434] conv4_8 <- conv4_7
I1021 16:47:26.860610 22318 net.cpp:408] conv4_8 -> conv4_8
I1021 16:47:26.872267 22318 net.cpp:150] Setting up conv4_8
I1021 16:47:26.872371 22318 net.cpp:157] Top shape: 10 256 27 27 (1866240)
I1021 16:47:26.872392 22318 net.cpp:165] Memory required for data: 1771709960
I1021 16:47:26.872428 22318 layer_factory.hpp:77] Creating layer relu4_8
I1021 16:47:26.872458 22318 net.cpp:100] Creating Layer relu4_8
I1021 16:47:26.872479 22318 net.cpp:434] relu4_8 <- conv4_8
I1021 16:47:26.872504 22318 net.cpp:395] relu4_8 -> conv4_8 (in-place)
I1021 16:47:26.873036 22318 net.cpp:150] Setting up relu4_8
I1021 16:47:26.873133 22318 net.cpp:157] Top shape: 10 256 27 27 (1866240)
I1021 16:47:26.873153 22318 net.cpp:165] Memory required for data: 1779174920
I1021 16:47:26.873183 22318 layer_factory.hpp:77] Creating layer res4_8
I1021 16:47:26.873261 22318 net.cpp:100] Creating Layer res4_8
I1021 16:47:26.873282 22318 net.cpp:434] res4_8 <- res4_6_res4_6_0_split_1
I1021 16:47:26.873307 22318 net.cpp:434] res4_8 <- conv4_8
I1021 16:47:26.873329 22318 net.cpp:408] res4_8 -> res4_8
I1021 16:47:26.873409 22318 net.cpp:150] Setting up res4_8
I1021 16:47:26.873430 22318 net.cpp:157] Top shape: 10 256 27 27 (1866240)
I1021 16:47:26.873445 22318 net.cpp:165] Memory required for data: 1786639880
I1021 16:47:26.873461 22318 layer_factory.hpp:77] Creating layer res4_8_res4_8_0_split
I1021 16:47:26.873477 22318 net.cpp:100] Creating Layer res4_8_res4_8_0_split
I1021 16:47:26.873492 22318 net.cpp:434] res4_8_res4_8_0_split <- res4_8
I1021 16:47:26.873512 22318 net.cpp:408] res4_8_res4_8_0_split -> res4_8_res4_8_0_split_0
I1021 16:47:26.873533 22318 net.cpp:408] res4_8_res4_8_0_split -> res4_8_res4_8_0_split_1
I1021 16:47:26.873598 22318 net.cpp:150] Setting up res4_8_res4_8_0_split
I1021 16:47:26.873620 22318 net.cpp:157] Top shape: 10 256 27 27 (1866240)
I1021 16:47:26.873637 22318 net.cpp:157] Top shape: 10 256 27 27 (1866240)
I1021 16:47:26.873654 22318 net.cpp:165] Memory required for data: 1801569800
I1021 16:47:26.873672 22318 layer_factory.hpp:77] Creating layer conv4_9
I1021 16:47:26.873702 22318 net.cpp:100] Creating Layer conv4_9
I1021 16:47:26.873720 22318 net.cpp:434] conv4_9 <- res4_8_res4_8_0_split_0
I1021 16:47:26.873744 22318 net.cpp:408] conv4_9 -> conv4_9
I1021 16:47:26.884768 22318 net.cpp:150] Setting up conv4_9
I1021 16:47:26.884819 22318 net.cpp:157] Top shape: 10 256 27 27 (1866240)
I1021 16:47:26.884826 22318 net.cpp:165] Memory required for data: 1809034760
I1021 16:47:26.884845 22318 layer_factory.hpp:77] Creating layer relu4_9
I1021 16:47:26.884865 22318 net.cpp:100] Creating Layer relu4_9
I1021 16:47:26.884876 22318 net.cpp:434] relu4_9 <- conv4_9
I1021 16:47:26.884887 22318 net.cpp:395] relu4_9 -> conv4_9 (in-place)
I1021 16:47:26.886885 22318 net.cpp:150] Setting up relu4_9
I1021 16:47:26.886945 22318 net.cpp:157] Top shape: 10 256 27 27 (1866240)
I1021 16:47:26.886951 22318 net.cpp:165] Memory required for data: 1816499720
I1021 16:47:26.886973 22318 layer_factory.hpp:77] Creating layer conv4_10
I1021 16:47:26.887007 22318 net.cpp:100] Creating Layer conv4_10
I1021 16:47:26.887042 22318 net.cpp:434] conv4_10 <- conv4_9
I1021 16:47:26.887073 22318 net.cpp:408] conv4_10 -> conv4_10
[libprotobuf ERROR google/protobuf/io/coded_stream.cc:180] A protocol message was rejected because it was too big (more than 67108864 bytes).  To increase the limit (or to disable these warnings), see CodedInputStream::SetTotalBytesLimit() in google/protobuf/io/coded_stream.h.
I1021 16:47:26.900382 22318 net.cpp:150] Setting up conv4_10
I1021 16:47:26.900512 22318 net.cpp:157] Top shape: 10 256 27 27 (1866240)
I1021 16:47:26.900534 22318 net.cpp:165] Memory required for data: 1823964680
I1021 16:47:26.900573 22318 layer_factory.hpp:77] Creating layer relu4_10
I1021 16:47:26.900607 22318 net.cpp:100] Creating Layer relu4_10
I1021 16:47:26.900630 22318 net.cpp:434] relu4_10 <- conv4_10
I1021 16:47:26.900655 22318 net.cpp:395] relu4_10 -> conv4_10 (in-place)
I1021 16:47:26.901231 22318 net.cpp:150] Setting up relu4_10
I1021 16:47:26.901309 22318 net.cpp:157] Top shape: 10 256 27 27 (1866240)
I1021 16:47:26.901330 22318 net.cpp:165] Memory required for data: 1831429640
I1021 16:47:26.901360 22318 layer_factory.hpp:77] Creating layer res4_10
I1021 16:47:26.901391 22318 net.cpp:100] Creating Layer res4_10
I1021 16:47:26.901415 22318 net.cpp:434] res4_10 <- res4_8_res4_8_0_split_1
I1021 16:47:26.901440 22318 net.cpp:434] res4_10 <- conv4_10
I1021 16:47:26.901473 22318 net.cpp:408] res4_10 -> res4_10
I1021 16:47:26.901563 22318 net.cpp:150] Setting up res4_10
I1021 16:47:26.901585 22318 net.cpp:157] Top shape: 10 256 27 27 (1866240)
I1021 16:47:26.901602 22318 net.cpp:165] Memory required for data: 1838894600
I1021 16:47:26.901619 22318 layer_factory.hpp:77] Creating layer conv4
I1021 16:47:26.901652 22318 net.cpp:100] Creating Layer conv4
I1021 16:47:26.901672 22318 net.cpp:434] conv4 <- res4_10
I1021 16:47:26.901695 22318 net.cpp:408] conv4 -> conv4
I1021 16:47:26.919634 22318 net.cpp:150] Setting up conv4
I1021 16:47:26.919771 22318 net.cpp:157] Top shape: 10 512 25 25 (3200000)
I1021 16:47:26.919817 22318 net.cpp:165] Memory required for data: 1851694600
I1021 16:47:26.919855 22318 layer_factory.hpp:77] Creating layer relu4
I1021 16:47:26.919885 22318 net.cpp:100] Creating Layer relu4
I1021 16:47:26.919908 22318 net.cpp:434] relu4 <- conv4
I1021 16:47:26.919932 22318 net.cpp:395] relu4 -> conv4 (in-place)
I1021 16:47:26.923053 22318 net.cpp:150] Setting up relu4
I1021 16:47:26.923192 22318 net.cpp:157] Top shape: 10 512 25 25 (3200000)
I1021 16:47:26.923218 22318 net.cpp:165] Memory required for data: 1864494600
I1021 16:47:26.923249 22318 layer_factory.hpp:77] Creating layer pool4
I1021 16:47:26.923285 22318 net.cpp:100] Creating Layer pool4
I1021 16:47:26.923307 22318 net.cpp:434] pool4 <- conv4
I1021 16:47:26.923336 22318 net.cpp:408] pool4 -> pool4
I1021 16:47:26.923447 22318 net.cpp:150] Setting up pool4
I1021 16:47:26.923470 22318 net.cpp:157] Top shape: 10 512 13 13 (865280)
I1021 16:47:26.923488 22318 net.cpp:165] Memory required for data: 1867955720
I1021 16:47:26.923506 22318 layer_factory.hpp:77] Creating layer pool4_pool4_0_split
I1021 16:47:26.923559 22318 net.cpp:100] Creating Layer pool4_pool4_0_split
I1021 16:47:26.923578 22318 net.cpp:434] pool4_pool4_0_split <- pool4
I1021 16:47:26.923601 22318 net.cpp:408] pool4_pool4_0_split -> pool4_pool4_0_split_0
I1021 16:47:26.923643 22318 net.cpp:408] pool4_pool4_0_split -> pool4_pool4_0_split_1
I1021 16:47:26.923709 22318 net.cpp:150] Setting up pool4_pool4_0_split
I1021 16:47:26.923730 22318 net.cpp:157] Top shape: 10 512 13 13 (865280)
I1021 16:47:26.923749 22318 net.cpp:157] Top shape: 10 512 13 13 (865280)
I1021 16:47:26.923765 22318 net.cpp:165] Memory required for data: 1874877960
I1021 16:47:26.923782 22318 layer_factory.hpp:77] Creating layer conv5_1
I1021 16:47:26.923815 22318 net.cpp:100] Creating Layer conv5_1
I1021 16:47:26.923832 22318 net.cpp:434] conv5_1 <- pool4_pool4_0_split_0
I1021 16:47:26.923854 22318 net.cpp:408] conv5_1 -> conv5_1
I1021 16:47:26.966344 22318 net.cpp:150] Setting up conv5_1
I1021 16:47:26.966514 22318 net.cpp:157] Top shape: 10 512 13 13 (865280)
I1021 16:47:26.966588 22318 net.cpp:165] Memory required for data: 1878339080
I1021 16:47:26.966673 22318 layer_factory.hpp:77] Creating layer relu5_1
I1021 16:47:26.966708 22318 net.cpp:100] Creating Layer relu5_1
I1021 16:47:26.966732 22318 net.cpp:434] relu5_1 <- conv5_1
I1021 16:47:26.966763 22318 net.cpp:395] relu5_1 -> conv5_1 (in-place)
I1021 16:47:26.967144 22318 net.cpp:150] Setting up relu5_1
I1021 16:47:26.967175 22318 net.cpp:157] Top shape: 10 512 13 13 (865280)
I1021 16:47:26.967192 22318 net.cpp:165] Memory required for data: 1881800200
I1021 16:47:26.967214 22318 layer_factory.hpp:77] Creating layer conv5_2
I1021 16:47:26.967252 22318 net.cpp:100] Creating Layer conv5_2
I1021 16:47:26.967270 22318 net.cpp:434] conv5_2 <- conv5_1
I1021 16:47:26.967298 22318 net.cpp:408] conv5_2 -> conv5_2
I1021 16:47:27.009485 22318 net.cpp:150] Setting up conv5_2
I1021 16:47:27.009557 22318 net.cpp:157] Top shape: 10 512 13 13 (865280)
I1021 16:47:27.009562 22318 net.cpp:165] Memory required for data: 1885261320
I1021 16:47:27.009582 22318 layer_factory.hpp:77] Creating layer relu5_2
I1021 16:47:27.009601 22318 net.cpp:100] Creating Layer relu5_2
I1021 16:47:27.009611 22318 net.cpp:434] relu5_2 <- conv5_2
I1021 16:47:27.009627 22318 net.cpp:395] relu5_2 -> conv5_2 (in-place)
I1021 16:47:27.009917 22318 net.cpp:150] Setting up relu5_2
I1021 16:47:27.009928 22318 net.cpp:157] Top shape: 10 512 13 13 (865280)
I1021 16:47:27.009932 22318 net.cpp:165] Memory required for data: 1888722440
I1021 16:47:27.009940 22318 layer_factory.hpp:77] Creating layer res5_2
I1021 16:47:27.009953 22318 net.cpp:100] Creating Layer res5_2
I1021 16:47:27.009959 22318 net.cpp:434] res5_2 <- pool4_pool4_0_split_1
I1021 16:47:27.009966 22318 net.cpp:434] res5_2 <- conv5_2
I1021 16:47:27.009975 22318 net.cpp:408] res5_2 -> res5_2
I1021 16:47:27.010025 22318 net.cpp:150] Setting up res5_2
I1021 16:47:27.010035 22318 net.cpp:157] Top shape: 10 512 13 13 (865280)
I1021 16:47:27.010038 22318 net.cpp:165] Memory required for data: 1892183560
I1021 16:47:27.010083 22318 layer_factory.hpp:77] Creating layer res5_2_res5_2_0_split
I1021 16:47:27.010104 22318 net.cpp:100] Creating Layer res5_2_res5_2_0_split
I1021 16:47:27.010123 22318 net.cpp:434] res5_2_res5_2_0_split <- res5_2
I1021 16:47:27.010146 22318 net.cpp:408] res5_2_res5_2_0_split -> res5_2_res5_2_0_split_0
I1021 16:47:27.010169 22318 net.cpp:408] res5_2_res5_2_0_split -> res5_2_res5_2_0_split_1
I1021 16:47:27.010233 22318 net.cpp:150] Setting up res5_2_res5_2_0_split
I1021 16:47:27.010242 22318 net.cpp:157] Top shape: 10 512 13 13 (865280)
I1021 16:47:27.010248 22318 net.cpp:157] Top shape: 10 512 13 13 (865280)
I1021 16:47:27.010252 22318 net.cpp:165] Memory required for data: 1899105800
I1021 16:47:27.010257 22318 layer_factory.hpp:77] Creating layer conv5_3
I1021 16:47:27.010274 22318 net.cpp:100] Creating Layer conv5_3
I1021 16:47:27.010293 22318 net.cpp:434] conv5_3 <- res5_2_res5_2_0_split_0
I1021 16:47:27.010315 22318 net.cpp:408] conv5_3 -> conv5_3
I1021 16:47:27.046062 22318 net.cpp:150] Setting up conv5_3
I1021 16:47:27.046113 22318 net.cpp:157] Top shape: 10 512 13 13 (865280)
I1021 16:47:27.046118 22318 net.cpp:165] Memory required for data: 1902566920
I1021 16:47:27.046135 22318 layer_factory.hpp:77] Creating layer relu5_3
I1021 16:47:27.046155 22318 net.cpp:100] Creating Layer relu5_3
I1021 16:47:27.046164 22318 net.cpp:434] relu5_3 <- conv5_3
I1021 16:47:27.046175 22318 net.cpp:395] relu5_3 -> conv5_3 (in-place)
I1021 16:47:27.046474 22318 net.cpp:150] Setting up relu5_3
I1021 16:47:27.046540 22318 net.cpp:157] Top shape: 10 512 13 13 (865280)
I1021 16:47:27.046557 22318 net.cpp:165] Memory required for data: 1906028040
I1021 16:47:27.046576 22318 layer_factory.hpp:77] Creating layer conv5_4
I1021 16:47:27.046613 22318 net.cpp:100] Creating Layer conv5_4
I1021 16:47:27.046631 22318 net.cpp:434] conv5_4 <- conv5_3
I1021 16:47:27.046654 22318 net.cpp:408] conv5_4 -> conv5_4
[libprotobuf ERROR google/protobuf/io/coded_stream.cc:180] A protocol message was rejected because it was too big (more than 67108864 bytes).  To increase the limit (or to disable these warnings), see CodedInputStream::SetTotalBytesLimit() in google/protobuf/io/coded_stream.h.
I1021 16:47:27.111352 22318 net.cpp:150] Setting up conv5_4
I1021 16:47:27.111615 22318 net.cpp:157] Top shape: 10 512 13 13 (865280)
I1021 16:47:27.111680 22318 net.cpp:165] Memory required for data: 1909489160
I1021 16:47:27.111750 22318 layer_factory.hpp:77] Creating layer relu5_4
I1021 16:47:27.111802 22318 net.cpp:100] Creating Layer relu5_4
I1021 16:47:27.111843 22318 net.cpp:434] relu5_4 <- conv5_4
I1021 16:47:27.111889 22318 net.cpp:395] relu5_4 -> conv5_4 (in-place)
I1021 16:47:27.112278 22318 net.cpp:150] Setting up relu5_4
I1021 16:47:27.112346 22318 net.cpp:157] Top shape: 10 512 13 13 (865280)
I1021 16:47:27.112387 22318 net.cpp:165] Memory required for data: 1912950280
I1021 16:47:27.112433 22318 layer_factory.hpp:77] Creating layer res5_4
I1021 16:47:27.112486 22318 net.cpp:100] Creating Layer res5_4
I1021 16:47:27.112529 22318 net.cpp:434] res5_4 <- res5_2_res5_2_0_split_1
I1021 16:47:27.112576 22318 net.cpp:434] res5_4 <- conv5_4
I1021 16:47:27.112619 22318 net.cpp:408] res5_4 -> res5_4
I1021 16:47:27.112716 22318 net.cpp:150] Setting up res5_4
I1021 16:47:27.112758 22318 net.cpp:157] Top shape: 10 512 13 13 (865280)
I1021 16:47:27.112797 22318 net.cpp:165] Memory required for data: 1916411400
I1021 16:47:27.112836 22318 layer_factory.hpp:77] Creating layer res5_4_res5_4_0_split
I1021 16:47:27.112877 22318 net.cpp:100] Creating Layer res5_4_res5_4_0_split
I1021 16:47:27.112915 22318 net.cpp:434] res5_4_res5_4_0_split <- res5_4
I1021 16:47:27.112957 22318 net.cpp:408] res5_4_res5_4_0_split -> res5_4_res5_4_0_split_0
I1021 16:47:27.113000 22318 net.cpp:408] res5_4_res5_4_0_split -> res5_4_res5_4_0_split_1
I1021 16:47:27.113111 22318 net.cpp:150] Setting up res5_4_res5_4_0_split
I1021 16:47:27.113154 22318 net.cpp:157] Top shape: 10 512 13 13 (865280)
I1021 16:47:27.113198 22318 net.cpp:157] Top shape: 10 512 13 13 (865280)
I1021 16:47:27.113232 22318 net.cpp:165] Memory required for data: 1923333640
I1021 16:47:27.113270 22318 layer_factory.hpp:77] Creating layer conv5_5
I1021 16:47:27.113320 22318 net.cpp:100] Creating Layer conv5_5
I1021 16:47:27.113358 22318 net.cpp:434] conv5_5 <- res5_4_res5_4_0_split_0
I1021 16:47:27.113430 22318 net.cpp:408] conv5_5 -> conv5_5
I1021 16:47:27.156289 22318 net.cpp:150] Setting up conv5_5
I1021 16:47:27.156399 22318 net.cpp:157] Top shape: 10 512 13 13 (865280)
I1021 16:47:27.156574 22318 net.cpp:165] Memory required for data: 1926794760
I1021 16:47:27.156662 22318 layer_factory.hpp:77] Creating layer relu5_5
I1021 16:47:27.156745 22318 net.cpp:100] Creating Layer relu5_5
I1021 16:47:27.156810 22318 net.cpp:434] relu5_5 <- conv5_5
I1021 16:47:27.156891 22318 net.cpp:395] relu5_5 -> conv5_5 (in-place)
I1021 16:47:27.157490 22318 net.cpp:150] Setting up relu5_5
I1021 16:47:27.157562 22318 net.cpp:157] Top shape: 10 512 13 13 (865280)
I1021 16:47:27.158453 22318 net.cpp:165] Memory required for data: 1930255880
I1021 16:47:27.158566 22318 layer_factory.hpp:77] Creating layer conv5_6
I1021 16:47:27.158646 22318 net.cpp:100] Creating Layer conv5_6
I1021 16:47:27.158674 22318 net.cpp:434] conv5_6 <- conv5_5
I1021 16:47:27.158710 22318 net.cpp:408] conv5_6 -> conv5_6
I1021 16:47:27.204339 22318 net.cpp:150] Setting up conv5_6
I1021 16:47:27.204391 22318 net.cpp:157] Top shape: 10 512 13 13 (865280)
I1021 16:47:27.204397 22318 net.cpp:165] Memory required for data: 1933717000
I1021 16:47:27.204416 22318 layer_factory.hpp:77] Creating layer relu5_6
I1021 16:47:27.204435 22318 net.cpp:100] Creating Layer relu5_6
I1021 16:47:27.204445 22318 net.cpp:434] relu5_6 <- conv5_6
I1021 16:47:27.204457 22318 net.cpp:395] relu5_6 -> conv5_6 (in-place)
I1021 16:47:27.204735 22318 net.cpp:150] Setting up relu5_6
I1021 16:47:27.204767 22318 net.cpp:157] Top shape: 10 512 13 13 (865280)
I1021 16:47:27.204784 22318 net.cpp:165] Memory required for data: 1937178120
I1021 16:47:27.204803 22318 layer_factory.hpp:77] Creating layer res5_6
I1021 16:47:27.204825 22318 net.cpp:100] Creating Layer res5_6
I1021 16:47:27.204843 22318 net.cpp:434] res5_6 <- res5_4_res5_4_0_split_1
I1021 16:47:27.204859 22318 net.cpp:434] res5_6 <- conv5_6
I1021 16:47:27.204882 22318 net.cpp:408] res5_6 -> res5_6
I1021 16:47:27.204932 22318 net.cpp:150] Setting up res5_6
I1021 16:47:27.204941 22318 net.cpp:157] Top shape: 10 512 13 13 (865280)
I1021 16:47:27.204946 22318 net.cpp:165] Memory required for data: 1940639240
I1021 16:47:27.204951 22318 layer_factory.hpp:77] Creating layer fc5
I1021 16:47:27.204962 22318 net.cpp:100] Creating Layer fc5
I1021 16:47:27.204965 22318 net.cpp:434] fc5 <- res5_6
I1021 16:47:27.204974 22318 net.cpp:408] fc5 -> fc5
[libprotobuf ERROR google/protobuf/io/coded_stream.cc:180] A protocol message was rejected because it was too big (more than 67108864 bytes).  To increase the limit (or to disable these warnings), see CodedInputStream::SetTotalBytesLimit() in google/protobuf/io/coded_stream.h.
[libprotobuf ERROR google/protobuf/io/coded_stream.cc:180] A protocol message was rejected because it was too big (more than 67108864 bytes).  To increase the limit (or to disable these warnings), see CodedInputStream::SetTotalBytesLimit() in google/protobuf/io/coded_stream.h.
[libprotobuf ERROR google/protobuf/io/coded_stream.cc:180] A protocol message was rejected because it was too big (more than 67108864 bytes).  To increase the limit (or to disable these warnings), see CodedInputStream::SetTotalBytesLimit() in google/protobuf/io/coded_stream.h.
I1021 16:47:27.673254 22318 net.cpp:150] Setting up fc5
I1021 16:47:27.673313 22318 net.cpp:157] Top shape: 10 512 (5120)
I1021 16:47:27.673319 22318 net.cpp:165] Memory required for data: 1940659720
I1021 16:47:27.673341 22318 layer_factory.hpp:77] Creating layer fc5_fc5_0_split
I1021 16:47:27.673362 22318 net.cpp:100] Creating Layer fc5_fc5_0_split
I1021 16:47:27.673372 22318 net.cpp:434] fc5_fc5_0_split <- fc5
I1021 16:47:27.673383 22318 net.cpp:408] fc5_fc5_0_split -> fc5_fc5_0_split_0
I1021 16:47:27.673430 22318 net.cpp:408] fc5_fc5_0_split -> fc5_fc5_0_split_1
I1021 16:47:27.673512 22318 net.cpp:150] Setting up fc5_fc5_0_split
I1021 16:47:27.673532 22318 net.cpp:157] Top shape: 10 512 (5120)
I1021 16:47:27.673553 22318 net.cpp:157] Top shape: 10 512 (5120)
I1021 16:47:27.673571 22318 net.cpp:165] Memory required for data: 1940700680
I1021 16:47:27.673588 22318 layer_factory.hpp:77] Creating layer fc6
I1021 16:47:27.673617 22318 net.cpp:100] Creating Layer fc6
I1021 16:47:27.673635 22318 net.cpp:434] fc6 <- fc5_fc5_0_split_0
I1021 16:47:27.673655 22318 net.cpp:408] fc6 -> fc6
I1021 16:47:27.673914 22318 net.cpp:150] Setting up fc6
I1021 16:47:27.673940 22318 net.cpp:157] Top shape: 10 5 (50)
I1021 16:47:27.673960 22318 net.cpp:165] Memory required for data: 1940700880
I1021 16:47:27.673970 22318 layer_factory.hpp:77] Creating layer softmax_loss
I1021 16:47:27.673987 22318 net.cpp:100] Creating Layer softmax_loss
I1021 16:47:27.673995 22318 net.cpp:434] softmax_loss <- fc6
I1021 16:47:27.674000 22318 net.cpp:434] softmax_loss <- label_data_1_split_0
I1021 16:47:27.674041 22318 net.cpp:408] softmax_loss -> softmax_loss
…
