…
net: "./face_train_test.prototxt"
train_state {
  level: 0
  stage: ""
}
stepvalue: 2000
stepvalue: 5000
stepvalue: 8000
I1105 17:55:40.341279 13220 solver.cpp:91] Creating training net from net file: ./face_train_test.prototxt
I1105 17:55:40.342862 13220 net.cpp:58] Initializing net from parameters: 
name: "Face-ResNet"
state {
  phase: TRAIN
  level: 0
  stage: ""
}
layer {
  name: "data"
  type: "HDF5Data"
  top: "data"
  top: "label"
  include {
    phase: TRAIN
  }
  hdf5_data_param {
    source: "./train.txt"
    batch_size: 3
    shuffle: true
  }
}
layer {
  name: "conv1a"
  type: "Convolution"
  bottom: "data"
  top: "conv1a"
  param {
    lr_mult: 1
    decay_mult: 1
  }
  param {
    lr_mult: 2
    decay_mult: 0
  }
  convolution_param {
    num_output: 32
    kernel_size: 3
    stride: 1
    weight_filler {
      type: "xavier"
    }
    bias_filler {
      type: "constant"
      value: 0
    }
  }
}
layer {
  name: "relu1a"
  type: "PReLU"
  bottom: "conv1a"
  top: "conv1a"
}
layer {
  name: "conv1b"
  type: "Convolution"
  bottom: "conv1a"
  top: "conv1b"
  param {
    lr_mult: 1
    decay_mult: 1
  }
  param {
    lr_mult: 2
    decay_mult: 0
  }
  convolution_param {
    num_output: 64
    kernel_size: 3
    stride: 1
    weight_filler {
      type: "xavier"
    }
    bias_filler {
      type: "constant"
      value: 0
    }
  }
}
layer {
  name: "relu1b"
  type: "PReLU"
  bottom: "conv1b"
  top: "conv1b"
}
layer {
  name: "pool1b"
  type: "Pooling"
  bottom: "conv1b"
  top: "pool1b"
  pooling_param {
    pool: MAX
    kernel_size: 2
    stride: 2
  }
}
layer {
  name: "conv2_1"
  type: "Convolution"
  bottom: "pool1b"
  top: "conv2_1"
  param {
    lr_mult: 1
    decay_mult: 1
  }
  param {
    lr_mult: 0
    decay_mult: 0
  }
  convolution_param {
    num_output: 64
    pad: 1
    kernel_size: 3
    stride: 1
    weight_filler {
      type: "gaussian"
      std: 0.01
    }
    bias_filler {
      type: "constant"
      value: 0
    }
  }
}
layer {
  name: "relu2_1"
  type: "PReLU"
  bottom: "conv2_1"
  top: "conv2_1"
}
layer {
  name: "conv2_2"
  type: "Convolution"
  bottom: "conv2_1"
  top: "conv2_2"
  param {
    lr_mult: 1
    decay_mult: 1
  }
  param {
    lr_mult: 0
    decay_mult: 0
  }
  convolution_param {
    num_output: 64
    pad: 1
    kernel_size: 3
    stride: 1
    weight_filler {
      type: "gaussian"
      std: 0.01
    }
    bias_filler {
      type: "constant"
      value: 0
    }
  }
}
layer {
  name: "relu2_2"
  type: "PReLU"
  bottom: "conv2_2"
  top: "conv2_2"
}
layer {
  name: "res2_2"
  type: "Eltwise"
  bottom: "pool1b"
  bottom: "conv2_2"
  top: "res2_2"
  eltwise_param {
    operation: SUM
  }
}
layer {
  name: "conv2"
  type: "Convolution"
  bottom: "res2_2"
  top: "conv2"
  param {
    lr_mult: 1
    decay_mult: 1
  }
  param {
    lr_mult: 2
    decay_mult: 0
  }
  convolution_param {
    num_output: 128
    kernel_size: 3
    stride: 1
    weight_filler {
      type: "xavier"
    }
    bias_filler {
      type: "constant"
      value: 0
    }
  }
}
layer {
  name: "relu2"
  type: "PReLU"
  bottom: "conv2"
  top: "conv2"
}
layer {
  name: "pool2"
  type: "Pooling"
  bottom: "conv2"
  top: "pool2"
  pooling_param {
    pool: MAX
    kernel_size: 2
    stride: 2
  }
}
layer {
  name: "conv3_1"
  type: "Convolution"
  bottom: "pool2"
  top: "conv3_1"
  param {
    lr_mult: 1
    decay_mult: 1
  }
  param {
    lr_mult: 0
    decay_mult: 0
  }
  convolution_param {
    num_output: 128
    pad: 1
    kernel_size: 3
    stride: 1
    weight_filler {
      type: "gaussian"
      std: 0.01
    }
    bias_filler {
      type: "constant"
      value: 0
    }
  }
}
layer {
  name: "relu3_1"
  type: "PReLU"
  bottom: "conv3_1"
  top: "conv3_1"
}
layer {
  name: "conv3_2"
  type: "Convolution"
  bottom: "conv3_1"
  top: "conv3_2"
  param {
    lr_mult: 1
    decay_mult: 1
  }
  param {
    lr_mult: 0
    decay_mult: 0
  }
  convolution_param {
    num_output: 128
    pad: 1
    kernel_size: 3
    stride: 1
    weight_filler {
      type: "gaussian"
      std: 0.01
    }
    bias_filler {
      type: "constant"
      value: 0
    }
  }
}
layer {
  name: "relu3_2"
  type: "PReLU"
  bottom: "conv3_2"
  top: "conv3_2"
}
layer {
  name: "res3_2"
  type: "Eltwise"
  bottom: "pool2"
  bottom: "conv3_2"
  top: "res3_2"
  eltwise_param {
    operation: SUM
  }
}
layer {
  name: "conv3_3"
  type: "Convolution"
  bottom: "res3_2"
  top: "conv3_3"
  param {
    lr_mult: 1
    decay_mult: 1
  }
  param {
    lr_mult: 0
    decay_mult: 0
  }
  convolution_param {
    num_output: 128
    pad: 1
    kernel_size: 3
    stride: 1
    weight_filler {
      type: "gaussian"
      std: 0.01
    }
    bias_filler {
      type: "constant"
      value: 0
    }
  }
}
layer {
  name: "relu3_3"
  type: "PReLU"
  bottom: "conv3_3"
  top: "conv3_3"
}
layer {
  name: "conv3_4"
  type: "Convolution"
  bottom: "conv3_3"
  top: "conv3_4"
  param {
    lr_mult: 1
    decay_mult: 1
  }
  param {
    lr_mult: 0
    decay_mult: 0
  }
  convolution_param {
    num_output: 128
    pad: 1
    kernel_size: 3
    stride: 1
    weight_filler {
      type: "gaussian"
      std: 0.01
    }
    bias_filler {
      type: "constant"
      value: 0
    }
  }
}
layer {
  name: "relu3_4"
  type: "PReLU"
  bottom: "conv3_4"
  top: "conv3_4"
}
layer {
  name: "res3_4"
  type: "Eltwise"
  bottom: "res3_2"
  bottom: "conv3_4"
  top: "res3_4"
  eltwise_param {
    operation: SUM
  }
}
layer {
  name: "conv3"
  type: "Convolution"
  bottom: "res3_4"
  top: "conv3"
  param {
    lr_mult: 1
    decay_mult: 1
  }
  param {
    lr_mult: 2
    decay_mult: 0
  }
  convolution_param {
    num_output: 256
    kernel_size: 3
    stride: 1
    weight_filler {
      type: "xavier"
    }
    bias_filler {
      type: "constant"
      value: 0
    }
  }
}
layer {
  name: "relu3"
  type: "PReLU"
  bottom: "conv3"
  top: "conv3"
}
layer {
  name: "pool3"
  type: "Pooling"
  bottom: "conv3"
  top: "pool3"
  pooling_param {
    pool: MAX
    kernel_size: 2
    stride: 2
  }
}
layer {
  name: "conv4_1"
  type: "Convolution"
  bottom: "pool3"
  top: "conv4_1"
  param {
    lr_mult: 1
    decay_mult: 1
  }
  param {
    lr_mult: 0
    decay_mult: 0
  }
  convolution_param {
    num_output: 256
    pad: 1
    kernel_size: 3
    stride: 1
    weight_filler {
      type: "gaussian"
      std: 0.01
    }
    bias_filler {
      type: "constant"
      value: 0
    }
  }
}
layer {
  name: "relu4_1"
  type: "PReLU"
  bottom: "conv4_1"
  top: "conv4_1"
}
layer {
  name: "conv4_2"
  type: "Convolution"
  bottom: "conv4_1"
  top: "conv4_2"
  param {
    lr_mult: 1
    decay_mult: 1
  }
  param {
    lr_mult: 0
    decay_mult: 0
  }
  convolution_param {
    num_output: 256
    pad: 1
    kernel_size: 3
    stride: 1
    weight_filler {
      type: "gaussian"
      std: 0.01
    }
    bias_filler {
      type: "constant"
      value: 0
    }
  }
}
layer {
  name: "relu4_2"
  type: "PReLU"
  bottom: "conv4_2"
  top: "conv4_2"
}
layer {
  name: "res4_2"
  type: "Eltwise"
  bottom: "pool3"
  bottom: "conv4_2"
  top: "res4_2"
  eltwise_param {
    operation: SUM
  }
}
layer {
  name: "conv4_3"
  type: "Convolution"
  bottom: "res4_2"
  top: "conv4_3"
  param {
    lr_mult: 1
    decay_mult: 1
  }
  param {
    lr_mult: 0
    decay_mult: 0
  }
  convolution_param {
    num_output: 256
    pad: 1
    kernel_size: 3
    stride: 1
    weight_filler {
      type: "gaussian"
      std: 0.01
    }
    bias_filler {
      type: "constant"
      value: 0
    }
  }
}
layer {
  name: "relu4_3"
  type: "PReLU"
  bottom: "conv4_3"
  top: "conv4_3"
}
layer {
  name: "conv4_4"
  type: "Convolution"
  bottom: "conv4_3"
  top: "conv4_4"
  param {
    lr_mult: 1
    decay_mult: 1
  }
  param {
    lr_mult: 0
    decay_mult: 0
  }
  convolution_param {
    num_output: 256
    pad: 1
    kernel_size: 3
    stride: 1
    weight_filler {
      type: "gaussian"
      std: 0.01
    }
    bias_filler {
      type: "constant"
      value: 0
    }
  }
}
layer {
  name: "relu4_4"
  type: "PReLU"
  bottom: "conv4_4"
  top: "conv4_4"
}
layer {
  name: "res4_4"
  type: "Eltwise"
  bottom: "res4_2"
  bottom: "conv4_4"
  top: "res4_4"
  eltwise_param {
    operation: SUM
  }
}
layer {
  name: "conv4_5"
  type: "Convolution"
  bottom: "res4_4"
  top: "conv4_5"
  param {
    lr_mult: 1
    decay_mult: 1
  }
  param {
    lr_mult: 0
    decay_mult: 0
  }
  convolution_param {
    num_output: 256
    pad: 1
    kernel_size: 3
    stride: 1
    weight_filler {
      type: "gaussian"
      std: 0.01
    }
    bias_filler {
      type: "constant"
      value: 0
    }
  }
}
layer {
  name: "relu4_5"
  type: "PReLU"
  bottom: "conv4_5"
  top: "conv4_5"
}
layer {
  name: "conv4_6"
  type: "Convolution"
  bottom: "conv4_5"
  top: "conv4_6"
  param {
    lr_mult: 1
    decay_mult: 1
  }
  param {
    lr_mult: 0
    decay_mult: 0
  }
  convolution_param {
    num_output: 256
    pad: 1
    kernel_size: 3
    stride: 1
    weight_filler {
      type: "gaussian"
      std: 0.01
    }
    bias_filler {
      type: "constant"
      value: 0
    }
  }
}
layer {
  name: "relu4_6"
  type: "PReLU"
  bottom: "conv4_6"
  top: "conv4_6"
}
layer {
  name: "res4_6"
  type: "Eltwise"
  bottom: "res4_4"
  bottom: "conv4_6"
  top: "res4_6"
  eltwise_param {
    operation: SUM
  }
}
layer {
  name: "conv4_7"
  type: "Convolution"
  bottom: "res4_6"
  top: "conv4_7"
  param {
    lr_mult: 1
    decay_mult: 1
  }
  param {
    lr_mult: 0
    decay_mult: 0
  }
  convolution_param {
    num_output: 256
    pad: 1
    kernel_size: 3
    stride: 1
    weight_filler {
      type: "gaussian"
      std: 0.01
    }
    bias_filler {
      type: "constant"
      value: 0
    }
  }
}
layer {
  name: "relu4_7"
  type: "PReLU"
  bottom: "conv4_7"
  top: "conv4_7"
}
layer {
  name: "conv4_8"
  type: "Convolution"
  bottom: "conv4_7"
  top: "conv4_8"
  param {
    lr_mult: 1
    decay_mult: 1
  }
  param {
    lr_mult: 0
    decay_mult: 0
  }
  convolution_param {
    num_output: 256
    pad: 1
    kernel_size: 3
    stride: 1
    weight_filler {
      type: "gaussian"
      std: 0.01
    }
    bias_filler {
      type: "constant"
      value: 0
    }
  }
}
layer {
  name: "relu4_8"
  type: "PReLU"
  bottom: "conv4_8"
  top: "conv4_8"
}
layer {
  name: "res4_8"
  type: "Eltwise"
  bottom: "res4_6"
  bottom: "conv4_8"
  top: "res4_8"
  eltwise_param {
    operation: SUM
  }
}
layer {
  name: "conv4_9"
  type: "Convolution"
  bottom: "res4_8"
  top: "conv4_9"
  param {
    lr_mult: 1
    decay_mult: 1
  }
  param {
    lr_mult: 0
    decay_mult: 0
  }
  convolution_param {
    num_output: 256
    pad: 1
    kernel_size: 3
    stride: 1
    weight_filler {
      type: "gaussian"
      std: 0.01
    }
    bias_filler {
      type: "constant"
      value: 0
    }
  }
}
layer {
  name: "relu4_9"
  type: "PReLU"
  bottom: "conv4_9"
  top: "conv4_9"
}
layer {
  name: "conv4_10"
  type: "Convolution"
  bottom: "conv4_9"
  top: "conv4_10"
  param {
    lr_mult: 1
    decay_mult: 1
  }
  param {
    lr_mult: 0
    decay_mult: 0
  }
  convolution_param {
    num_output: 256
    pad: 1
    kernel_size: 3
    stride: 1
    weight_filler {
      type: "gaussian"
      std: 0.01
    }
    bias_filler {
      type: "constant"
      value: 0
    }
  }
}
layer {
  name: "relu4_10"
  type: "PReLU"
  bottom: "conv4_10"
  top: "conv4_10"
}
layer {
  name: "res4_10"
  type: "Eltwise"
  bottom: "res4_8"
  bottom: "conv4_10"
  top: "res4_10"
  eltwise_param {
    operation: SUM
  }
}
layer {
  name: "conv4"
  type: "Convolution"
  bottom: "res4_10"
  top: "conv4"
  param {
    lr_mult: 1
    decay_mult: 1
  }
  param {
    lr_mult: 2
    decay_mult: 0
  }
  convolution_param {
    num_output: 512
    kernel_size: 3
    stride: 1
    weight_filler {
      type: "xavier"
    }
    bias_filler {
      type: "constant"
      value: 0
    }
  }
}
layer {
  name: "relu4"
  type: "PReLU"
  bottom: "conv4"
  top: "conv4"
}
layer {
  name: "pool4"
  type: "Pooling"
  bottom: "conv4"
  top: "pool4"
  pooling_param {
    pool: MAX
    kernel_size: 2
    stride: 2
  }
}
layer {
  name: "conv5_1"
  type: "Convolution"
  bottom: "pool4"
  top: "conv5_1"
  param {
    lr_mult: 1
    decay_mult: 1
  }
  param {
    lr_mult: 0
    decay_mult: 0
  }
  convolution_param {
    num_output: 512
    pad: 1
    kernel_size: 3
    stride: 1
    weight_filler {
      type: "gaussian"
      std: 0.01
    }
    bias_filler {
      type: "constant"
      value: 0
    }
  }
}
layer {
  name: "relu5_1"
  type: "PReLU"
  bottom: "conv5_1"
  top: "conv5_1"
}
layer {
  name: "conv5_2"
  type: "Convolution"
  bottom: "conv5_1"
  top: "conv5_2"
  param {
    lr_mult: 1
    decay_mult: 1
  }
  param {
    lr_mult: 0
    decay_mult: 0
  }
  convolution_param {
    num_output: 512
    pad: 1
    kernel_size: 3
    stride: 1
    weight_filler {
      type: "gaussian"
      std: 0.01
    }
    bias_filler {
      type: "constant"
      value: 0
    }
  }
}
layer {
  name: "relu5_2"
  type: "PReLU"
  bottom: "conv5_2"
  top: "conv5_2"
}
layer {
  name: "res5_2"
  type: "Eltwise"
  bottom: "pool4"
  bottom: "conv5_2"
  top: "res5_2"
  eltwise_param {
    operation: SUM
  }
}
layer {
  name: "conv5_3"
  type: "Convolution"
  bottom: "res5_2"
  top: "conv5_3"
  param {
    lr_mult: 1
    decay_mult: 1
  }
  param {
    lr_mult: 0
    decay_mult: 0
  }
  convolution_param {
    num_output: 512
    pad: 1
    kernel_size: 3
    stride: 1
    weight_filler {
      type: "gaussian"
      std: 0.01
    }
    bias_filler {
      type: "constant"
      value: 0
    }
  }
}
layer {
  name: "relu5_3"
  type: "PReLU"
  bottom: "conv5_3"
  top: "conv5_3"
}
layer {
  name: "conv5_4"
  type: "Convolution"
  bottom: "conv5_3"
  top: "conv5_4"
  param {
    lr_mult: 1
    decay_mult: 1
  }
  param {
    lr_mult: 0
    decay_mult: 0
  }
  convolution_param {
    num_output: 512
    pad: 1
    kernel_size: 3
    stride: 1
    weight_filler {
      type: "gaussian"
      std: 0.01
    }
    bias_filler {
      type: "constant"
      value: 0
    }
  }
}
layer {
  name: "relu5_4"
  type: "PReLU"
  bottom: "conv5_4"
  top: "conv5_4"
}
layer {
  name: "res5_4"
  type: "Eltwise"
  bottom: "res5_2"
  bottom: "conv5_4"
  top: "res5_4"
  eltwise_param {
    operation: SUM
  }
}
layer {
  name: "conv5_5"
  type: "Convolution"
  bottom: "res5_4"
  top: "conv5_5"
  param {
    lr_mult: 1
    decay_mult: 1
  }
  param {
    lr_mult: 0
    decay_mult: 0
  }
  convolution_param {
    num_output: 512
    pad: 1
    kernel_size: 3
    stride: 1
    weight_filler {
      type: "gaussian"
      std: 0.01
    }
    bias_filler {
      type: "constant"
      value: 0
    }
  }
}
layer {
  name: "relu5_5"
  type: "PReLU"
  bottom: "conv5_5"
  top: "conv5_5"
}
layer {
  name: "conv5_6"
  type: "Convolution"
  bottom: "conv5_5"
  top: "conv5_6"
  param {
    lr_mult: 1
    decay_mult: 1
  }
  param {
    lr_mult: 0
    decay_mult: 0
  }
  convolution_param {
    num_output: 512
    pad: 1
    kernel_size: 3
    stride: 1
    weight_filler {
      type: "gaussian"
      std: 0.01
    }
    bias_filler {
      type: "constant"
      value: 0
    }
  }
}
layer {
  name: "relu5_6"
  type: "PReLU"
  bottom: "conv5_6"
  top: "conv5_6"
}
layer {
  name: "res5_6"
  type: "Eltwise"
  bottom: "res5_4"
  bottom: "conv5_6"
  top: "res5_6"
  eltwise_param {
    operation: SUM
  }
}
layer {
  name: "fc5"
  type: "InnerProduct"
  bottom: "res5_6"
  top: "fc5"
  param {
    lr_mult: 1
    decay_mult: 1
  }
  param {
    lr_mult: 2
    decay_mult: 0
  }
  inner_product_param {
    num_output: 512
    weight_filler {
      type: "xavier"
    }
    bias_filler {
      type: "constant"
      value: 0
    }
  }
}
layer {
  name: "fc6"
  type: "InnerProduct"
  bottom: "fc5"
  top: "fc6"
  param {
    lr_mult: 1
    decay_mult: 1
  }
  param {
    lr_mult: 2
    decay_mult: 0
  }
  inner_product_param {
    num_output: 70
    weight_filler {
      type: "xavier"
    }
    bias_filler {
      type: "constant"
      value: 0
    }
  }
}
layer {
  name: "softmax_loss"
  type: "SoftmaxWithLoss"
  bottom: "fc6"
  bottom: "label"
  top: "softmax_loss"
}
layer {
  name: "center_loss"
  type: "CenterLoss"
  bottom: "fc5"
  bottom: "label"
  top: "center_loss"
  loss_weight: 0.008
  param {
    lr_mult: 1
    decay_mult: 2
  }
  center_loss_param {
    num_output: 70
    center_filler {
      type: "xavier"
    }
  }
}
I1105 17:55:40.343307 13220 layer_factory.hpp:77] Creating layer data
I1105 17:55:40.343323 13220 net.cpp:100] Creating Layer data
I1105 17:55:40.343331 13220 net.cpp:408] data -> data
I1105 17:55:40.343355 13220 net.cpp:408] data -> label
I1105 17:55:40.343369 13220 hdf5_data_layer.cpp:79] Loading list of HDF5 filenames from: ./train.txt
I1105 17:55:40.343719 13220 hdf5_data_layer.cpp:93] Number of HDF5 files: 146
I1105 17:55:40.344888 13220 hdf5.cpp:32] Datatype class: H5T_FLOAT
I1105 17:55:40.380861 13220 net.cpp:150] Setting up data
I1105 17:55:40.380915 13220 net.cpp:157] Top shape: 3 40 270 270 (8748000)
I1105 17:55:40.380923 13220 net.cpp:157] Top shape: 3 (3)
I1105 17:55:40.380928 13220 net.cpp:165] Memory required for data: 34992012
I1105 17:55:40.380941 13220 layer_factory.hpp:77] Creating layer label_data_1_split
I1105 17:55:40.380961 13220 net.cpp:100] Creating Layer label_data_1_split
I1105 17:55:40.380970 13220 net.cpp:434] label_data_1_split <- label
I1105 17:55:40.380988 13220 net.cpp:408] label_data_1_split -> label_data_1_split_0
I1105 17:55:40.381008 13220 net.cpp:408] label_data_1_split -> label_data_1_split_1
I1105 17:55:40.381057 13220 net.cpp:150] Setting up label_data_1_split
I1105 17:55:40.381067 13220 net.cpp:157] Top shape: 3 (3)
I1105 17:55:40.381072 13220 net.cpp:157] Top shape: 3 (3)
I1105 17:55:40.381078 13220 net.cpp:165] Memory required for data: 34992036
I1105 17:55:40.381083 13220 layer_factory.hpp:77] Creating layer conv1a
I1105 17:55:40.381105 13220 net.cpp:100] Creating Layer conv1a
I1105 17:55:40.381114 13220 net.cpp:434] conv1a <- data
I1105 17:55:40.381122 13220 net.cpp:408] conv1a -> conv1a
I1105 17:55:40.702803 13220 net.cpp:150] Setting up conv1a
I1105 17:55:40.702844 13220 net.cpp:157] Top shape: 3 32 268 268 (6895104)
I1105 17:55:40.702852 13220 net.cpp:165] Memory required for data: 62572452
I1105 17:55:40.702886 13220 layer_factory.hpp:77] Creating layer relu1a
I1105 17:55:40.702901 13220 net.cpp:100] Creating Layer relu1a
I1105 17:55:40.702908 13220 net.cpp:434] relu1a <- conv1a
I1105 17:55:40.702916 13220 net.cpp:395] relu1a -> conv1a (in-place)
I1105 17:55:40.711307 13220 net.cpp:150] Setting up relu1a
I1105 17:55:40.711361 13220 net.cpp:157] Top shape: 3 32 268 268 (6895104)
I1105 17:55:40.711367 13220 net.cpp:165] Memory required for data: 90152868
I1105 17:55:40.711387 13220 layer_factory.hpp:77] Creating layer conv1b
I1105 17:55:40.711414 13220 net.cpp:100] Creating Layer conv1b
I1105 17:55:40.711421 13220 net.cpp:434] conv1b <- conv1a
I1105 17:55:40.711432 13220 net.cpp:408] conv1b -> conv1b
I1105 17:55:40.714761 13220 net.cpp:150] Setting up conv1b
I1105 17:55:40.714797 13220 net.cpp:157] Top shape: 3 64 266 266 (13585152)
I1105 17:55:40.714802 13220 net.cpp:165] Memory required for data: 144493476
I1105 17:55:40.714821 13220 layer_factory.hpp:77] Creating layer relu1b
I1105 17:55:40.714833 13220 net.cpp:100] Creating Layer relu1b
I1105 17:55:40.714839 13220 net.cpp:434] relu1b <- conv1b
I1105 17:55:40.714848 13220 net.cpp:395] relu1b -> conv1b (in-place)
I1105 17:55:40.730895 13220 net.cpp:150] Setting up relu1b
I1105 17:55:40.730957 13220 net.cpp:157] Top shape: 3 64 266 266 (13585152)
I1105 17:55:40.730962 13220 net.cpp:165] Memory required for data: 198834084
I1105 17:55:40.730978 13220 layer_factory.hpp:77] Creating layer pool1b
I1105 17:55:40.730998 13220 net.cpp:100] Creating Layer pool1b
I1105 17:55:40.731005 13220 net.cpp:434] pool1b <- conv1b
I1105 17:55:40.731017 13220 net.cpp:408] pool1b -> pool1b
I1105 17:55:40.731093 13220 net.cpp:150] Setting up pool1b
I1105 17:55:40.731127 13220 net.cpp:157] Top shape: 3 64 133 133 (3396288)
I1105 17:55:40.731165 13220 net.cpp:165] Memory required for data: 212419236
I1105 17:55:40.731194 13220 layer_factory.hpp:77] Creating layer pool1b_pool1b_0_split
I1105 17:55:40.731215 13220 net.cpp:100] Creating Layer pool1b_pool1b_0_split
I1105 17:55:40.731230 13220 net.cpp:434] pool1b_pool1b_0_split <- pool1b
I1105 17:55:40.731247 13220 net.cpp:408] pool1b_pool1b_0_split -> pool1b_pool1b_0_split_0
I1105 17:55:40.731258 13220 net.cpp:408] pool1b_pool1b_0_split -> pool1b_pool1b_0_split_1
I1105 17:55:40.731305 13220 net.cpp:150] Setting up pool1b_pool1b_0_split
I1105 17:55:40.731314 13220 net.cpp:157] Top shape: 3 64 133 133 (3396288)
I1105 17:55:40.731323 13220 net.cpp:157] Top shape: 3 64 133 133 (3396288)
I1105 17:55:40.731328 13220 net.cpp:165] Memory required for data: 239589540
I1105 17:55:40.731331 13220 layer_factory.hpp:77] Creating layer conv2_1
I1105 17:55:40.731350 13220 net.cpp:100] Creating Layer conv2_1
I1105 17:55:40.731360 13220 net.cpp:434] conv2_1 <- pool1b_pool1b_0_split_0
I1105 17:55:40.731369 13220 net.cpp:408] conv2_1 -> conv2_1
I1105 17:55:40.732790 13220 net.cpp:150] Setting up conv2_1
I1105 17:55:40.732802 13220 net.cpp:157] Top shape: 3 64 133 133 (3396288)
I1105 17:55:40.732807 13220 net.cpp:165] Memory required for data: 253174692
I1105 17:55:40.732817 13220 layer_factory.hpp:77] Creating layer relu2_1
I1105 17:55:40.732825 13220 net.cpp:100] Creating Layer relu2_1
I1105 17:55:40.732831 13220 net.cpp:434] relu2_1 <- conv2_1
I1105 17:55:40.732837 13220 net.cpp:395] relu2_1 -> conv2_1 (in-place)
I1105 17:55:40.737339 13220 net.cpp:150] Setting up relu2_1
I1105 17:55:40.737393 13220 net.cpp:157] Top shape: 3 64 133 133 (3396288)
I1105 17:55:40.737401 13220 net.cpp:165] Memory required for data: 266759844
I1105 17:55:40.737427 13220 layer_factory.hpp:77] Creating layer conv2_2
I1105 17:55:40.737452 13220 net.cpp:100] Creating Layer conv2_2
I1105 17:55:40.737459 13220 net.cpp:434] conv2_2 <- conv2_1
I1105 17:55:40.737470 13220 net.cpp:408] conv2_2 -> conv2_2
I1105 17:55:40.739603 13220 net.cpp:150] Setting up conv2_2
I1105 17:55:40.739620 13220 net.cpp:157] Top shape: 3 64 133 133 (3396288)
I1105 17:55:40.739626 13220 net.cpp:165] Memory required for data: 280344996
I1105 17:55:40.739639 13220 layer_factory.hpp:77] Creating layer relu2_2
I1105 17:55:40.739648 13220 net.cpp:100] Creating Layer relu2_2
I1105 17:55:40.739653 13220 net.cpp:434] relu2_2 <- conv2_2
I1105 17:55:40.739661 13220 net.cpp:395] relu2_2 -> conv2_2 (in-place)
I1105 17:55:40.743896 13220 net.cpp:150] Setting up relu2_2
I1105 17:55:40.743952 13220 net.cpp:157] Top shape: 3 64 133 133 (3396288)
I1105 17:55:40.743958 13220 net.cpp:165] Memory required for data: 293930148
I1105 17:55:40.743978 13220 layer_factory.hpp:77] Creating layer res2_2
I1105 17:55:40.743995 13220 net.cpp:100] Creating Layer res2_2
I1105 17:55:40.744004 13220 net.cpp:434] res2_2 <- pool1b_pool1b_0_split_1
I1105 17:55:40.744012 13220 net.cpp:434] res2_2 <- conv2_2
I1105 17:55:40.744026 13220 net.cpp:408] res2_2 -> res2_2
I1105 17:55:40.744074 13220 net.cpp:150] Setting up res2_2
I1105 17:55:40.744083 13220 net.cpp:157] Top shape: 3 64 133 133 (3396288)
I1105 17:55:40.744088 13220 net.cpp:165] Memory required for data: 307515300
I1105 17:55:40.744092 13220 layer_factory.hpp:77] Creating layer conv2
I1105 17:55:40.744108 13220 net.cpp:100] Creating Layer conv2
I1105 17:55:40.744113 13220 net.cpp:434] conv2 <- res2_2
I1105 17:55:40.744122 13220 net.cpp:408] conv2 -> conv2
I1105 17:55:40.746183 13220 net.cpp:150] Setting up conv2
I1105 17:55:40.746201 13220 net.cpp:157] Top shape: 3 128 131 131 (6589824)
I1105 17:55:40.746207 13220 net.cpp:165] Memory required for data: 333874596
I1105 17:55:40.746219 13220 layer_factory.hpp:77] Creating layer relu2
I1105 17:55:40.746230 13220 net.cpp:100] Creating Layer relu2
I1105 17:55:40.746238 13220 net.cpp:434] relu2 <- conv2
I1105 17:55:40.746246 13220 net.cpp:395] relu2 -> conv2 (in-place)
I1105 17:55:40.754132 13220 net.cpp:150] Setting up relu2
I1105 17:55:40.754182 13220 net.cpp:157] Top shape: 3 128 131 131 (6589824)
I1105 17:55:40.754189 13220 net.cpp:165] Memory required for data: 360233892
I1105 17:55:40.754238 13220 layer_factory.hpp:77] Creating layer pool2
I1105 17:55:40.754257 13220 net.cpp:100] Creating Layer pool2
I1105 17:55:40.754266 13220 net.cpp:434] pool2 <- conv2
I1105 17:55:40.754283 13220 net.cpp:408] pool2 -> pool2
I1105 17:55:40.754357 13220 net.cpp:150] Setting up pool2
I1105 17:55:40.754367 13220 net.cpp:157] Top shape: 3 128 66 66 (1672704)
I1105 17:55:40.754371 13220 net.cpp:165] Memory required for data: 366924708
I1105 17:55:40.754376 13220 layer_factory.hpp:77] Creating layer pool2_pool2_0_split
I1105 17:55:40.754390 13220 net.cpp:100] Creating Layer pool2_pool2_0_split
I1105 17:55:40.754398 13220 net.cpp:434] pool2_pool2_0_split <- pool2
I1105 17:55:40.754407 13220 net.cpp:408] pool2_pool2_0_split -> pool2_pool2_0_split_0
I1105 17:55:40.754416 13220 net.cpp:408] pool2_pool2_0_split -> pool2_pool2_0_split_1
I1105 17:55:40.754457 13220 net.cpp:150] Setting up pool2_pool2_0_split
I1105 17:55:40.754467 13220 net.cpp:157] Top shape: 3 128 66 66 (1672704)
I1105 17:55:40.754472 13220 net.cpp:157] Top shape: 3 128 66 66 (1672704)
I1105 17:55:40.754477 13220 net.cpp:165] Memory required for data: 380306340
I1105 17:55:40.754482 13220 layer_factory.hpp:77] Creating layer conv3_1
I1105 17:55:40.754498 13220 net.cpp:100] Creating Layer conv3_1
I1105 17:55:40.754503 13220 net.cpp:434] conv3_1 <- pool2_pool2_0_split_0
I1105 17:55:40.754513 13220 net.cpp:408] conv3_1 -> conv3_1
I1105 17:55:40.757920 13220 net.cpp:150] Setting up conv3_1
I1105 17:55:40.757942 13220 net.cpp:157] Top shape: 3 128 66 66 (1672704)
I1105 17:55:40.757947 13220 net.cpp:165] Memory required for data: 386997156
I1105 17:55:40.757969 13220 layer_factory.hpp:77] Creating layer relu3_1
I1105 17:55:40.757982 13220 net.cpp:100] Creating Layer relu3_1
I1105 17:55:40.757988 13220 net.cpp:434] relu3_1 <- conv3_1
I1105 17:55:40.757997 13220 net.cpp:395] relu3_1 -> conv3_1 (in-place)
I1105 17:55:40.760221 13220 net.cpp:150] Setting up relu3_1
I1105 17:55:40.760272 13220 net.cpp:157] Top shape: 3 128 66 66 (1672704)
I1105 17:55:40.760277 13220 net.cpp:165] Memory required for data: 393687972
I1105 17:55:40.760294 13220 layer_factory.hpp:77] Creating layer conv3_2
I1105 17:55:40.760321 13220 net.cpp:100] Creating Layer conv3_2
I1105 17:55:40.760335 13220 net.cpp:434] conv3_2 <- conv3_1
I1105 17:55:40.760347 13220 net.cpp:408] conv3_2 -> conv3_2
I1105 17:55:40.763839 13220 net.cpp:150] Setting up conv3_2
I1105 17:55:40.763864 13220 net.cpp:157] Top shape: 3 128 66 66 (1672704)
I1105 17:55:40.763870 13220 net.cpp:165] Memory required for data: 400378788
I1105 17:55:40.763891 13220 layer_factory.hpp:77] Creating layer relu3_2
I1105 17:55:40.763906 13220 net.cpp:100] Creating Layer relu3_2
I1105 17:55:40.763913 13220 net.cpp:434] relu3_2 <- conv3_2
I1105 17:55:40.763923 13220 net.cpp:395] relu3_2 -> conv3_2 (in-place)
I1105 17:55:40.766582 13220 net.cpp:150] Setting up relu3_2
I1105 17:55:40.766628 13220 net.cpp:157] Top shape: 3 128 66 66 (1672704)
I1105 17:55:40.766633 13220 net.cpp:165] Memory required for data: 407069604
I1105 17:55:40.766649 13220 layer_factory.hpp:77] Creating layer res3_2
I1105 17:55:40.766669 13220 net.cpp:100] Creating Layer res3_2
I1105 17:55:40.766683 13220 net.cpp:434] res3_2 <- pool2_pool2_0_split_1
I1105 17:55:40.766695 13220 net.cpp:434] res3_2 <- conv3_2
I1105 17:55:40.766706 13220 net.cpp:408] res3_2 -> res3_2
I1105 17:55:40.766744 13220 net.cpp:150] Setting up res3_2
I1105 17:55:40.766753 13220 net.cpp:157] Top shape: 3 128 66 66 (1672704)
I1105 17:55:40.766759 13220 net.cpp:165] Memory required for data: 413760420
I1105 17:55:40.766764 13220 layer_factory.hpp:77] Creating layer res3_2_res3_2_0_split
I1105 17:55:40.766773 13220 net.cpp:100] Creating Layer res3_2_res3_2_0_split
I1105 17:55:40.766780 13220 net.cpp:434] res3_2_res3_2_0_split <- res3_2
I1105 17:55:40.766788 13220 net.cpp:408] res3_2_res3_2_0_split -> res3_2_res3_2_0_split_0
I1105 17:55:40.766798 13220 net.cpp:408] res3_2_res3_2_0_split -> res3_2_res3_2_0_split_1
I1105 17:55:40.766842 13220 net.cpp:150] Setting up res3_2_res3_2_0_split
I1105 17:55:40.766870 13220 net.cpp:157] Top shape: 3 128 66 66 (1672704)
I1105 17:55:40.766877 13220 net.cpp:157] Top shape: 3 128 66 66 (1672704)
I1105 17:55:40.766883 13220 net.cpp:165] Memory required for data: 427142052
I1105 17:55:40.766888 13220 layer_factory.hpp:77] Creating layer conv3_3
I1105 17:55:40.766903 13220 net.cpp:100] Creating Layer conv3_3
I1105 17:55:40.766909 13220 net.cpp:434] conv3_3 <- res3_2_res3_2_0_split_0
I1105 17:55:40.766918 13220 net.cpp:408] conv3_3 -> conv3_3
I1105 17:55:40.772505 13220 net.cpp:150] Setting up conv3_3
I1105 17:55:40.772541 13220 net.cpp:157] Top shape: 3 128 66 66 (1672704)
I1105 17:55:40.772547 13220 net.cpp:165] Memory required for data: 433832868
I1105 17:55:40.772563 13220 layer_factory.hpp:77] Creating layer relu3_3
I1105 17:55:40.772579 13220 net.cpp:100] Creating Layer relu3_3
I1105 17:55:40.772588 13220 net.cpp:434] relu3_3 <- conv3_3
I1105 17:55:40.772598 13220 net.cpp:395] relu3_3 -> conv3_3 (in-place)
I1105 17:55:40.774996 13220 net.cpp:150] Setting up relu3_3
I1105 17:55:40.775048 13220 net.cpp:157] Top shape: 3 128 66 66 (1672704)
I1105 17:55:40.775053 13220 net.cpp:165] Memory required for data: 440523684
I1105 17:55:40.775068 13220 layer_factory.hpp:77] Creating layer conv3_4
I1105 17:55:40.775096 13220 net.cpp:100] Creating Layer conv3_4
I1105 17:55:40.775105 13220 net.cpp:434] conv3_4 <- conv3_3
I1105 17:55:40.775120 13220 net.cpp:408] conv3_4 -> conv3_4
I1105 17:55:40.778646 13220 net.cpp:150] Setting up conv3_4
I1105 17:55:40.778671 13220 net.cpp:157] Top shape: 3 128 66 66 (1672704)
I1105 17:55:40.778676 13220 net.cpp:165] Memory required for data: 447214500
I1105 17:55:40.778687 13220 layer_factory.hpp:77] Creating layer relu3_4
I1105 17:55:40.778697 13220 net.cpp:100] Creating Layer relu3_4
I1105 17:55:40.778702 13220 net.cpp:434] relu3_4 <- conv3_4
I1105 17:55:40.778712 13220 net.cpp:395] relu3_4 -> conv3_4 (in-place)
I1105 17:55:40.781040 13220 net.cpp:150] Setting up relu3_4
I1105 17:55:40.781095 13220 net.cpp:157] Top shape: 3 128 66 66 (1672704)
I1105 17:55:40.781100 13220 net.cpp:165] Memory required for data: 453905316
I1105 17:55:40.781116 13220 layer_factory.hpp:77] Creating layer res3_4
I1105 17:55:40.781138 13220 net.cpp:100] Creating Layer res3_4
I1105 17:55:40.781157 13220 net.cpp:434] res3_4 <- res3_2_res3_2_0_split_1
I1105 17:55:40.781168 13220 net.cpp:434] res3_4 <- conv3_4
I1105 17:55:40.781194 13220 net.cpp:408] res3_4 -> res3_4
I1105 17:55:40.781252 13220 net.cpp:150] Setting up res3_4
I1105 17:55:40.781280 13220 net.cpp:157] Top shape: 3 128 66 66 (1672704)
I1105 17:55:40.781286 13220 net.cpp:165] Memory required for data: 460596132
I1105 17:55:40.781291 13220 layer_factory.hpp:77] Creating layer conv3
I1105 17:55:40.781311 13220 net.cpp:100] Creating Layer conv3
I1105 17:55:40.781316 13220 net.cpp:434] conv3 <- res3_4
I1105 17:55:40.781325 13220 net.cpp:408] conv3 -> conv3
I1105 17:55:40.788434 13220 net.cpp:150] Setting up conv3
I1105 17:55:40.788478 13220 net.cpp:157] Top shape: 3 256 64 64 (3145728)
I1105 17:55:40.788486 13220 net.cpp:165] Memory required for data: 473179044
I1105 17:55:40.788503 13220 layer_factory.hpp:77] Creating layer relu3
I1105 17:55:40.788519 13220 net.cpp:100] Creating Layer relu3
I1105 17:55:40.788527 13220 net.cpp:434] relu3 <- conv3
I1105 17:55:40.788537 13220 net.cpp:395] relu3 -> conv3 (in-place)
I1105 17:55:40.792596 13220 net.cpp:150] Setting up relu3
I1105 17:55:40.792649 13220 net.cpp:157] Top shape: 3 256 64 64 (3145728)
I1105 17:55:40.792654 13220 net.cpp:165] Memory required for data: 485761956
I1105 17:55:40.792667 13220 layer_factory.hpp:77] Creating layer pool3
I1105 17:55:40.792688 13220 net.cpp:100] Creating Layer pool3
I1105 17:55:40.792696 13220 net.cpp:434] pool3 <- conv3
I1105 17:55:40.792706 13220 net.cpp:408] pool3 -> pool3
I1105 17:55:40.792773 13220 net.cpp:150] Setting up pool3
I1105 17:55:40.792783 13220 net.cpp:157] Top shape: 3 256 32 32 (786432)
I1105 17:55:40.792786 13220 net.cpp:165] Memory required for data: 488907684
I1105 17:55:40.792826 13220 layer_factory.hpp:77] Creating layer pool3_pool3_0_split
I1105 17:55:40.792834 13220 net.cpp:100] Creating Layer pool3_pool3_0_split
I1105 17:55:40.792839 13220 net.cpp:434] pool3_pool3_0_split <- pool3
I1105 17:55:40.792847 13220 net.cpp:408] pool3_pool3_0_split -> pool3_pool3_0_split_0
I1105 17:55:40.792855 13220 net.cpp:408] pool3_pool3_0_split -> pool3_pool3_0_split_1
I1105 17:55:40.792899 13220 net.cpp:150] Setting up pool3_pool3_0_split
I1105 17:55:40.792907 13220 net.cpp:157] Top shape: 3 256 32 32 (786432)
I1105 17:55:40.792912 13220 net.cpp:157] Top shape: 3 256 32 32 (786432)
I1105 17:55:40.792917 13220 net.cpp:165] Memory required for data: 495199140
I1105 17:55:40.792920 13220 layer_factory.hpp:77] Creating layer conv4_1
I1105 17:55:40.792944 13220 net.cpp:100] Creating Layer conv4_1
I1105 17:55:40.792951 13220 net.cpp:434] conv4_1 <- pool3_pool3_0_split_0
I1105 17:55:40.792959 13220 net.cpp:408] conv4_1 -> conv4_1
I1105 17:55:40.804733 13220 net.cpp:150] Setting up conv4_1
I1105 17:55:40.804777 13220 net.cpp:157] Top shape: 3 256 32 32 (786432)
I1105 17:55:40.804785 13220 net.cpp:165] Memory required for data: 498344868
I1105 17:55:40.804801 13220 layer_factory.hpp:77] Creating layer relu4_1
I1105 17:55:40.804817 13220 net.cpp:100] Creating Layer relu4_1
I1105 17:55:40.804823 13220 net.cpp:434] relu4_1 <- conv4_1
I1105 17:55:40.804833 13220 net.cpp:395] relu4_1 -> conv4_1 (in-place)
I1105 17:55:40.806596 13220 net.cpp:150] Setting up relu4_1
I1105 17:55:40.806643 13220 net.cpp:157] Top shape: 3 256 32 32 (786432)
I1105 17:55:40.806648 13220 net.cpp:165] Memory required for data: 501490596
I1105 17:55:40.806676 13220 layer_factory.hpp:77] Creating layer conv4_2
I1105 17:55:40.806699 13220 net.cpp:100] Creating Layer conv4_2
I1105 17:55:40.806710 13220 net.cpp:434] conv4_2 <- conv4_1
I1105 17:55:40.806725 13220 net.cpp:408] conv4_2 -> conv4_2
I1105 17:55:40.817028 13220 net.cpp:150] Setting up conv4_2
I1105 17:55:40.817064 13220 net.cpp:157] Top shape: 3 256 32 32 (786432)
I1105 17:55:40.817070 13220 net.cpp:165] Memory required for data: 504636324
I1105 17:55:40.817086 13220 layer_factory.hpp:77] Creating layer relu4_2
I1105 17:55:40.817101 13220 net.cpp:100] Creating Layer relu4_2
I1105 17:55:40.817111 13220 net.cpp:434] relu4_2 <- conv4_2
I1105 17:55:40.817123 13220 net.cpp:395] relu4_2 -> conv4_2 (in-place)
I1105 17:55:40.817548 13220 net.cpp:150] Setting up relu4_2
I1105 17:55:40.817569 13220 net.cpp:157] Top shape: 3 256 32 32 (786432)
I1105 17:55:40.817574 13220 net.cpp:165] Memory required for data: 507782052
I1105 17:55:40.817585 13220 layer_factory.hpp:77] Creating layer res4_2
I1105 17:55:40.817639 13220 net.cpp:100] Creating Layer res4_2
I1105 17:55:40.817646 13220 net.cpp:434] res4_2 <- pool3_pool3_0_split_1
I1105 17:55:40.817654 13220 net.cpp:434] res4_2 <- conv4_2
I1105 17:55:40.817662 13220 net.cpp:408] res4_2 -> res4_2
I1105 17:55:40.817705 13220 net.cpp:150] Setting up res4_2
I1105 17:55:40.817714 13220 net.cpp:157] Top shape: 3 256 32 32 (786432)
I1105 17:55:40.817718 13220 net.cpp:165] Memory required for data: 510927780
I1105 17:55:40.817723 13220 layer_factory.hpp:77] Creating layer res4_2_res4_2_0_split
I1105 17:55:40.817731 13220 net.cpp:100] Creating Layer res4_2_res4_2_0_split
I1105 17:55:40.817736 13220 net.cpp:434] res4_2_res4_2_0_split <- res4_2
I1105 17:55:40.817747 13220 net.cpp:408] res4_2_res4_2_0_split -> res4_2_res4_2_0_split_0
I1105 17:55:40.817760 13220 net.cpp:408] res4_2_res4_2_0_split -> res4_2_res4_2_0_split_1
I1105 17:55:40.817814 13220 net.cpp:150] Setting up res4_2_res4_2_0_split
I1105 17:55:40.817822 13220 net.cpp:157] Top shape: 3 256 32 32 (786432)
I1105 17:55:40.817829 13220 net.cpp:157] Top shape: 3 256 32 32 (786432)
I1105 17:55:40.817834 13220 net.cpp:165] Memory required for data: 517219236
I1105 17:55:40.817838 13220 layer_factory.hpp:77] Creating layer conv4_3
I1105 17:55:40.817857 13220 net.cpp:100] Creating Layer conv4_3
I1105 17:55:40.817864 13220 net.cpp:434] conv4_3 <- res4_2_res4_2_0_split_0
I1105 17:55:40.817873 13220 net.cpp:408] conv4_3 -> conv4_3
I1105 17:55:40.827833 13220 net.cpp:150] Setting up conv4_3
I1105 17:55:40.827884 13220 net.cpp:157] Top shape: 3 256 32 32 (786432)
I1105 17:55:40.827891 13220 net.cpp:165] Memory required for data: 520364964
I1105 17:55:40.827908 13220 layer_factory.hpp:77] Creating layer relu4_3
I1105 17:55:40.827921 13220 net.cpp:100] Creating Layer relu4_3
I1105 17:55:40.827930 13220 net.cpp:434] relu4_3 <- conv4_3
I1105 17:55:40.827944 13220 net.cpp:395] relu4_3 -> conv4_3 (in-place)
I1105 17:55:40.829730 13220 net.cpp:150] Setting up relu4_3
I1105 17:55:40.829777 13220 net.cpp:157] Top shape: 3 256 32 32 (786432)
I1105 17:55:40.829783 13220 net.cpp:165] Memory required for data: 523510692
I1105 17:55:40.829799 13220 layer_factory.hpp:77] Creating layer conv4_4
I1105 17:55:40.829824 13220 net.cpp:100] Creating Layer conv4_4
I1105 17:55:40.829831 13220 net.cpp:434] conv4_4 <- conv4_3
I1105 17:55:40.829846 13220 net.cpp:408] conv4_4 -> conv4_4
I1105 17:55:40.840167 13220 net.cpp:150] Setting up conv4_4
I1105 17:55:40.840203 13220 net.cpp:157] Top shape: 3 256 32 32 (786432)
I1105 17:55:40.840212 13220 net.cpp:165] Memory required for data: 526656420
I1105 17:55:40.840229 13220 layer_factory.hpp:77] Creating layer relu4_4
I1105 17:55:40.840242 13220 net.cpp:100] Creating Layer relu4_4
I1105 17:55:40.840250 13220 net.cpp:434] relu4_4 <- conv4_4
I1105 17:55:40.840260 13220 net.cpp:395] relu4_4 -> conv4_4 (in-place)
I1105 17:55:40.840703 13220 net.cpp:150] Setting up relu4_4
I1105 17:55:40.840723 13220 net.cpp:157] Top shape: 3 256 32 32 (786432)
I1105 17:55:40.840730 13220 net.cpp:165] Memory required for data: 529802148
I1105 17:55:40.840741 13220 layer_factory.hpp:77] Creating layer res4_4
I1105 17:55:40.840757 13220 net.cpp:100] Creating Layer res4_4
I1105 17:55:40.840777 13220 net.cpp:434] res4_4 <- res4_2_res4_2_0_split_1
I1105 17:55:40.840785 13220 net.cpp:434] res4_4 <- conv4_4
I1105 17:55:40.840796 13220 net.cpp:408] res4_4 -> res4_4
I1105 17:55:40.840837 13220 net.cpp:150] Setting up res4_4
I1105 17:55:40.840847 13220 net.cpp:157] Top shape: 3 256 32 32 (786432)
I1105 17:55:40.840850 13220 net.cpp:165] Memory required for data: 532947876
I1105 17:55:40.840855 13220 layer_factory.hpp:77] Creating layer res4_4_res4_4_0_split
I1105 17:55:40.840868 13220 net.cpp:100] Creating Layer res4_4_res4_4_0_split
I1105 17:55:40.840878 13220 net.cpp:434] res4_4_res4_4_0_split <- res4_4
I1105 17:55:40.840886 13220 net.cpp:408] res4_4_res4_4_0_split -> res4_4_res4_4_0_split_0
I1105 17:55:40.840896 13220 net.cpp:408] res4_4_res4_4_0_split -> res4_4_res4_4_0_split_1
I1105 17:55:40.840942 13220 net.cpp:150] Setting up res4_4_res4_4_0_split
I1105 17:55:40.840950 13220 net.cpp:157] Top shape: 3 256 32 32 (786432)
I1105 17:55:40.840956 13220 net.cpp:157] Top shape: 3 256 32 32 (786432)
I1105 17:55:40.840960 13220 net.cpp:165] Memory required for data: 539239332
I1105 17:55:40.840965 13220 layer_factory.hpp:77] Creating layer conv4_5
I1105 17:55:40.840981 13220 net.cpp:100] Creating Layer conv4_5
I1105 17:55:40.840988 13220 net.cpp:434] conv4_5 <- res4_4_res4_4_0_split_0
I1105 17:55:40.840998 13220 net.cpp:408] conv4_5 -> conv4_5
I1105 17:55:40.851209 13220 net.cpp:150] Setting up conv4_5
I1105 17:55:40.851249 13220 net.cpp:157] Top shape: 3 256 32 32 (786432)
I1105 17:55:40.851256 13220 net.cpp:165] Memory required for data: 542385060
I1105 17:55:40.851271 13220 layer_factory.hpp:77] Creating layer relu4_5
I1105 17:55:40.851286 13220 net.cpp:100] Creating Layer relu4_5
I1105 17:55:40.851294 13220 net.cpp:434] relu4_5 <- conv4_5
I1105 17:55:40.851310 13220 net.cpp:395] relu4_5 -> conv4_5 (in-place)
I1105 17:55:40.853066 13220 net.cpp:150] Setting up relu4_5
I1105 17:55:40.853112 13220 net.cpp:157] Top shape: 3 256 32 32 (786432)
I1105 17:55:40.853119 13220 net.cpp:165] Memory required for data: 545530788
I1105 17:55:40.853137 13220 layer_factory.hpp:77] Creating layer conv4_6
I1105 17:55:40.853168 13220 net.cpp:100] Creating Layer conv4_6
I1105 17:55:40.853176 13220 net.cpp:434] conv4_6 <- conv4_5
I1105 17:55:40.853190 13220 net.cpp:408] conv4_6 -> conv4_6
I1105 17:55:40.863579 13220 net.cpp:150] Setting up conv4_6
I1105 17:55:40.863620 13220 net.cpp:157] Top shape: 3 256 32 32 (786432)
I1105 17:55:40.863625 13220 net.cpp:165] Memory required for data: 548676516
I1105 17:55:40.863643 13220 layer_factory.hpp:77] Creating layer relu4_6
I1105 17:55:40.863659 13220 net.cpp:100] Creating Layer relu4_6
I1105 17:55:40.863667 13220 net.cpp:434] relu4_6 <- conv4_6
I1105 17:55:40.863677 13220 net.cpp:395] relu4_6 -> conv4_6 (in-place)
I1105 17:55:40.864112 13220 net.cpp:150] Setting up relu4_6
I1105 17:55:40.864132 13220 net.cpp:157] Top shape: 3 256 32 32 (786432)
I1105 17:55:40.864140 13220 net.cpp:165] Memory required for data: 551822244
I1105 17:55:40.864150 13220 layer_factory.hpp:77] Creating layer res4_6
I1105 17:55:40.864164 13220 net.cpp:100] Creating Layer res4_6
I1105 17:55:40.864171 13220 net.cpp:434] res4_6 <- res4_4_res4_4_0_split_1
I1105 17:55:40.864178 13220 net.cpp:434] res4_6 <- conv4_6
I1105 17:55:40.864187 13220 net.cpp:408] res4_6 -> res4_6
I1105 17:55:40.864228 13220 net.cpp:150] Setting up res4_6
I1105 17:55:40.864243 13220 net.cpp:157] Top shape: 3 256 32 32 (786432)
I1105 17:55:40.864248 13220 net.cpp:165] Memory required for data: 554967972
I1105 17:55:40.864253 13220 layer_factory.hpp:77] Creating layer res4_6_res4_6_0_split
I1105 17:55:40.864260 13220 net.cpp:100] Creating Layer res4_6_res4_6_0_split
I1105 17:55:40.864271 13220 net.cpp:434] res4_6_res4_6_0_split <- res4_6
I1105 17:55:40.864284 13220 net.cpp:408] res4_6_res4_6_0_split -> res4_6_res4_6_0_split_0
I1105 17:55:40.864296 13220 net.cpp:408] res4_6_res4_6_0_split -> res4_6_res4_6_0_split_1
I1105 17:55:40.864344 13220 net.cpp:150] Setting up res4_6_res4_6_0_split
I1105 17:55:40.864352 13220 net.cpp:157] Top shape: 3 256 32 32 (786432)
I1105 17:55:40.864358 13220 net.cpp:157] Top shape: 3 256 32 32 (786432)
I1105 17:55:40.864362 13220 net.cpp:165] Memory required for data: 561259428
I1105 17:55:40.864367 13220 layer_factory.hpp:77] Creating layer conv4_7
I1105 17:55:40.864384 13220 net.cpp:100] Creating Layer conv4_7
I1105 17:55:40.864390 13220 net.cpp:434] conv4_7 <- res4_6_res4_6_0_split_0
I1105 17:55:40.864401 13220 net.cpp:408] conv4_7 -> conv4_7
I1105 17:55:40.874833 13220 net.cpp:150] Setting up conv4_7
I1105 17:55:40.874876 13220 net.cpp:157] Top shape: 3 256 32 32 (786432)
I1105 17:55:40.874881 13220 net.cpp:165] Memory required for data: 564405156
I1105 17:55:40.874897 13220 layer_factory.hpp:77] Creating layer relu4_7
I1105 17:55:40.874910 13220 net.cpp:100] Creating Layer relu4_7
I1105 17:55:40.874929 13220 net.cpp:434] relu4_7 <- conv4_7
I1105 17:55:40.874939 13220 net.cpp:395] relu4_7 -> conv4_7 (in-place)
I1105 17:55:40.876673 13220 net.cpp:150] Setting up relu4_7
I1105 17:55:40.876718 13220 net.cpp:157] Top shape: 3 256 32 32 (786432)
I1105 17:55:40.876724 13220 net.cpp:165] Memory required for data: 567550884
I1105 17:55:40.876741 13220 layer_factory.hpp:77] Creating layer conv4_8
I1105 17:55:40.876768 13220 net.cpp:100] Creating Layer conv4_8
I1105 17:55:40.876778 13220 net.cpp:434] conv4_8 <- conv4_7
I1105 17:55:40.876793 13220 net.cpp:408] conv4_8 -> conv4_8
I1105 17:55:40.887240 13220 net.cpp:150] Setting up conv4_8
I1105 17:55:40.887276 13220 net.cpp:157] Top shape: 3 256 32 32 (786432)
I1105 17:55:40.887282 13220 net.cpp:165] Memory required for data: 570696612
I1105 17:55:40.887300 13220 layer_factory.hpp:77] Creating layer relu4_8
I1105 17:55:40.887315 13220 net.cpp:100] Creating Layer relu4_8
I1105 17:55:40.887321 13220 net.cpp:434] relu4_8 <- conv4_8
I1105 17:55:40.887337 13220 net.cpp:395] relu4_8 -> conv4_8 (in-place)
I1105 17:55:40.887763 13220 net.cpp:150] Setting up relu4_8
I1105 17:55:40.887784 13220 net.cpp:157] Top shape: 3 256 32 32 (786432)
I1105 17:55:40.887792 13220 net.cpp:165] Memory required for data: 573842340
I1105 17:55:40.887804 13220 layer_factory.hpp:77] Creating layer res4_8
I1105 17:55:40.887815 13220 net.cpp:100] Creating Layer res4_8
I1105 17:55:40.887853 13220 net.cpp:434] res4_8 <- res4_6_res4_6_0_split_1
I1105 17:55:40.887887 13220 net.cpp:434] res4_8 <- conv4_8
I1105 17:55:40.887903 13220 net.cpp:408] res4_8 -> res4_8
I1105 17:55:40.887955 13220 net.cpp:150] Setting up res4_8
I1105 17:55:40.887964 13220 net.cpp:157] Top shape: 3 256 32 32 (786432)
I1105 17:55:40.887969 13220 net.cpp:165] Memory required for data: 576988068
I1105 17:55:40.887974 13220 layer_factory.hpp:77] Creating layer res4_8_res4_8_0_split
I1105 17:55:40.887982 13220 net.cpp:100] Creating Layer res4_8_res4_8_0_split
I1105 17:55:40.887989 13220 net.cpp:434] res4_8_res4_8_0_split <- res4_8
I1105 17:55:40.887998 13220 net.cpp:408] res4_8_res4_8_0_split -> res4_8_res4_8_0_split_0
I1105 17:55:40.888008 13220 net.cpp:408] res4_8_res4_8_0_split -> res4_8_res4_8_0_split_1
I1105 17:55:40.888054 13220 net.cpp:150] Setting up res4_8_res4_8_0_split
I1105 17:55:40.888063 13220 net.cpp:157] Top shape: 3 256 32 32 (786432)
I1105 17:55:40.888069 13220 net.cpp:157] Top shape: 3 256 32 32 (786432)
I1105 17:55:40.888075 13220 net.cpp:165] Memory required for data: 583279524
I1105 17:55:40.888080 13220 layer_factory.hpp:77] Creating layer conv4_9
I1105 17:55:40.888097 13220 net.cpp:100] Creating Layer conv4_9
I1105 17:55:40.888103 13220 net.cpp:434] conv4_9 <- res4_8_res4_8_0_split_0
I1105 17:55:40.888113 13220 net.cpp:408] conv4_9 -> conv4_9
I1105 17:55:40.898492 13220 net.cpp:150] Setting up conv4_9
I1105 17:55:40.898531 13220 net.cpp:157] Top shape: 3 256 32 32 (786432)
I1105 17:55:40.898537 13220 net.cpp:165] Memory required for data: 586425252
I1105 17:55:40.898555 13220 layer_factory.hpp:77] Creating layer relu4_9
I1105 17:55:40.898571 13220 net.cpp:100] Creating Layer relu4_9
I1105 17:55:40.898578 13220 net.cpp:434] relu4_9 <- conv4_9
I1105 17:55:40.898589 13220 net.cpp:395] relu4_9 -> conv4_9 (in-place)
I1105 17:55:40.900319 13220 net.cpp:150] Setting up relu4_9
I1105 17:55:40.900364 13220 net.cpp:157] Top shape: 3 256 32 32 (786432)
I1105 17:55:40.900370 13220 net.cpp:165] Memory required for data: 589570980
I1105 17:55:40.900387 13220 layer_factory.hpp:77] Creating layer conv4_10
I1105 17:55:40.900415 13220 net.cpp:100] Creating Layer conv4_10
I1105 17:55:40.900424 13220 net.cpp:434] conv4_10 <- conv4_9
I1105 17:55:40.900440 13220 net.cpp:408] conv4_10 -> conv4_10
I1105 17:55:40.910890 13220 net.cpp:150] Setting up conv4_10
I1105 17:55:40.910931 13220 net.cpp:157] Top shape: 3 256 32 32 (786432)
I1105 17:55:40.910938 13220 net.cpp:165] Memory required for data: 592716708
I1105 17:55:40.910955 13220 layer_factory.hpp:77] Creating layer relu4_10
I1105 17:55:40.910969 13220 net.cpp:100] Creating Layer relu4_10
I1105 17:55:40.910977 13220 net.cpp:434] relu4_10 <- conv4_10
I1105 17:55:40.910989 13220 net.cpp:395] relu4_10 -> conv4_10 (in-place)
I1105 17:55:40.911419 13220 net.cpp:150] Setting up relu4_10
I1105 17:55:40.911440 13220 net.cpp:157] Top shape: 3 256 32 32 (786432)
I1105 17:55:40.911447 13220 net.cpp:165] Memory required for data: 595862436
I1105 17:55:40.911456 13220 layer_factory.hpp:77] Creating layer res4_10
I1105 17:55:40.911469 13220 net.cpp:100] Creating Layer res4_10
I1105 17:55:40.911478 13220 net.cpp:434] res4_10 <- res4_8_res4_8_0_split_1
I1105 17:55:40.911486 13220 net.cpp:434] res4_10 <- conv4_10
I1105 17:55:40.911519 13220 net.cpp:408] res4_10 -> res4_10
I1105 17:55:40.911563 13220 net.cpp:150] Setting up res4_10
I1105 17:55:40.911574 13220 net.cpp:157] Top shape: 3 256 32 32 (786432)
I1105 17:55:40.911578 13220 net.cpp:165] Memory required for data: 599008164
I1105 17:55:40.911583 13220 layer_factory.hpp:77] Creating layer conv4
I1105 17:55:40.911599 13220 net.cpp:100] Creating Layer conv4
I1105 17:55:40.911605 13220 net.cpp:434] conv4 <- res4_10
I1105 17:55:40.911614 13220 net.cpp:408] conv4 -> conv4
I1105 17:55:40.926049 13220 net.cpp:150] Setting up conv4
I1105 17:55:40.926089 13220 net.cpp:157] Top shape: 3 512 30 30 (1382400)
I1105 17:55:40.926093 13220 net.cpp:165] Memory required for data: 604537764
I1105 17:55:40.926110 13220 layer_factory.hpp:77] Creating layer relu4
I1105 17:55:40.926125 13220 net.cpp:100] Creating Layer relu4
I1105 17:55:40.926153 13220 net.cpp:434] relu4 <- conv4
I1105 17:55:40.926167 13220 net.cpp:395] relu4 -> conv4 (in-place)
I1105 17:55:40.928242 13220 net.cpp:150] Setting up relu4
I1105 17:55:40.928299 13220 net.cpp:157] Top shape: 3 512 30 30 (1382400)
I1105 17:55:40.928305 13220 net.cpp:165] Memory required for data: 610067364
I1105 17:55:40.928321 13220 layer_factory.hpp:77] Creating layer pool4
I1105 17:55:40.928339 13220 net.cpp:100] Creating Layer pool4
I1105 17:55:40.928347 13220 net.cpp:434] pool4 <- conv4
I1105 17:55:40.928362 13220 net.cpp:408] pool4 -> pool4
I1105 17:55:40.928458 13220 net.cpp:150] Setting up pool4
I1105 17:55:40.928472 13220 net.cpp:157] Top shape: 3 512 15 15 (345600)
I1105 17:55:40.928478 13220 net.cpp:165] Memory required for data: 611449764
I1105 17:55:40.928483 13220 layer_factory.hpp:77] Creating layer pool4_pool4_0_split
I1105 17:55:40.928513 13220 net.cpp:100] Creating Layer pool4_pool4_0_split
I1105 17:55:40.928519 13220 net.cpp:434] pool4_pool4_0_split <- pool4
I1105 17:55:40.928526 13220 net.cpp:408] pool4_pool4_0_split -> pool4_pool4_0_split_0
I1105 17:55:40.928535 13220 net.cpp:408] pool4_pool4_0_split -> pool4_pool4_0_split_1
I1105 17:55:40.928582 13220 net.cpp:150] Setting up pool4_pool4_0_split
I1105 17:55:40.928591 13220 net.cpp:157] Top shape: 3 512 15 15 (345600)
I1105 17:55:40.928596 13220 net.cpp:157] Top shape: 3 512 15 15 (345600)
I1105 17:55:40.928601 13220 net.cpp:165] Memory required for data: 614214564
I1105 17:55:40.928606 13220 layer_factory.hpp:77] Creating layer conv5_1
I1105 17:55:40.928624 13220 net.cpp:100] Creating Layer conv5_1
I1105 17:55:40.928630 13220 net.cpp:434] conv5_1 <- pool4_pool4_0_split_0
I1105 17:55:40.928640 13220 net.cpp:408] conv5_1 -> conv5_1
I1105 17:55:40.962864 13220 net.cpp:150] Setting up conv5_1
I1105 17:55:40.962903 13220 net.cpp:157] Top shape: 3 512 15 15 (345600)
I1105 17:55:40.962908 13220 net.cpp:165] Memory required for data: 615596964
I1105 17:55:40.962952 13220 layer_factory.hpp:77] Creating layer relu5_1
I1105 17:55:40.962972 13220 net.cpp:100] Creating Layer relu5_1
I1105 17:55:40.962982 13220 net.cpp:434] relu5_1 <- conv5_1
I1105 17:55:40.962991 13220 net.cpp:395] relu5_1 -> conv5_1 (in-place)
I1105 17:55:40.963254 13220 net.cpp:150] Setting up relu5_1
I1105 17:55:40.963265 13220 net.cpp:157] Top shape: 3 512 15 15 (345600)
I1105 17:55:40.963270 13220 net.cpp:165] Memory required for data: 616979364
I1105 17:55:40.963279 13220 layer_factory.hpp:77] Creating layer conv5_2
I1105 17:55:40.963297 13220 net.cpp:100] Creating Layer conv5_2
I1105 17:55:40.963305 13220 net.cpp:434] conv5_2 <- conv5_1
I1105 17:55:40.963316 13220 net.cpp:408] conv5_2 -> conv5_2
I1105 17:55:40.995952 13220 net.cpp:150] Setting up conv5_2
I1105 17:55:40.996002 13220 net.cpp:157] Top shape: 3 512 15 15 (345600)
I1105 17:55:40.996008 13220 net.cpp:165] Memory required for data: 618361764
I1105 17:55:40.996024 13220 layer_factory.hpp:77] Creating layer relu5_2
I1105 17:55:40.996043 13220 net.cpp:100] Creating Layer relu5_2
I1105 17:55:40.996052 13220 net.cpp:434] relu5_2 <- conv5_2
I1105 17:55:40.996062 13220 net.cpp:395] relu5_2 -> conv5_2 (in-place)
I1105 17:55:40.996325 13220 net.cpp:150] Setting up relu5_2
I1105 17:55:40.996335 13220 net.cpp:157] Top shape: 3 512 15 15 (345600)
I1105 17:55:40.996340 13220 net.cpp:165] Memory required for data: 619744164
I1105 17:55:40.996347 13220 layer_factory.hpp:77] Creating layer res5_2
I1105 17:55:40.996361 13220 net.cpp:100] Creating Layer res5_2
I1105 17:55:40.996398 13220 net.cpp:434] res5_2 <- pool4_pool4_0_split_1
I1105 17:55:40.996405 13220 net.cpp:434] res5_2 <- conv5_2
I1105 17:55:40.996415 13220 net.cpp:408] res5_2 -> res5_2
I1105 17:55:40.996445 13220 net.cpp:150] Setting up res5_2
I1105 17:55:40.996454 13220 net.cpp:157] Top shape: 3 512 15 15 (345600)
I1105 17:55:40.996459 13220 net.cpp:165] Memory required for data: 621126564
I1105 17:55:40.996464 13220 layer_factory.hpp:77] Creating layer res5_2_res5_2_0_split
I1105 17:55:40.996472 13220 net.cpp:100] Creating Layer res5_2_res5_2_0_split
I1105 17:55:40.996479 13220 net.cpp:434] res5_2_res5_2_0_split <- res5_2
I1105 17:55:40.996505 13220 net.cpp:408] res5_2_res5_2_0_split -> res5_2_res5_2_0_split_0
I1105 17:55:40.996516 13220 net.cpp:408] res5_2_res5_2_0_split -> res5_2_res5_2_0_split_1
I1105 17:55:40.996562 13220 net.cpp:150] Setting up res5_2_res5_2_0_split
I1105 17:55:40.996572 13220 net.cpp:157] Top shape: 3 512 15 15 (345600)
I1105 17:55:40.996578 13220 net.cpp:157] Top shape: 3 512 15 15 (345600)
I1105 17:55:40.996584 13220 net.cpp:165] Memory required for data: 623891364
I1105 17:55:40.996588 13220 layer_factory.hpp:77] Creating layer conv5_3
I1105 17:55:40.996603 13220 net.cpp:100] Creating Layer conv5_3
I1105 17:55:40.996609 13220 net.cpp:434] conv5_3 <- res5_2_res5_2_0_split_0
I1105 17:55:40.996618 13220 net.cpp:408] conv5_3 -> conv5_3
I1105 17:55:41.029850 13220 net.cpp:150] Setting up conv5_3
I1105 17:55:41.029894 13220 net.cpp:157] Top shape: 3 512 15 15 (345600)
I1105 17:55:41.029901 13220 net.cpp:165] Memory required for data: 625273764
I1105 17:55:41.029917 13220 layer_factory.hpp:77] Creating layer relu5_3
I1105 17:55:41.029932 13220 net.cpp:100] Creating Layer relu5_3
I1105 17:55:41.029940 13220 net.cpp:434] relu5_3 <- conv5_3
I1105 17:55:41.029958 13220 net.cpp:395] relu5_3 -> conv5_3 (in-place)
I1105 17:55:41.031592 13220 net.cpp:150] Setting up relu5_3
I1105 17:55:41.031637 13220 net.cpp:157] Top shape: 3 512 15 15 (345600)
I1105 17:55:41.031642 13220 net.cpp:165] Memory required for data: 626656164
I1105 17:55:41.031661 13220 layer_factory.hpp:77] Creating layer conv5_4
I1105 17:55:41.031690 13220 net.cpp:100] Creating Layer conv5_4
I1105 17:55:41.031699 13220 net.cpp:434] conv5_4 <- conv5_3
I1105 17:55:41.031713 13220 net.cpp:408] conv5_4 -> conv5_4
I1105 17:55:41.065032 13220 net.cpp:150] Setting up conv5_4
I1105 17:55:41.065074 13220 net.cpp:157] Top shape: 3 512 15 15 (345600)
I1105 17:55:41.065080 13220 net.cpp:165] Memory required for data: 628038564
I1105 17:55:41.065098 13220 layer_factory.hpp:77] Creating layer relu5_4
I1105 17:55:41.065115 13220 net.cpp:100] Creating Layer relu5_4
I1105 17:55:41.065124 13220 net.cpp:434] relu5_4 <- conv5_4
I1105 17:55:41.065134 13220 net.cpp:395] relu5_4 -> conv5_4 (in-place)
I1105 17:55:41.065394 13220 net.cpp:150] Setting up relu5_4
I1105 17:55:41.065404 13220 net.cpp:157] Top shape: 3 512 15 15 (345600)
I1105 17:55:41.065409 13220 net.cpp:165] Memory required for data: 629420964
I1105 17:55:41.065416 13220 layer_factory.hpp:77] Creating layer res5_4
I1105 17:55:41.065428 13220 net.cpp:100] Creating Layer res5_4
I1105 17:55:41.065439 13220 net.cpp:434] res5_4 <- res5_2_res5_2_0_split_1
I1105 17:55:41.065448 13220 net.cpp:434] res5_4 <- conv5_4
I1105 17:55:41.065460 13220 net.cpp:408] res5_4 -> res5_4
I1105 17:55:41.065496 13220 net.cpp:150] Setting up res5_4
I1105 17:55:41.065505 13220 net.cpp:157] Top shape: 3 512 15 15 (345600)
I1105 17:55:41.065510 13220 net.cpp:165] Memory required for data: 630803364
I1105 17:55:41.065515 13220 layer_factory.hpp:77] Creating layer res5_4_res5_4_0_split
I1105 17:55:41.065522 13220 net.cpp:100] Creating Layer res5_4_res5_4_0_split
I1105 17:55:41.065526 13220 net.cpp:434] res5_4_res5_4_0_split <- res5_4
I1105 17:55:41.065536 13220 net.cpp:408] res5_4_res5_4_0_split -> res5_4_res5_4_0_split_0
I1105 17:55:41.065546 13220 net.cpp:408] res5_4_res5_4_0_split -> res5_4_res5_4_0_split_1
I1105 17:55:41.065642 13220 net.cpp:150] Setting up res5_4_res5_4_0_split
I1105 17:55:41.065651 13220 net.cpp:157] Top shape: 3 512 15 15 (345600)
I1105 17:55:41.065659 13220 net.cpp:157] Top shape: 3 512 15 15 (345600)
I1105 17:55:41.065663 13220 net.cpp:165] Memory required for data: 633568164
I1105 17:55:41.065667 13220 layer_factory.hpp:77] Creating layer conv5_5
I1105 17:55:41.065683 13220 net.cpp:100] Creating Layer conv5_5
I1105 17:55:41.065690 13220 net.cpp:434] conv5_5 <- res5_4_res5_4_0_split_0
I1105 17:55:41.065698 13220 net.cpp:408] conv5_5 -> conv5_5
I1105 17:55:41.099576 13220 net.cpp:150] Setting up conv5_5
I1105 17:55:41.099612 13220 net.cpp:157] Top shape: 3 512 15 15 (345600)
I1105 17:55:41.099653 13220 net.cpp:165] Memory required for data: 634950564
I1105 17:55:41.099668 13220 layer_factory.hpp:77] Creating layer relu5_5
I1105 17:55:41.099685 13220 net.cpp:100] Creating Layer relu5_5
I1105 17:55:41.099704 13220 net.cpp:434] relu5_5 <- conv5_5
I1105 17:55:41.099714 13220 net.cpp:395] relu5_5 -> conv5_5 (in-place)
I1105 17:55:41.099963 13220 net.cpp:150] Setting up relu5_5
I1105 17:55:41.099972 13220 net.cpp:157] Top shape: 3 512 15 15 (345600)
I1105 17:55:41.099977 13220 net.cpp:165] Memory required for data: 636332964
I1105 17:55:41.099984 13220 layer_factory.hpp:77] Creating layer conv5_6
I1105 17:55:41.100003 13220 net.cpp:100] Creating Layer conv5_6
I1105 17:55:41.100009 13220 net.cpp:434] conv5_6 <- conv5_5
I1105 17:55:41.100019 13220 net.cpp:408] conv5_6 -> conv5_6
I1105 17:55:41.133474 13220 net.cpp:150] Setting up conv5_6
I1105 17:55:41.133514 13220 net.cpp:157] Top shape: 3 512 15 15 (345600)
I1105 17:55:41.133519 13220 net.cpp:165] Memory required for data: 637715364
I1105 17:55:41.133534 13220 layer_factory.hpp:77] Creating layer relu5_6
I1105 17:55:41.133549 13220 net.cpp:100] Creating Layer relu5_6
I1105 17:55:41.133556 13220 net.cpp:434] relu5_6 <- conv5_6
I1105 17:55:41.133571 13220 net.cpp:395] relu5_6 -> conv5_6 (in-place)
I1105 17:55:41.133842 13220 net.cpp:150] Setting up relu5_6
I1105 17:55:41.133852 13220 net.cpp:157] Top shape: 3 512 15 15 (345600)
I1105 17:55:41.133857 13220 net.cpp:165] Memory required for data: 639097764
I1105 17:55:41.133863 13220 layer_factory.hpp:77] Creating layer res5_6
I1105 17:55:41.133873 13220 net.cpp:100] Creating Layer res5_6
I1105 17:55:41.133880 13220 net.cpp:434] res5_6 <- res5_4_res5_4_0_split_1
I1105 17:55:41.133886 13220 net.cpp:434] res5_6 <- conv5_6
I1105 17:55:41.133913 13220 net.cpp:408] res5_6 -> res5_6
I1105 17:55:41.133946 13220 net.cpp:150] Setting up res5_6
I1105 17:55:41.133957 13220 net.cpp:157] Top shape: 3 512 15 15 (345600)
I1105 17:55:41.133965 13220 net.cpp:165] Memory required for data: 640480164
I1105 17:55:41.133970 13220 layer_factory.hpp:77] Creating layer fc5
I1105 17:55:41.133980 13220 net.cpp:100] Creating Layer fc5
I1105 17:55:41.133983 13220 net.cpp:434] fc5 <- res5_6
I1105 17:55:41.133991 13220 net.cpp:408] fc5 -> fc5
I1105 17:55:41.718116 13220 net.cpp:150] Setting up fc5
I1105 17:55:41.718168 13220 net.cpp:157] Top shape: 3 512 (1536)
I1105 17:55:41.718173 13220 net.cpp:165] Memory required for data: 640486308
I1105 17:55:41.718191 13220 layer_factory.hpp:77] Creating layer fc5_fc5_0_split
I1105 17:55:41.718206 13220 net.cpp:100] Creating Layer fc5_fc5_0_split
I1105 17:55:41.718214 13220 net.cpp:434] fc5_fc5_0_split <- fc5
I1105 17:55:41.718225 13220 net.cpp:408] fc5_fc5_0_split -> fc5_fc5_0_split_0
I1105 17:55:41.718240 13220 net.cpp:408] fc5_fc5_0_split -> fc5_fc5_0_split_1
I1105 17:55:41.718297 13220 net.cpp:150] Setting up fc5_fc5_0_split
I1105 17:55:41.718303 13220 net.cpp:157] Top shape: 3 512 (1536)
I1105 17:55:41.718309 13220 net.cpp:157] Top shape: 3 512 (1536)
I1105 17:55:41.718313 13220 net.cpp:165] Memory required for data: 640498596
I1105 17:55:41.718317 13220 layer_factory.hpp:77] Creating layer fc6
I1105 17:55:41.718328 13220 net.cpp:100] Creating Layer fc6
I1105 17:55:41.718333 13220 net.cpp:434] fc6 <- fc5_fc5_0_split_0
I1105 17:55:41.718341 13220 net.cpp:408] fc6 -> fc6
I1105 17:55:41.718804 13220 net.cpp:150] Setting up fc6
I1105 17:55:41.718816 13220 net.cpp:157] Top shape: 3 70 (210)
I1105 17:55:41.718819 13220 net.cpp:165] Memory required for data: 640499436
I1105 17:55:41.718827 13220 layer_factory.hpp:77] Creating layer softmax_loss
I1105 17:55:41.718834 13220 net.cpp:100] Creating Layer softmax_loss
I1105 17:55:41.718839 13220 net.cpp:434] softmax_loss <- fc6
I1105 17:55:41.718845 13220 net.cpp:434] softmax_loss <- label_data_1_split_0
I1105 17:55:41.718853 13220 net.cpp:408] softmax_loss -> softmax_loss
…
