name: "lenet_siamese_train_test"
layer {
  name: "pair_data"
  type: "HDF5Data"
  top: "pair_data"
  top: "sim"
  hdf5_data_param {
    source: "./train.txt"
    # 6GB GPU: use batch_size of ~30. 12GB: ~50. Adjust for your GPU memory
    batch_size: 1
  }
  include {
    phase: TRAIN
  }
}
layer {
  name: "slice_pair"
  type: "Slice"
  bottom: "pair_data"
  top: "data"
  top: "data_p"
  slice_param {
    slice_dim: 1
    slice_point: 200
  }
}
layer {
  name: "conv1"
  type: "NdConvolution"
  bottom: "data"
  top: "conv1"
  param {
    name: "conv1_w"
    lr_mult: 1
    decay_mult: 1
  }
  param {
    name: "conv1_b"
    lr_mult: 2
    decay_mult: 0
  }
  convolution_param {
    num_output: 64
    kernel_shape { dim: 3 dim: 3 dim: 3 }
    stride_shape { dim: 1 dim: 1 dim: 1 }
    pad_shape    { dim: 1 dim: 1 dim: 1 }
    weight_filler {
      type: "gaussian"
      std: 0.01
    }
    bias_filler {
      type: "constant"
      value: 0
    }
  }
}
layer {
  name: "feat"
  type: "InnerProduct"
  bottom: "conv1"
  top: "feat"
  param {
    name: "feat_w"
    lr_mult: 1    
    decay_mult: 1
  }
  param {
    name: "feat_b"
    lr_mult: 2    
    decay_mult: 0
  }
  inner_product_param {
    num_output: 128
    weight_filler {
      type: "xavier"
    }
    bias_filler {
      type: "constant"
    }
  }
}
layer {
  name: "conv1_p"
  type: "NdConvolution"
  bottom: "data_p"
  top: "conv1_p"
  param {
    name: "conv1_w"
    lr_mult: 1
    decay_mult: 1
  }
  param {
    name: "conv1_b"
    lr_mult: 2
    decay_mult: 0
  }
  convolution_param {
    num_output: 64
    kernel_shape { dim: 3 dim: 3 dim: 3 }
    stride_shape { dim: 1 dim: 1 dim: 1 }
    pad_shape    { dim: 1 dim: 1 dim: 1 }
    weight_filler {
      type: "gaussian"
      std: 0.01
    }
    bias_filler {
      type: "constant"
      value: 0
    }
  }
}
layer {
  name: "feat_p"
  type: "InnerProduct"
  bottom: "conv1_p"
  top: "feat_p"
  param {
    name: "feat_w"
    lr_mult: 1    
    decay_mult: 1
  }
  param {
    name: "feat_b"
    lr_mult: 2    
    decay_mult: 0
  }
  inner_product_param {
    num_output: 128
    weight_filler {
      type: "xavier"
    }
    bias_filler {
      type: "constant"
    }
  }
}

layer {
  name: "loss"
  type: "ContrastiveLoss"
  bottom: "feat"
  bottom: "feat_p"
  bottom: "sim"
  top: "loss"
  contrastive_loss_param {
    margin: 1
  }
}