…
I1021 11:25:38.382968 13047 solver.cpp:87] Creating training net from net file: ./lenet_siamese_train_test.prototxt
I1021 11:25:38.383307 13047 net.cpp:294] The NetState phase (0) differed from the phase (1) specified by a rule in layer pair_data
I1021 11:25:38.383488 13047 net.cpp:51] Initializing net from parameters: 
name: "lenet_siamese_train_test"
state {
  phase: TRAIN
  level: 0
  stage: ""
}
layer {
  name: "pair_data"
  type: "Data"
  top: "pair_data"
  top: "sim"
  include {
    phase: TRAIN
  }
  transform_param {
    scale: 0.00390625
  }
  data_param {
    source: "./siamese_train_lmdb"
    batch_size: 5
    backend: LMDB
  }
}
layer {
  name: "slice_pair"
  type: "Slice"
  bottom: "pair_data"
  top: "data"
  top: "data_p"
  slice_param {
    slice_dim: 1
    slice_point: 250
  }
}
layer {
  name: "conv1"
  type: "Convolution"
  bottom: "data"
  top: "conv1"
  param {
    name: "conv1_w"
    lr_mult: 1
  }
  param {
    name: "conv1_b"
    lr_mult: 2
  }
  convolution_param {
    num_output: 20
    kernel_size: 5
    stride: 1
    weight_filler {
      type: "xavier"
    }
    bias_filler {
      type: "constant"
    }
  }
}
layer {
  name: "pool1"
  type: "Pooling"
  bottom: "conv1"
  top: "pool1"
  pooling_param {
    pool: MAX
    kernel_size: 2
    stride: 2
  }
}
layer {
  name: "conv2"
  type: "Convolution"
  bottom: "pool1"
  top: "conv2"
  param {
    name: "conv2_w"
    lr_mult: 1
  }
  param {
    name: "conv2_b"
    lr_mult: 2
  }
  convolution_param {
    num_output: 50
    kernel_size: 5
    stride: 1
    weight_filler {
      type: "xavier"
    }
    bias_filler {
      type: "constant"
    }
  }
}
layer {
  name: "pool2"
  type: "Pooling"
  bottom: "conv2"
  top: "pool2"
  pooling_param {
    pool: MAX
    kernel_size: 2
    stride: 2
  }
}
layer {
  name: "ip1"
  type: "InnerProduct"
  bottom: "pool2"
  top: "ip1"
  param {
    name: "ip1_w"
    lr_mult: 1
  }
  param {
    name: "ip1_b"
    lr_mult: 2
  }
  inner_product_param {
    num_output: 500
    weight_filler {
      type: "xavier"
    }
    bias_filler {
      type: "constant"
    }
  }
}
layer {
  name: "relu1"
  type: "ReLU"
  bottom: "ip1"
  top: "ip1"
}
layer {
  name: "ip2"
  type: "InnerProduct"
  bottom: "ip1"
  top: "ip2"
  param {
    name: "ip2_w"
    lr_mult: 1
  }
  param {
    name: "ip2_b"
    lr_mult: 2
  }
  inner_product_param {
    num_output: 10
    weight_filler {
      type: "xavier"
    }
    bias_filler {
      type: "constant"
    }
  }
}
layer {
  name: "feat"
  type: "InnerProduct"
  bottom: "ip2"
  top: "feat"
  param {
    name: "feat_w"
    lr_mult: 1
  }
  param {
    name: "feat_b"
    lr_mult: 2
  }
  inner_product_param {
    num_output: 10
    weight_filler {
      type: "xavier"
    }
    bias_filler {
      type: "constant"
    }
  }
}
layer {
  name: "conv1_p"
  type: "Convolution"
  bottom: "data_p"
  top: "conv1_p"
  param {
    name: "conv1_w"
    lr_mult: 1
  }
  param {
    name: "conv1_b"
    lr_mult: 2
  }
  convolution_param {
    num_output: 20
    kernel_size: 5
    stride: 1
    weight_filler {
      type: "xavier"
    }
    bias_filler {
      type: "constant"
    }
  }
}
layer {
  name: "pool1_p"
  type: "Pooling"
  bottom: "conv1_p"
  top: "pool1_p"
  pooling_param {
    pool: MAX
    kernel_size: 2
    stride: 2
  }
}
layer {
  name: "conv2_p"
  type: "Convolution"
  bottom: "pool1_p"
  top: "conv2_p"
  param {
    name: "conv2_w"
    lr_mult: 1
  }
  param {
    name: "conv2_b"
    lr_mult: 2
  }
  convolution_param {
    num_output: 50
    kernel_size: 5
    stride: 1
    weight_filler {
      type: "xavier"
    }
    bias_filler {
      type: "constant"
    }
  }
}
layer {
  name: "pool2_p"
  type: "Pooling"
  bottom: "conv2_p"
  top: "pool2_p"
  pooling_param {
    pool: MAX
    kernel_size: 2
    stride: 2
  }
}
layer {
  name: "ip1_p"
  type: "InnerProduct"
  bottom: "pool2_p"
  top: "ip1_p"
  param {
    name: "ip1_w"
    lr_mult: 1
  }
  param {
    name: "ip1_b"
    lr_mult: 2
  }
  inner_product_param {
    num_output: 500
    weight_filler {
      type: "xavier"
    }
    bias_filler {
      type: "constant"
    }
  }
}
layer {
  name: "relu1_p"
  type: "ReLU"
  bottom: "ip1_p"
  top: "ip1_p"
}
layer {
  name: "ip2_p"
  type: "InnerProduct"
  bottom: "ip1_p"
  top: "ip2_p"
  param {
    name: "ip2_w"
    lr_mult: 1
  }
  param {
    name: "ip2_b"
    lr_mult: 2
  }
  inner_product_param {
    num_output: 10
    weight_filler {
      type: "xavier"
    }
    bias_filler {
      type: "constant"
    }
  }
}
layer {
  name: "feat_p"
  type: "InnerProduct"
  bottom: "ip2_p"
  top: "feat_p"
  param {
    name: "feat_w"
    lr_mult: 1
  }
  param {
    name: "feat_b"
    lr_mult: 2
  }
  inner_product_param {
    num_output: 10
    weight_filler {
      type: "xavier"
    }
    bias_filler {
      type: "constant"
    }
  }
}
layer {
  name: "loss"
  type: "ContrastiveLoss"
  bottom: "feat"
  bottom: "feat_p"
  bottom: "sim"
  top: "loss"
  contrastive_loss_param {
    margin: 1
  }
}
I1021 11:25:38.383601 13047 layer_factory.hpp:77] Creating layer pair_data
I1021 11:25:38.383733 13047 db_lmdb.cpp:35] Opened lmdb ./siamese_train_lmdb
I1021 11:25:38.383755 13047 net.cpp:84] Creating Layer pair_data
I1021 11:25:38.383764 13047 net.cpp:380] pair_data -> pair_data
I1021 11:25:38.383787 13047 net.cpp:380] pair_data -> sim
[libprotobuf ERROR google/protobuf/io/coded_stream.cc:180] A protocol message was rejected because it was too big (more than 67108864 bytes).  To increase the limit (or to disable these warnings), see CodedInputStream::SetTotalBytesLimit() in google/protobuf/io/coded_stream.h.
I1021 11:25:38.607653 13047 data_layer.cpp:45] output data size: 5,500,227,227
I1021 11:25:39.895566 13047 net.cpp:122] Setting up pair_data
I1021 11:25:39.895606 13047 net.cpp:129] Top shape: 5 500 227 227 (128822500)
I1021 11:25:39.895612 13047 net.cpp:129] Top shape: 5 (5)
I1021 11:25:39.895617 13047 net.cpp:137] Memory required for data: 515290020
I1021 11:25:39.895629 13047 layer_factory.hpp:77] Creating layer slice_pair
I1021 11:25:39.895649 13047 net.cpp:84] Creating Layer slice_pair
I1021 11:25:39.895658 13047 net.cpp:406] slice_pair <- pair_data
I1021 11:25:39.895673 13047 net.cpp:380] slice_pair -> data
I1021 11:25:39.895690 13047 net.cpp:380] slice_pair -> data_p
I1021 11:25:39.895788 13047 net.cpp:122] Setting up slice_pair
I1021 11:25:39.895795 13047 net.cpp:129] Top shape: 5 250 227 227 (64411250)
I1021 11:25:39.895800 13047 net.cpp:129] Top shape: 5 250 227 227 (64411250)
I1021 11:25:39.895804 13047 net.cpp:137] Memory required for data: 1030580020
I1021 11:25:39.895808 13047 layer_factory.hpp:77] Creating layer conv1
I1021 11:25:39.895830 13047 net.cpp:84] Creating Layer conv1
I1021 11:25:39.895834 13047 net.cpp:406] conv1 <- data
I1021 11:25:39.895843 13047 net.cpp:380] conv1 -> conv1
[libprotobuf ERROR google/protobuf/io/coded_stream.cc:180] A protocol message was rejected because it was too big (more than 67108864 bytes).  To increase the limit (or to disable these warnings), see CodedInputStream::SetTotalBytesLimit() in google/protobuf/io/coded_stream.h.
I1021 11:25:40.302404 13047 net.cpp:122] Setting up conv1
I1021 11:25:40.302464 13047 net.cpp:129] Top shape: 5 20 223 223 (4972900)
I1021 11:25:40.302469 13047 net.cpp:137] Memory required for data: 1050471620
I1021 11:25:40.302564 13047 layer_factory.hpp:77] Creating layer pool1
I1021 11:25:40.302587 13047 net.cpp:84] Creating Layer pool1
I1021 11:25:40.302594 13047 net.cpp:406] pool1 <- conv1
I1021 11:25:40.302605 13047 net.cpp:380] pool1 -> pool1
I1021 11:25:40.302808 13047 net.cpp:122] Setting up pool1
I1021 11:25:40.302819 13047 net.cpp:129] Top shape: 5 20 112 112 (1254400)
I1021 11:25:40.302824 13047 net.cpp:137] Memory required for data: 1055489220
I1021 11:25:40.302829 13047 layer_factory.hpp:77] Creating layer conv2
I1021 11:25:40.302873 13047 net.cpp:84] Creating Layer conv2
I1021 11:25:40.302881 13047 net.cpp:406] conv2 <- pool1
I1021 11:25:40.302888 13047 net.cpp:380] conv2 -> conv2
I1021 11:25:40.306443 13047 net.cpp:122] Setting up conv2
I1021 11:25:40.306535 13047 net.cpp:129] Top shape: 5 50 108 108 (2916000)
I1021 11:25:40.306543 13047 net.cpp:137] Memory required for data: 1067153220
I1021 11:25:40.306624 13047 layer_factory.hpp:77] Creating layer pool2
I1021 11:25:40.306648 13047 net.cpp:84] Creating Layer pool2
I1021 11:25:40.306654 13047 net.cpp:406] pool2 <- conv2
I1021 11:25:40.306744 13047 net.cpp:380] pool2 -> pool2
I1021 11:25:40.306851 13047 net.cpp:122] Setting up pool2
I1021 11:25:40.306861 13047 net.cpp:129] Top shape: 5 50 54 54 (729000)
I1021 11:25:40.306866 13047 net.cpp:137] Memory required for data: 1070069220
I1021 11:25:40.306897 13047 layer_factory.hpp:77] Creating layer ip1
I1021 11:25:40.306913 13047 net.cpp:84] Creating Layer ip1
I1021 11:25:40.306941 13047 net.cpp:406] ip1 <- pool2
I1021 11:25:40.306951 13047 net.cpp:380] ip1 -> ip1
[libprotobuf ERROR google/protobuf/io/coded_stream.cc:180] A protocol message was rejected because it was too big (more than 67108864 bytes).  To increase the limit (or to disable these warnings), see CodedInputStream::SetTotalBytesLimit() in google/protobuf/io/coded_stream.h.
[libprotobuf ERROR google/protobuf/io/coded_stream.cc:180] A protocol message was rejected because it was too big (more than 67108864 bytes).  To increase the limit (or to disable these warnings), see CodedInputStream::SetTotalBytesLimit() in google/protobuf/io/coded_stream.h.
I1021 11:25:41.011731 13047 net.cpp:122] Setting up ip1
I1021 11:25:41.011790 13047 net.cpp:129] Top shape: 5 500 (2500)
I1021 11:25:41.011796 13047 net.cpp:137] Memory required for data: 1070079220
I1021 11:25:41.011829 13047 layer_factory.hpp:77] Creating layer relu1
I1021 11:25:41.011847 13047 net.cpp:84] Creating Layer relu1
I1021 11:25:41.011854 13047 net.cpp:406] relu1 <- ip1
I1021 11:25:41.011868 13047 net.cpp:367] relu1 -> ip1 (in-place)
I1021 11:25:41.012202 13047 net.cpp:122] Setting up relu1
I1021 11:25:41.012212 13047 net.cpp:129] Top shape: 5 500 (2500)
I1021 11:25:41.012217 13047 net.cpp:137] Memory required for data: 1070089220
I1021 11:25:41.012223 13047 layer_factory.hpp:77] Creating layer ip2
I1021 11:25:41.012239 13047 net.cpp:84] Creating Layer ip2
I1021 11:25:41.012244 13047 net.cpp:406] ip2 <- ip1
I1021 11:25:41.012253 13047 net.cpp:380] ip2 -> ip2
I1021 11:25:41.012416 13047 net.cpp:122] Setting up ip2
I1021 11:25:41.012425 13047 net.cpp:129] Top shape: 5 10 (50)
I1021 11:25:41.012429 13047 net.cpp:137] Memory required for data: 1070089420
I1021 11:25:41.012437 13047 layer_factory.hpp:77] Creating layer feat
I1021 11:25:41.012445 13047 net.cpp:84] Creating Layer feat
I1021 11:25:41.012450 13047 net.cpp:406] feat <- ip2
I1021 11:25:41.012459 13047 net.cpp:380] feat -> feat
I1021 11:25:41.012568 13047 net.cpp:122] Setting up feat
I1021 11:25:41.012576 13047 net.cpp:129] Top shape: 5 10 (50)
I1021 11:25:41.012581 13047 net.cpp:137] Memory required for data: 1070089620
I1021 11:25:41.012590 13047 layer_factory.hpp:77] Creating layer conv1_p
I1021 11:25:41.012605 13047 net.cpp:84] Creating Layer conv1_p
I1021 11:25:41.012610 13047 net.cpp:406] conv1_p <- data_p
I1021 11:25:41.012620 13047 net.cpp:380] conv1_p -> conv1_p
I1021 11:25:41.015456 13047 net.cpp:122] Setting up conv1_p
I1021 11:25:41.015487 13047 net.cpp:129] Top shape: 5 20 223 223 (4972900)
I1021 11:25:41.015493 13047 net.cpp:137] Memory required for data: 1089981220
I1021 11:25:41.015503 13047 net.cpp:465] Sharing parameters 'conv1_w' owned by layer 'conv1', param index 0
I1021 11:25:41.015512 13047 net.cpp:465] Sharing parameters 'conv1_b' owned by layer 'conv1', param index 1
I1021 11:25:41.015518 13047 layer_factory.hpp:77] Creating layer pool1_p
I1021 11:25:41.015532 13047 net.cpp:84] Creating Layer pool1_p
I1021 11:25:41.015538 13047 net.cpp:406] pool1_p <- conv1_p
I1021 11:25:41.015550 13047 net.cpp:380] pool1_p -> pool1_p
I1021 11:25:41.015604 13047 net.cpp:122] Setting up pool1_p
I1021 11:25:41.015614 13047 net.cpp:129] Top shape: 5 20 112 112 (1254400)
I1021 11:25:41.015619 13047 net.cpp:137] Memory required for data: 1094998820
I1021 11:25:41.015625 13047 layer_factory.hpp:77] Creating layer conv2_p
I1021 11:25:41.015640 13047 net.cpp:84] Creating Layer conv2_p
I1021 11:25:41.015645 13047 net.cpp:406] conv2_p <- pool1_p
I1021 11:25:41.015660 13047 net.cpp:380] conv2_p -> conv2_p
I1021 11:25:41.017221 13047 net.cpp:122] Setting up conv2_p
I1021 11:25:41.017241 13047 net.cpp:129] Top shape: 5 50 108 108 (2916000)
I1021 11:25:41.017246 13047 net.cpp:137] Memory required for data: 1106662820
I1021 11:25:41.017253 13047 net.cpp:465] Sharing parameters 'conv2_w' owned by layer 'conv2', param index 0
I1021 11:25:41.017261 13047 net.cpp:465] Sharing parameters 'conv2_b' owned by layer 'conv2', param index 1
I1021 11:25:41.017267 13047 layer_factory.hpp:77] Creating layer pool2_p
I1021 11:25:41.017297 13047 net.cpp:84] Creating Layer pool2_p
I1021 11:25:41.017303 13047 net.cpp:406] pool2_p <- conv2_p
I1021 11:25:41.017314 13047 net.cpp:380] pool2_p -> pool2_p
I1021 11:25:41.017365 13047 net.cpp:122] Setting up pool2_p
I1021 11:25:41.017372 13047 net.cpp:129] Top shape: 5 50 54 54 (729000)
I1021 11:25:41.017377 13047 net.cpp:137] Memory required for data: 1109578820
I1021 11:25:41.017381 13047 layer_factory.hpp:77] Creating layer ip1_p
I1021 11:25:41.017391 13047 net.cpp:84] Creating Layer ip1_p
I1021 11:25:41.017395 13047 net.cpp:406] ip1_p <- pool2_p
I1021 11:25:41.017405 13047 net.cpp:380] ip1_p -> ip1_p
[libprotobuf ERROR google/protobuf/io/coded_stream.cc:180] A protocol message was rejected because it was too big (more than 67108864 bytes).  To increase the limit (or to disable these warnings), see CodedInputStream::SetTotalBytesLimit() in google/protobuf/io/coded_stream.h.
[libprotobuf ERROR google/protobuf/io/coded_stream.cc:180] A protocol message was rejected because it was too big (more than 67108864 bytes).  To increase the limit (or to disable these warnings), see CodedInputStream::SetTotalBytesLimit() in google/protobuf/io/coded_stream.h.
I1021 11:25:41.710263 13047 net.cpp:122] Setting up ip1_p
I1021 11:25:41.710332 13047 net.cpp:129] Top shape: 5 500 (2500)
I1021 11:25:41.710337 13047 net.cpp:137] Memory required for data: 1109588820
I1021 11:25:41.710353 13047 net.cpp:465] Sharing parameters 'ip1_w' owned by layer 'ip1', param index 0
I1021 11:25:41.710363 13047 net.cpp:465] Sharing parameters 'ip1_b' owned by layer 'ip1', param index 1
I1021 11:25:41.710371 13047 layer_factory.hpp:77] Creating layer relu1_p
I1021 11:25:41.710391 13047 net.cpp:84] Creating Layer relu1_p
I1021 11:25:41.710398 13047 net.cpp:406] relu1_p <- ip1_p
I1021 11:25:41.710418 13047 net.cpp:367] relu1_p -> ip1_p (in-place)
I1021 11:25:41.710813 13047 net.cpp:122] Setting up relu1_p
I1021 11:25:41.710824 13047 net.cpp:129] Top shape: 5 500 (2500)
I1021 11:25:41.710829 13047 net.cpp:137] Memory required for data: 1109598820
I1021 11:25:41.710834 13047 layer_factory.hpp:77] Creating layer ip2_p
I1021 11:25:41.710857 13047 net.cpp:84] Creating Layer ip2_p
I1021 11:25:41.710862 13047 net.cpp:406] ip2_p <- ip1_p
I1021 11:25:41.710871 13047 net.cpp:380] ip2_p -> ip2_p
I1021 11:25:41.711050 13047 net.cpp:122] Setting up ip2_p
I1021 11:25:41.711061 13047 net.cpp:129] Top shape: 5 10 (50)
I1021 11:25:41.711064 13047 net.cpp:137] Memory required for data: 1109599020
I1021 11:25:41.711076 13047 net.cpp:465] Sharing parameters 'ip2_w' owned by layer 'ip2', param index 0
I1021 11:25:41.711081 13047 net.cpp:465] Sharing parameters 'ip2_b' owned by layer 'ip2', param index 1
I1021 11:25:41.711087 13047 layer_factory.hpp:77] Creating layer feat_p
I1021 11:25:41.711097 13047 net.cpp:84] Creating Layer feat_p
I1021 11:25:41.711102 13047 net.cpp:406] feat_p <- ip2_p
I1021 11:25:41.711110 13047 net.cpp:380] feat_p -> feat_p
I1021 11:25:41.711230 13047 net.cpp:122] Setting up feat_p
I1021 11:25:41.711238 13047 net.cpp:129] Top shape: 5 10 (50)
I1021 11:25:41.711243 13047 net.cpp:137] Memory required for data: 1109599220
I1021 11:25:41.711248 13047 net.cpp:465] Sharing parameters 'feat_w' owned by layer 'feat', param index 0
I1021 11:25:41.711254 13047 net.cpp:465] Sharing parameters 'feat_b' owned by layer 'feat', param index 1
I1021 11:25:41.711259 13047 layer_factory.hpp:77] Creating layer loss
I1021 11:25:41.711271 13047 net.cpp:84] Creating Layer loss
…
I1021 11:25:41.760223 13047 solver.cpp:172] Creating test net (#0) specified by net file: ./lenet_siamese_train_test.prototxt
I1021 11:25:41.760274 13047 net.cpp:294] The NetState phase (1) differed from the phase (0) specified by a rule in layer pair_data
I1021 11:25:41.760464 13047 net.cpp:51] Initializing net from parameters: 
name: "lenet_siamese_train_test"
state {
  phase: TEST
}
layer {
  name: "pair_data"
  type: "Data"
  top: "pair_data"
  top: "sim"
  include {
    phase: TEST
  }
  transform_param {
    scale: 0.00390625
  }
  data_param {
    source: "./siamese_test_lmdb"
    batch_size: 2
    backend: LMDB
  }
}
layer {
  name: "slice_pair"
  type: "Slice"
  bottom: "pair_data"
  top: "data"
  top: "data_p"
  slice_param {
    slice_dim: 1
    slice_point: 250
  }
}
layer {
  name: "conv1"
  type: "Convolution"
  bottom: "data"
  top: "conv1"
  param {
    name: "conv1_w"
    lr_mult: 1
  }
  param {
    name: "conv1_b"
    lr_mult: 2
  }
  convolution_param {
    num_output: 20
    kernel_size: 5
    stride: 1
    weight_filler {
      type: "xavier"
    }
    bias_filler {
      type: "constant"
    }
  }
}
layer {
  name: "pool1"
  type: "Pooling"
  bottom: "conv1"
  top: "pool1"
  pooling_param {
    pool: MAX
    kernel_size: 2
    stride: 2
  }
}
layer {
  name: "conv2"
  type: "Convolution"
  bottom: "pool1"
  top: "conv2"
  param {
    name: "conv2_w"
    lr_mult: 1
  }
  param {
    name: "conv2_b"
    lr_mult: 2
  }
  convolution_param {
    num_output: 50
    kernel_size: 5
    stride: 1
    weight_filler {
      type: "xavier"
    }
    bias_filler {
      type: "constant"
    }
  }
}
layer {
  name: "pool2"
  type: "Pooling"
  bottom: "conv2"
  top: "pool2"
  pooling_param {
    pool: MAX
    kernel_size: 2
    stride: 2
  }
}
layer {
  name: "ip1"
  type: "InnerProduct"
  bottom: "pool2"
  top: "ip1"
  param {
    name: "ip1_w"
    lr_mult: 1
  }
  param {
    name: "ip1_b"
    lr_mult: 2
  }
  inner_product_param {
    num_output: 500
    weight_filler {
      type: "xavier"
    }
    bias_filler {
      type: "constant"
    }
  }
}
layer {
  name: "relu1"
  type: "ReLU"
  bottom: "ip1"
  top: "ip1"
}
layer {
  name: "ip2"
  type: "InnerProduct"
  bottom: "ip1"
  top: "ip2"
  param {
    name: "ip2_w"
    lr_mult: 1
  }
  param {
    name: "ip2_b"
    lr_mult: 2
  }
  inner_product_param {
    num_output: 10
    weight_filler {
      type: "xavier"
    }
    bias_filler {
      type: "constant"
    }
  }
}
layer {
  name: "feat"
  type: "InnerProduct"
  bottom: "ip2"
  top: "feat"
  param {
    name: "feat_w"
    lr_mult: 1
  }
  param {
    name: "feat_b"
    lr_mult: 2
  }
  inner_product_param {
    num_output: 10
    weight_filler {
      type: "xavier"
    }
    bias_filler {
      type: "constant"
    }
  }
}
layer {
  name: "conv1_p"
  type: "Convolution"
  bottom: "data_p"
  top: "conv1_p"
  param {
    name: "conv1_w"
    lr_mult: 1
  }
  param {
    name: "conv1_b"
    lr_mult: 2
  }
  convolution_param {
    num_output: 20
    kernel_size: 5
    stride: 1
    weight_filler {
      type: "xavier"
    }
    bias_filler {
      type: "constant"
    }
  }
}
layer {
  name: "pool1_p"
  type: "Pooling"
  bottom: "conv1_p"
  top: "pool1_p"
  pooling_param {
    pool: MAX
    kernel_size: 2
    stride: 2
  }
}
layer {
  name: "conv2_p"
  type: "Convolution"
  bottom: "pool1_p"
  top: "conv2_p"
  param {
    name: "conv2_w"
    lr_mult: 1
  }
  param {
    name: "conv2_b"
    lr_mult: 2
  }
  convolution_param {
    num_output: 50
    kernel_size: 5
    stride: 1
    weight_filler {
      type: "xavier"
    }
    bias_filler {
      type: "constant"
    }
  }
}
layer {
  name: "pool2_p"
  type: "Pooling"
  bottom: "conv2_p"
  top: "pool2_p"
  pooling_param {
    pool: MAX
    kernel_size: 2
    stride: 2
  }
}
layer {
  name: "ip1_p"
  type: "InnerProduct"
  bottom: "pool2_p"
  top: "ip1_p"
  param {
    name: "ip1_w"
    lr_mult: 1
  }
  param {
    name: "ip1_b"
    lr_mult: 2
  }
  inner_product_param {
    num_output: 500
    weight_filler {
      type: "xavier"
    }
    bias_filler {
      type: "constant"
    }
  }
}
layer {
  name: "relu1_p"
  type: "ReLU"
  bottom: "ip1_p"
  top: "ip1_p"
}
layer {
  name: "ip2_p"
  type: "InnerProduct"
  bottom: "ip1_p"
  top: "ip2_p"
  param {
    name: "ip2_w"
    lr_mult: 1
  }
  param {
    name: "ip2_b"
    lr_mult: 2
  }
  inner_product_param {
    num_output: 10
    weight_filler {
      type: "xavier"
    }
    bias_filler {
      type: "constant"
    }
  }
}
layer {
  name: "feat_p"
  type: "InnerProduct"
  bottom: "ip2_p"
  top: "feat_p"
  param {
    name: "feat_w"
    lr_mult: 1
  }
  param {
    name: "feat_b"
    lr_mult: 2
  }
  inner_product_param {
    num_output: 10
    weight_filler {
      type: "xavier"
    }
    bias_filler {
      type: "constant"
    }
  }
}
layer {
  name: "loss"
  type: "ContrastiveLoss"
  bottom: "feat"
  bottom: "feat_p"
  bottom: "sim"
  top: "loss"
  contrastive_loss_param {
    margin: 1
  }
}
I1021 11:25:41.760571 13047 layer_factory.hpp:77] Creating layer pair_data
I1021 11:25:41.760671 13047 db_lmdb.cpp:35] Opened lmdb ./siamese_test_lmdb
I1021 11:25:41.760686 13047 net.cpp:84] Creating Layer pair_data
I1021 11:25:41.760694 13047 net.cpp:380] pair_data -> pair_data
I1021 11:25:41.760707 13047 net.cpp:380] pair_data -> sim
[libprotobuf ERROR google/protobuf/io/coded_stream.cc:180] A protocol message was rejected because it was too big (more than 67108864 bytes).  To increase the limit (or to disable these warnings), see CodedInputStream::SetTotalBytesLimit() in google/protobuf/io/coded_stream.h.
[libprotobuf ERROR google/protobuf/io/coded_stream.cc:180] A protocol message was rejected because it was too big (more than 67108864 bytes).  To increase the limit (or to disable these warnings), see CodedInputStream::SetTotalBytesLimit() in google/protobuf/io/coded_stream.h.
I1021 11:25:42.061792 13047 data_layer.cpp:45] output data size: 2,500,227,227
[libprotobuf ERROR google/protobuf/io/coded_stream.cc:180] A protocol message was rejected because it was too big (more than 67108864 bytes).  To increase the limit (or to disable these warnings), see CodedInputStream::SetTotalBytesLimit() in google/protobuf/io/coded_stream.h.
I1021 11:25:42.683346 13047 net.cpp:122] Setting up pair_data
I1021 11:25:42.683396 13047 net.cpp:129] Top shape: 2 500 227 227 (51529000)
I1021 11:25:42.683405 13047 net.cpp:129] Top shape: 2 (2)
I1021 11:25:42.683410 13047 net.cpp:137] Memory required for data: 206116008
I1021 11:25:42.683421 13047 layer_factory.hpp:77] Creating layer slice_pair
I1021 11:25:42.683445 13047 net.cpp:84] Creating Layer slice_pair
I1021 11:25:42.683455 13047 net.cpp:406] slice_pair <- pair_data
I1021 11:25:42.683467 13047 net.cpp:380] slice_pair -> data
I1021 11:25:42.683486 13047 net.cpp:380] slice_pair -> data_p
I1021 11:25:42.683558 13047 net.cpp:122] Setting up slice_pair
I1021 11:25:42.683567 13047 net.cpp:129] Top shape: 2 250 227 227 (25764500)
I1021 11:25:42.683573 13047 net.cpp:129] Top shape: 2 250 227 227 (25764500)
I1021 11:25:42.683578 13047 net.cpp:137] Memory required for data: 412232008
I1021 11:25:42.683583 13047 layer_factory.hpp:77] Creating layer conv1
I1021 11:25:42.683605 13047 net.cpp:84] Creating Layer conv1
I1021 11:25:42.683610 13047 net.cpp:406] conv1 <- data
I1021 11:25:42.683619 13047 net.cpp:380] conv1 -> conv1
I1021 11:25:42.688063 13047 net.cpp:122] Setting up conv1
I1021 11:25:42.688155 13047 net.cpp:129] Top shape: 2 20 223 223 (1989160)
I1021 11:25:42.688163 13047 net.cpp:137] Memory required for data: 420188648
I1021 11:25:42.688194 13047 layer_factory.hpp:77] Creating layer pool1
I1021 11:25:42.688220 13047 net.cpp:84] Creating Layer pool1
I1021 11:25:42.688227 13047 net.cpp:406] pool1 <- conv1
I1021 11:25:42.688239 13047 net.cpp:380] pool1 -> pool1
I1021 11:25:42.688346 13047 net.cpp:122] Setting up pool1
I1021 11:25:42.688356 13047 net.cpp:129] Top shape: 2 20 112 112 (501760)
I1021 11:25:42.688361 13047 net.cpp:137] Memory required for data: 422195688
I1021 11:25:42.688391 13047 layer_factory.hpp:77] Creating layer conv2
I1021 11:25:42.688415 13047 net.cpp:84] Creating Layer conv2
I1021 11:25:42.688421 13047 net.cpp:406] conv2 <- pool1
I1021 11:25:42.688431 13047 net.cpp:380] conv2 -> conv2
I1021 11:25:42.691977 13047 net.cpp:122] Setting up conv2
I1021 11:25:42.692081 13047 net.cpp:129] Top shape: 2 50 108 108 (1166400)
I1021 11:25:42.692088 13047 net.cpp:137] Memory required for data: 426861288
I1021 11:25:42.692121 13047 layer_factory.hpp:77] Creating layer pool2
I1021 11:25:42.692150 13047 net.cpp:84] Creating Layer pool2
I1021 11:25:42.692159 13047 net.cpp:406] pool2 <- conv2
I1021 11:25:42.692173 13047 net.cpp:380] pool2 -> pool2
I1021 11:25:42.692262 13047 net.cpp:122] Setting up pool2
I1021 11:25:42.692275 13047 net.cpp:129] Top shape: 2 50 54 54 (291600)
I1021 11:25:42.692279 13047 net.cpp:137] Memory required for data: 428027688
I1021 11:25:42.692283 13047 layer_factory.hpp:77] Creating layer ip1
I1021 11:25:42.692297 13047 net.cpp:84] Creating Layer ip1
I1021 11:25:42.692301 13047 net.cpp:406] ip1 <- pool2
I1021 11:25:42.692309 13047 net.cpp:380] ip1 -> ip1
[libprotobuf ERROR google/protobuf/io/coded_stream.cc:180] A protocol message was rejected because it was too big (more than 67108864 bytes).  To increase the limit (or to disable these warnings), see CodedInputStream::SetTotalBytesLimit() in google/protobuf/io/coded_stream.h.
[libprotobuf ERROR google/protobuf/io/coded_stream.cc:180] A protocol message was rejected because it was too big (more than 67108864 bytes).  To increase the limit (or to disable these warnings), see CodedInputStream::SetTotalBytesLimit() in google/protobuf/io/coded_stream.h.
[libprotobuf ERROR google/protobuf/io/coded_stream.cc:180] A protocol message was rejected because it was too big (more than 67108864 bytes).  To increase the limit (or to disable these warnings), see CodedInputStream::SetTotalBytesLimit() in google/protobuf/io/coded_stream.h.
I1021 11:25:43.407855 13047 net.cpp:122] Setting up ip1
I1021 11:25:43.407968 13047 net.cpp:129] Top shape: 2 500 (1000)
I1021 11:25:43.407979 13047 net.cpp:137] Memory required for data: 428031688
I1021 11:25:43.408020 13047 layer_factory.hpp:77] Creating layer relu1
I1021 11:25:43.408049 13047 net.cpp:84] Creating Layer relu1
I1021 11:25:43.408061 13047 net.cpp:406] relu1 <- ip1
I1021 11:25:43.408087 13047 net.cpp:367] relu1 -> ip1 (in-place)
I1021 11:25:43.408615 13047 net.cpp:122] Setting up relu1
I1021 11:25:43.408658 13047 net.cpp:129] Top shape: 2 500 (1000)
I1021 11:25:43.408668 13047 net.cpp:137] Memory required for data: 428035688
I1021 11:25:43.408680 13047 layer_factory.hpp:77] Creating layer ip2
I1021 11:25:43.408716 13047 net.cpp:84] Creating Layer ip2
I1021 11:25:43.408722 13047 net.cpp:406] ip2 <- ip1
I1021 11:25:43.408736 13047 net.cpp:380] ip2 -> ip2
I1021 11:25:43.409068 13047 net.cpp:122] Setting up ip2
I1021 11:25:43.409099 13047 net.cpp:129] Top shape: 2 10 (20)
I1021 11:25:43.409107 13047 net.cpp:137] Memory required for data: 428035768
I1021 11:25:43.409126 13047 layer_factory.hpp:77] Creating layer feat
I1021 11:25:43.409144 13047 net.cpp:84] Creating Layer feat
I1021 11:25:43.409152 13047 net.cpp:406] feat <- ip2
I1021 11:25:43.409165 13047 net.cpp:380] feat -> feat
I1021 11:25:43.409365 13047 net.cpp:122] Setting up feat
I1021 11:25:43.409381 13047 net.cpp:129] Top shape: 2 10 (20)
I1021 11:25:43.409390 13047 net.cpp:137] Memory required for data: 428035848
I1021 11:25:43.409412 13047 layer_factory.hpp:77] Creating layer conv1_p
I1021 11:25:43.409503 13047 net.cpp:84] Creating Layer conv1_p
I1021 11:25:43.409519 13047 net.cpp:406] conv1_p <- data_p
I1021 11:25:43.409541 13047 net.cpp:380] conv1_p -> conv1_p
I1021 11:25:43.414301 13047 net.cpp:122] Setting up conv1_p
I1021 11:25:43.414409 13047 net.cpp:129] Top shape: 2 20 223 223 (1989160)
I1021 11:25:43.414422 13047 net.cpp:137] Memory required for data: 435992488
I1021 11:25:43.414443 13047 net.cpp:465] Sharing parameters 'conv1_w' owned by layer 'conv1', param index 0
I1021 11:25:43.414460 13047 net.cpp:465] Sharing parameters 'conv1_b' owned by layer 'conv1', param index 1
I1021 11:25:43.414469 13047 layer_factory.hpp:77] Creating layer pool1_p
I1021 11:25:43.414572 13047 net.cpp:84] Creating Layer pool1_p
I1021 11:25:43.414578 13047 net.cpp:406] pool1_p <- conv1_p
I1021 11:25:43.414592 13047 net.cpp:380] pool1_p -> pool1_p
I1021 11:25:43.414721 13047 net.cpp:122] Setting up pool1_p
I1021 11:25:43.414830 13047 net.cpp:129] Top shape: 2 20 112 112 (501760)
I1021 11:25:43.414852 13047 net.cpp:137] Memory required for data: 437999528
I1021 11:25:43.414870 13047 layer_factory.hpp:77] Creating layer conv2_p
I1021 11:25:43.414902 13047 net.cpp:84] Creating Layer conv2_p
I1021 11:25:43.414925 13047 net.cpp:406] conv2_p <- pool1_p
I1021 11:25:43.414948 13047 net.cpp:380] conv2_p -> conv2_p
I1021 11:25:43.418835 13047 net.cpp:122] Setting up conv2_p
I1021 11:25:43.419111 13047 net.cpp:129] Top shape: 2 50 108 108 (1166400)
I1021 11:25:43.419133 13047 net.cpp:137] Memory required for data: 442665128
I1021 11:25:43.419160 13047 net.cpp:465] Sharing parameters 'conv2_w' owned by layer 'conv2', param index 0
I1021 11:25:43.419189 13047 net.cpp:465] Sharing parameters 'conv2_b' owned by layer 'conv2', param index 1
I1021 11:25:43.419209 13047 layer_factory.hpp:77] Creating layer pool2_p
I1021 11:25:43.419250 13047 net.cpp:84] Creating Layer pool2_p
I1021 11:25:43.419281 13047 net.cpp:406] pool2_p <- conv2_p
I1021 11:25:43.419308 13047 net.cpp:380] pool2_p -> pool2_p
I1021 11:25:43.419476 13047 net.cpp:122] Setting up pool2_p
I1021 11:25:43.419524 13047 net.cpp:129] Top shape: 2 50 54 54 (291600)
I1021 11:25:43.419543 13047 net.cpp:137] Memory required for data: 443831528
I1021 11:25:43.419559 13047 layer_factory.hpp:77] Creating layer ip1_p
I1021 11:25:43.419587 13047 net.cpp:84] Creating Layer ip1_p
I1021 11:25:43.419610 13047 net.cpp:406] ip1_p <- pool2_p
I1021 11:25:43.419631 13047 net.cpp:380] ip1_p -> ip1_p
[libprotobuf ERROR google/protobuf/io/coded_stream.cc:180] A protocol message was rejected because it was too big (more than 67108864 bytes).  To increase the limit (or to disable these warnings), see CodedInputStream::SetTotalBytesLimit() in google/protobuf/io/coded_stream.h.
…
