…
solver_mode: GPU
device_id: 0
net: "./3d_lenet_siamese.prototxt"
train_state {
  level: 0
  stage: ""
}
I1109 18:09:06.750674 26228 solver.cpp:87] Creating training net from net file: ./3d_lenet_siamese.prototxt
I1109 18:09:06.752995 26228 net.cpp:51] Initializing net from parameters: 
name: "C3D-UCF101Net"
state {
  phase: TRAIN
  level: 0
  stage: ""
}
layer {
  name: "pair_data"
  type: "HDF5Data"
  top: "pair_data"
  top: "sim"
  include {
    phase: TRAIN
  }
  hdf5_data_param {
    source: "./train.txt"
    batch_size: 3
    shuffle: true
  }
}
layer {
  name: "slice_pair"
  type: "Slice"
  bottom: "pair_data"
  top: "data"
  top: "data_p"
  slice_param {
    slice_dim: 2
    slice_point: 40
  }
}
layer {
  name: "conv1a"
  type: "Convolution3D"
  bottom: "data"
  top: "conv1a"
  param {
    name: "conv1a_w"
    lr_mult: 1
    decay_mult: 1
  }
  param {
    name: "conv1a_b"
    lr_mult: 2
    decay_mult: 0
  }
  convolution3d_param {
    num_output: 64
    pad: 1
    kernel_size: 3
    kernel_depth: 3
    stride: 1
    temporal_stride: 1
    weight_filler {
      type: "gaussian"
      std: 0.01
    }
    bias_filler {
      type: "constant"
      value: 0
    }
    temporal_pad: 1
  }
}
layer {
  name: "relu1a"
  type: "ReLU"
  bottom: "conv1a"
  top: "conv1a"
}
layer {
  name: "pool1"
  type: "Pooling3D"
  bottom: "conv1a"
  top: "pool1"
  pooling3d_param {
    pool: MAX
    kernel_size: 2
    stride: 2
    kernel_depth: 1
    temporal_stride: 1
  }
}
layer {
  name: "conv2a"
  type: "Convolution3D"
  bottom: "pool1"
  top: "conv2a"
  param {
    name: "conv2a_w"
    lr_mult: 1
    decay_mult: 1
  }
  param {
    name: "conv2a_b"
    lr_mult: 2
    decay_mult: 0
  }
  convolution3d_param {
    num_output: 128
    pad: 1
    kernel_size: 3
    kernel_depth: 3
    stride: 1
    temporal_stride: 1
    weight_filler {
      type: "gaussian"
      std: 0.01
    }
    bias_filler {
      type: "constant"
      value: 1
    }
    temporal_pad: 1
  }
}
layer {
  name: "relu2a"
  type: "ReLU"
  bottom: "conv2a"
  top: "conv2a"
}
layer {
  name: "pool2"
  type: "Pooling3D"
  bottom: "conv2a"
  top: "pool2"
  pooling3d_param {
    pool: MAX
    kernel_size: 2
    stride: 2
    kernel_depth: 2
    temporal_stride: 2
  }
}
layer {
  name: "conv3a"
  type: "Convolution3D"
  bottom: "pool2"
  top: "conv3a"
  param {
    name: "conv3a_w"
    lr_mult: 1
    decay_mult: 1
  }
  param {
    name: "conv3a_b"
    lr_mult: 2
    decay_mult: 0
  }
  convolution3d_param {
    num_output: 256
    pad: 1
    kernel_size: 3
    kernel_depth: 3
    stride: 1
    temporal_stride: 1
    weight_filler {
      type: "gaussian"
      std: 0.01
    }
    bias_filler {
      type: "constant"
      value: 1
    }
    temporal_pad: 1
  }
}
layer {
  name: "relu3a"
  type: "ReLU"
  bottom: "conv3a"
  top: "conv3a"
}
layer {
  name: "pool3"
  type: "Pooling3D"
  bottom: "conv3a"
  top: "pool3"
  pooling3d_param {
    pool: MAX
    kernel_size: 2
    stride: 2
    kernel_depth: 2
    temporal_stride: 2
  }
}
layer {
  name: "conv4a"
  type: "Convolution3D"
  bottom: "pool3"
  top: "conv4a"
  param {
    name: "conv4a_w"
    lr_mult: 1
    decay_mult: 1
  }
  param {
    name: "conv4a_b"
    lr_mult: 2
    decay_mult: 0
  }
  convolution3d_param {
    num_output: 256
    pad: 1
    kernel_size: 3
    kernel_depth: 3
    stride: 1
    temporal_stride: 1
    weight_filler {
      type: "gaussian"
      std: 0.01
    }
    bias_filler {
      type: "constant"
      value: 1
    }
    temporal_pad: 1
  }
}
layer {
  name: "relu4a"
  type: "ReLU"
  bottom: "conv4a"
  top: "conv4a"
}
layer {
  name: "pool4"
  type: "Pooling3D"
  bottom: "conv4a"
  top: "pool4"
  pooling3d_param {
    pool: MAX
    kernel_size: 2
    stride: 2
    kernel_depth: 2
    temporal_stride: 2
  }
}
layer {
  name: "conv5a"
  type: "Convolution3D"
  bottom: "pool4"
  top: "conv5a"
  param {
    name: "conv5a_w"
    lr_mult: 1
    decay_mult: 1
  }
  param {
    name: "conv5a_b"
    lr_mult: 2
    decay_mult: 0
  }
  convolution3d_param {
    num_output: 256
    pad: 1
    kernel_size: 3
    kernel_depth: 3
    stride: 1
    temporal_stride: 1
    weight_filler {
      type: "gaussian"
      std: 0.01
    }
    bias_filler {
      type: "constant"
      value: 1
    }
    temporal_pad: 1
  }
}
layer {
  name: "relu5a"
  type: "ReLU"
  bottom: "conv5a"
  top: "conv5a"
}
layer {
  name: "pool5"
  type: "Pooling3D"
  bottom: "conv5a"
  top: "pool5"
  pooling3d_param {
    pool: MAX
    kernel_size: 2
    stride: 2
    kernel_depth: 2
    temporal_stride: 2
  }
}
layer {
  name: "fc6"
  type: "InnerProduct"
  bottom: "pool5"
  top: "fc6"
  param {
    name: "fc6_w"
    lr_mult: 1
    decay_mult: 1
  }
  param {
    name: "fc6_b"
    lr_mult: 2
    decay_mult: 0
  }
  inner_product_param {
    num_output: 2048
    weight_filler {
      type: "gaussian"
      std: 0.005
    }
    bias_filler {
      type: "constant"
      value: 1
    }
  }
}
layer {
  name: "relu6"
  type: "ReLU"
  bottom: "fc6"
  top: "fc6"
}
layer {
  name: "drop6"
  type: "Dropout"
  bottom: "fc6"
  top: "fc6"
  dropout_param {
    dropout_ratio: 0.5
  }
}
layer {
  name: "fc7"
  type: "InnerProduct"
  bottom: "fc6"
  top: "fc7"
  param {
    name: "fc7_w"
    lr_mult: 1
    decay_mult: 1
  }
  param {
    name: "fc7_b"
    lr_mult: 2
    decay_mult: 0
  }
  inner_product_param {
    num_output: 2048
    weight_filler {
      type: "gaussian"
      std: 0.005
    }
    bias_filler {
      type: "constant"
      value: 1
    }
  }
}
layer {
  name: "relu7"
  type: "ReLU"
  bottom: "fc7"
  top: "fc7"
}
layer {
  name: "drop7"
  type: "Dropout"
  bottom: "fc7"
  top: "fc7"
  dropout_param {
    dropout_ratio: 0.5
  }
}
layer {
  name: "fc8"
  type: "InnerProduct"
  bottom: "fc7"
  top: "fc8"
  param {
    name: "fc8_w"
    lr_mult: 1
    decay_mult: 1
  }
  param {
    name: "fc8_b"
    lr_mult: 2
    decay_mult: 0
  }
  inner_product_param {
    num_output: 101
    weight_filler {
      type: "gaussian"
      std: 0.01
    }
    bias_filler {
      type: "constant"
      value: 0
    }
  }
}
layer {
  name: "conv1a_p"
  type: "Convolution3D"
  bottom: "data_p"
  top: "conv1a_p"
  param {
    name: "conv1a_w"
    lr_mult: 1
    decay_mult: 1
  }
  param {
    name: "conv1a_b"
    lr_mult: 2
    decay_mult: 0
  }
  convolution3d_param {
    num_output: 64
    pad: 1
    kernel_size: 3
    kernel_depth: 3
    stride: 1
    temporal_stride: 1
    weight_filler {
      type: "gaussian"
      std: 0.01
    }
    bias_filler {
      type: "constant"
      value: 0
    }
    temporal_pad: 1
  }
}
layer {
  name: "relu1a_p"
  type: "ReLU"
  bottom: "conv1a_p"
  top: "conv1a_p"
}
layer {
  name: "pool1_p"
  type: "Pooling3D"
  bottom: "conv1a_p"
  top: "pool1_p"
  pooling3d_param {
    pool: MAX
    kernel_size: 2
    stride: 2
    kernel_depth: 1
    temporal_stride: 1
  }
}
layer {
  name: "conv2a_p"
  type: "Convolution3D"
  bottom: "pool1_p"
  top: "conv2a_p"
  param {
    name: "conv2a_w"
    lr_mult: 1
    decay_mult: 1
  }
  param {
    name: "conv2a_b"
    lr_mult: 2
    decay_mult: 0
  }
  convolution3d_param {
    num_output: 128
    pad: 1
    kernel_size: 3
    kernel_depth: 3
    stride: 1
    temporal_stride: 1
    weight_filler {
      type: "gaussian"
      std: 0.01
    }
    bias_filler {
      type: "constant"
      value: 1
    }
    temporal_pad: 1
  }
}
layer {
  name: "relu2a_p"
  type: "ReLU"
  bottom: "conv2a_p"
  top: "conv2a_p"
}
layer {
  name: "pool2_p"
  type: "Pooling3D"
  bottom: "conv2a_p"
  top: "pool2_p"
  pooling3d_param {
    pool: MAX
    kernel_size: 2
    stride: 2
    kernel_depth: 2
    temporal_stride: 2
  }
}
layer {
  name: "conv3a_p"
  type: "Convolution3D"
  bottom: "pool2_p"
  top: "conv3a_p"
  param {
    name: "conv3a_w"
    lr_mult: 1
    decay_mult: 1
  }
  param {
    name: "conv3a_b"
    lr_mult: 2
    decay_mult: 0
  }
  convolution3d_param {
    num_output: 256
    pad: 1
    kernel_size: 3
    kernel_depth: 3
    stride: 1
    temporal_stride: 1
    weight_filler {
      type: "gaussian"
      std: 0.01
    }
    bias_filler {
      type: "constant"
      value: 1
    }
    temporal_pad: 1
  }
}
layer {
  name: "relu3a_p"
  type: "ReLU"
  bottom: "conv3a_p"
  top: "conv3a_p"
}
layer {
  name: "pool3_p"
  type: "Pooling3D"
  bottom: "conv3a_p"
  top: "pool3_p"
  pooling3d_param {
    pool: MAX
    kernel_size: 2
    stride: 2
    kernel_depth: 2
    temporal_stride: 2
  }
}
layer {
  name: "conv4a_p"
  type: "Convolution3D"
  bottom: "pool3_p"
  top: "conv4a_p"
  param {
    name: "conv4a_w"
    lr_mult: 1
    decay_mult: 1
  }
  param {
    name: "conv4a_b"
    lr_mult: 2
    decay_mult: 0
  }
  convolution3d_param {
    num_output: 256
    pad: 1
    kernel_size: 3
    kernel_depth: 3
    stride: 1
    temporal_stride: 1
    weight_filler {
      type: "gaussian"
      std: 0.01
    }
    bias_filler {
      type: "constant"
      value: 1
    }
    temporal_pad: 1
  }
}
layer {
  name: "relu4a_p"
  type: "ReLU"
  bottom: "conv4a_p"
  top: "conv4a_p"
}
layer {
  name: "pool4_p"
  type: "Pooling3D"
  bottom: "conv4a_p"
  top: "pool4_p"
  pooling3d_param {
    pool: MAX
    kernel_size: 2
    stride: 2
    kernel_depth: 2
    temporal_stride: 2
  }
}
layer {
  name: "conv5a_p"
  type: "Convolution3D"
  bottom: "pool4_p"
  top: "conv5a_p"
  param {
    name: "conv5a_w"
    lr_mult: 1
    decay_mult: 1
  }
  param {
    name: "conv5a_b"
    lr_mult: 2
    decay_mult: 0
  }
  convolution3d_param {
    num_output: 256
    pad: 1
    kernel_size: 3
    kernel_depth: 3
    stride: 1
    temporal_stride: 1
    weight_filler {
      type: "gaussian"
      std: 0.01
    }
    bias_filler {
      type: "constant"
      value: 1
    }
    temporal_pad: 1
  }
}
layer {
  name: "relu5a_p"
  type: "ReLU"
  bottom: "conv5a_p"
  top: "conv5a_p"
}
layer {
  name: "pool5_p"
  type: "Pooling3D"
  bottom: "conv5a_p"
  top: "pool5_p"
  pooling3d_param {
    pool: MAX
    kernel_size: 2
    stride: 2
    kernel_depth: 2
    temporal_stride: 2
  }
}
layer {
  name: "fc6_p"
  type: "InnerProduct"
  bottom: "pool5_p"
  top: "fc6_p"
  param {
    name: "fc6_w"
    lr_mult: 1
    decay_mult: 1
  }
  param {
    name: "fc6_b"
    lr_mult: 2
    decay_mult: 0
  }
  inner_product_param {
    num_output: 2048
    weight_filler {
      type: "gaussian"
      std: 0.005
    }
    bias_filler {
      type: "constant"
      value: 1
    }
  }
}
layer {
  name: "relu6_p"
  type: "ReLU"
  bottom: "fc6_p"
  top: "fc6_p"
}
layer {
  name: "drop6_p"
  type: "Dropout"
  bottom: "fc6_p"
  top: "fc6_p"
  dropout_param {
    dropout_ratio: 0.5
  }
}
layer {
  name: "fc7_p"
  type: "InnerProduct"
  bottom: "fc6_p"
  top: "fc7_p"
  param {
    name: "fc7_w"
    lr_mult: 1
    decay_mult: 1
  }
  param {
    name: "fc7_b"
    lr_mult: 2
    decay_mult: 0
  }
  inner_product_param {
    num_output: 2048
    weight_filler {
      type: "gaussian"
      std: 0.005
    }
    bias_filler {
      type: "constant"
      value: 1
    }
  }
}
layer {
  name: "relu7_p"
  type: "ReLU"
  bottom: "fc7_p"
  top: "fc7_p"
}
layer {
  name: "drop7_p"
  type: "Dropout"
  bottom: "fc7_p"
  top: "fc7_p"
  dropout_param {
    dropout_ratio: 0.5
  }
}
layer {
  name: "fc8_p"
  type: "InnerProduct"
  bottom: "fc7_p"
  top: "fc8_p"
  param {
    name: "fc8_w"
    lr_mult: 1
    decay_mult: 1
  }
  param {
    name: "fc8_b"
    lr_mult: 2
    decay_mult: 0
  }
  inner_product_param {
    num_output: 101
    weight_filler {
      type: "gaussian"
      std: 0.01
    }
    bias_filler {
      type: "constant"
      value: 0
    }
  }
}
layer {
  name: "loss"
  type: "ContrastiveLoss"
  bottom: "fc8"
  bottom: "fc8_p"
  bottom: "sim"
  top: "loss"
  contrastive_loss_param {
    margin: 1
  }
}
I1109 18:09:06.754060 26228 layer_factory.hpp:77] Creating layer pair_data
I1109 18:09:06.754273 26228 net.cpp:84] Creating Layer pair_data
I1109 18:09:06.754287 26228 net.cpp:380] pair_data -> pair_data
I1109 18:09:06.754330 26228 net.cpp:380] pair_data -> sim
I1109 18:09:06.754349 26228 hdf5_data_layer.cpp:79] Loading list of HDF5 filenames from: ./train.txt
I1109 18:09:06.754485 26228 hdf5_data_layer.cpp:93] Number of HDF5 files: 166
I1109 18:09:06.784088 26228 hdf5.cpp:32] Datatype class: H5T_FLOAT
I1109 18:09:06.798125 26228 net.cpp:122] Setting up pair_data
I1109 18:09:06.798168 26228 net.cpp:129] Top shape: 3 1 80 120 120 (3456000)
I1109 18:09:06.798177 26228 net.cpp:129] Top shape: 3 (3)
I1109 18:09:06.798182 26228 net.cpp:137] Memory required for data: 13824012
I1109 18:09:06.798194 26228 layer_factory.hpp:77] Creating layer slice_pair
I1109 18:09:06.798213 26228 net.cpp:84] Creating Layer slice_pair
I1109 18:09:06.798224 26228 net.cpp:406] slice_pair <- pair_data
I1109 18:09:06.798254 26228 net.cpp:380] slice_pair -> data
I1109 18:09:06.798272 26228 net.cpp:380] slice_pair -> data_p
I1109 18:09:06.798317 26228 net.cpp:122] Setting up slice_pair
I1109 18:09:06.798327 26228 net.cpp:129] Top shape: 3 1 40 120 120 (1728000)
I1109 18:09:06.798336 26228 net.cpp:129] Top shape: 3 1 40 120 120 (1728000)
I1109 18:09:06.798339 26228 net.cpp:137] Memory required for data: 27648012
I1109 18:09:06.798344 26228 layer_factory.hpp:77] Creating layer conv1a
I1109 18:09:06.798357 26228 net.cpp:84] Creating Layer conv1a
I1109 18:09:06.798364 26228 net.cpp:406] conv1a <- data
I1109 18:09:06.798372 26228 net.cpp:380] conv1a -> conv1a
I1109 18:09:06.802484 26228 net.cpp:122] Setting up conv1a
I1109 18:09:06.802534 26228 net.cpp:129] Top shape: 3 64 40 120 120 (110592000)
I1109 18:09:06.802541 26228 net.cpp:137] Memory required for data: 470016012
I1109 18:09:06.802570 26228 layer_factory.hpp:77] Creating layer relu1a
I1109 18:09:06.802584 26228 net.cpp:84] Creating Layer relu1a
I1109 18:09:06.802592 26228 net.cpp:406] relu1a <- conv1a
I1109 18:09:06.802599 26228 net.cpp:367] relu1a -> conv1a (in-place)
I1109 18:09:06.802613 26228 net.cpp:122] Setting up relu1a
I1109 18:09:06.802620 26228 net.cpp:129] Top shape: 3 64 40 120 120 (110592000)
I1109 18:09:06.802624 26228 net.cpp:137] Memory required for data: 912384012
I1109 18:09:06.802628 26228 layer_factory.hpp:77] Creating layer pool1
I1109 18:09:06.802637 26228 net.cpp:84] Creating Layer pool1
I1109 18:09:06.802642 26228 net.cpp:406] pool1 <- conv1a
I1109 18:09:06.802649 26228 net.cpp:380] pool1 -> pool1
I1109 18:09:06.802721 26228 net.cpp:122] Setting up pool1
I1109 18:09:06.802731 26228 net.cpp:129] Top shape: 3 64 40 60 60 (27648000)
I1109 18:09:06.802734 26228 net.cpp:137] Memory required for data: 1022976012
I1109 18:09:06.802738 26228 layer_factory.hpp:77] Creating layer conv2a
I1109 18:09:06.802748 26228 net.cpp:84] Creating Layer conv2a
I1109 18:09:06.802753 26228 net.cpp:406] conv2a <- pool1
I1109 18:09:06.802760 26228 net.cpp:380] conv2a -> conv2a
I1109 18:09:06.806962 26228 net.cpp:122] Setting up conv2a
I1109 18:09:06.806998 26228 net.cpp:129] Top shape: 3 128 40 60 60 (55296000)
I1109 18:09:06.807003 26228 net.cpp:137] Memory required for data: 1244160012
I1109 18:09:06.807024 26228 layer_factory.hpp:77] Creating layer relu2a
I1109 18:09:06.807035 26228 net.cpp:84] Creating Layer relu2a
I1109 18:09:06.807041 26228 net.cpp:406] relu2a <- conv2a
I1109 18:09:06.807050 26228 net.cpp:367] relu2a -> conv2a (in-place)
I1109 18:09:06.807062 26228 net.cpp:122] Setting up relu2a
I1109 18:09:06.807070 26228 net.cpp:129] Top shape: 3 128 40 60 60 (55296000)
I1109 18:09:06.807073 26228 net.cpp:137] Memory required for data: 1465344012
I1109 18:09:06.807076 26228 layer_factory.hpp:77] Creating layer pool2
I1109 18:09:06.807085 26228 net.cpp:84] Creating Layer pool2
I1109 18:09:06.807090 26228 net.cpp:406] pool2 <- conv2a
I1109 18:09:06.807096 26228 net.cpp:380] pool2 -> pool2
I1109 18:09:06.807121 26228 net.cpp:122] Setting up pool2
I1109 18:09:06.807149 26228 net.cpp:129] Top shape: 3 128 20 30 30 (6912000)
I1109 18:09:06.807154 26228 net.cpp:137] Memory required for data: 1492992012
I1109 18:09:06.807157 26228 layer_factory.hpp:77] Creating layer conv3a
I1109 18:09:06.807168 26228 net.cpp:84] Creating Layer conv3a
I1109 18:09:06.807202 26228 net.cpp:406] conv3a <- pool2
I1109 18:09:06.807210 26228 net.cpp:380] conv3a -> conv3a
I1109 18:09:06.821012 26228 net.cpp:122] Setting up conv3a
I1109 18:09:06.821064 26228 net.cpp:129] Top shape: 3 256 20 30 30 (13824000)
I1109 18:09:06.821070 26228 net.cpp:137] Memory required for data: 1548288012
I1109 18:09:06.821096 26228 layer_factory.hpp:77] Creating layer relu3a
I1109 18:09:06.821110 26228 net.cpp:84] Creating Layer relu3a
I1109 18:09:06.821116 26228 net.cpp:406] relu3a <- conv3a
I1109 18:09:06.821126 26228 net.cpp:367] relu3a -> conv3a (in-place)
I1109 18:09:06.821139 26228 net.cpp:122] Setting up relu3a
I1109 18:09:06.821147 26228 net.cpp:129] Top shape: 3 256 20 30 30 (13824000)
I1109 18:09:06.821151 26228 net.cpp:137] Memory required for data: 1603584012
I1109 18:09:06.821157 26228 layer_factory.hpp:77] Creating layer pool3
I1109 18:09:06.821166 26228 net.cpp:84] Creating Layer pool3
I1109 18:09:06.821171 26228 net.cpp:406] pool3 <- conv3a
I1109 18:09:06.821178 26228 net.cpp:380] pool3 -> pool3
I1109 18:09:06.821218 26228 net.cpp:122] Setting up pool3
I1109 18:09:06.821249 26228 net.cpp:129] Top shape: 3 256 10 15 15 (1728000)
I1109 18:09:06.821254 26228 net.cpp:137] Memory required for data: 1610496012
I1109 18:09:06.821259 26228 layer_factory.hpp:77] Creating layer conv4a
I1109 18:09:06.821270 26228 net.cpp:84] Creating Layer conv4a
I1109 18:09:06.821274 26228 net.cpp:406] conv4a <- pool3
I1109 18:09:06.821283 26228 net.cpp:380] conv4a -> conv4a
I1109 18:09:06.845576 26228 net.cpp:122] Setting up conv4a
I1109 18:09:06.845613 26228 net.cpp:129] Top shape: 3 256 10 15 15 (1728000)
I1109 18:09:06.845618 26228 net.cpp:137] Memory required for data: 1617408012
I1109 18:09:06.845634 26228 layer_factory.hpp:77] Creating layer relu4a
I1109 18:09:06.845648 26228 net.cpp:84] Creating Layer relu4a
I1109 18:09:06.845654 26228 net.cpp:406] relu4a <- conv4a
I1109 18:09:06.845664 26228 net.cpp:367] relu4a -> conv4a (in-place)
I1109 18:09:06.845674 26228 net.cpp:122] Setting up relu4a
I1109 18:09:06.845680 26228 net.cpp:129] Top shape: 3 256 10 15 15 (1728000)
I1109 18:09:06.845685 26228 net.cpp:137] Memory required for data: 1624320012
I1109 18:09:06.845688 26228 layer_factory.hpp:77] Creating layer pool4
I1109 18:09:06.845696 26228 net.cpp:84] Creating Layer pool4
I1109 18:09:06.845701 26228 net.cpp:406] pool4 <- conv4a
I1109 18:09:06.845707 26228 net.cpp:380] pool4 -> pool4
I1109 18:09:06.845726 26228 net.cpp:122] Setting up pool4
I1109 18:09:06.845778 26228 net.cpp:129] Top shape: 3 256 5 8 8 (245760)
I1109 18:09:06.845782 26228 net.cpp:137] Memory required for data: 1625303052
I1109 18:09:06.845787 26228 layer_factory.hpp:77] Creating layer conv5a
I1109 18:09:06.845798 26228 net.cpp:84] Creating Layer conv5a
I1109 18:09:06.845801 26228 net.cpp:406] conv5a <- pool4
I1109 18:09:06.845808 26228 net.cpp:380] conv5a -> conv5a
I1109 18:09:06.871039 26228 net.cpp:122] Setting up conv5a
I1109 18:09:06.871089 26228 net.cpp:129] Top shape: 3 256 5 8 8 (245760)
I1109 18:09:06.871094 26228 net.cpp:137] Memory required for data: 1626286092
I1109 18:09:06.871121 26228 layer_factory.hpp:77] Creating layer relu5a
I1109 18:09:06.871135 26228 net.cpp:84] Creating Layer relu5a
I1109 18:09:06.871141 26228 net.cpp:406] relu5a <- conv5a
I1109 18:09:06.871151 26228 net.cpp:367] relu5a -> conv5a (in-place)
I1109 18:09:06.871165 26228 net.cpp:122] Setting up relu5a
I1109 18:09:06.871171 26228 net.cpp:129] Top shape: 3 256 5 8 8 (245760)
I1109 18:09:06.871176 26228 net.cpp:137] Memory required for data: 1627269132
I1109 18:09:06.871181 26228 layer_factory.hpp:77] Creating layer pool5
I1109 18:09:06.871192 26228 net.cpp:84] Creating Layer pool5
I1109 18:09:06.871227 26228 net.cpp:406] pool5 <- conv5a
I1109 18:09:06.871233 26228 net.cpp:380] pool5 -> pool5
I1109 18:09:06.871273 26228 net.cpp:122] Setting up pool5
I1109 18:09:06.871281 26228 net.cpp:129] Top shape: 3 256 3 4 4 (36864)
I1109 18:09:06.871285 26228 net.cpp:137] Memory required for data: 1627416588
I1109 18:09:06.871321 26228 layer_factory.hpp:77] Creating layer fc6
I1109 18:09:06.871332 26228 net.cpp:84] Creating Layer fc6
I1109 18:09:06.871336 26228 net.cpp:406] fc6 <- pool5
I1109 18:09:06.871343 26228 net.cpp:380] fc6 -> fc6
I1109 18:09:07.202775 26228 net.cpp:122] Setting up fc6
I1109 18:09:07.202816 26228 net.cpp:129] Top shape: 3 2048 (6144)
I1109 18:09:07.202821 26228 net.cpp:137] Memory required for data: 1627441164
I1109 18:09:07.202838 26228 layer_factory.hpp:77] Creating layer relu6
I1109 18:09:07.202854 26228 net.cpp:84] Creating Layer relu6
I1109 18:09:07.202860 26228 net.cpp:406] relu6 <- fc6
I1109 18:09:07.202870 26228 net.cpp:367] relu6 -> fc6 (in-place)
I1109 18:09:07.202880 26228 net.cpp:122] Setting up relu6
I1109 18:09:07.202886 26228 net.cpp:129] Top shape: 3 2048 (6144)
I1109 18:09:07.202890 26228 net.cpp:137] Memory required for data: 1627465740
I1109 18:09:07.202895 26228 layer_factory.hpp:77] Creating layer drop6
I1109 18:09:07.202904 26228 net.cpp:84] Creating Layer drop6
I1109 18:09:07.202909 26228 net.cpp:406] drop6 <- fc6
I1109 18:09:07.202916 26228 net.cpp:367] drop6 -> fc6 (in-place)
I1109 18:09:07.202942 26228 net.cpp:122] Setting up drop6
I1109 18:09:07.202976 26228 net.cpp:129] Top shape: 3 2048 (6144)
I1109 18:09:07.202980 26228 net.cpp:137] Memory required for data: 1627490316
I1109 18:09:07.202986 26228 layer_factory.hpp:77] Creating layer fc7
I1109 18:09:07.202996 26228 net.cpp:84] Creating Layer fc7
I1109 18:09:07.203002 26228 net.cpp:406] fc7 <- fc6
I1109 18:09:07.203011 26228 net.cpp:380] fc7 -> fc7
I1109 18:09:07.258339 26228 net.cpp:122] Setting up fc7
I1109 18:09:07.258375 26228 net.cpp:129] Top shape: 3 2048 (6144)
I1109 18:09:07.258381 26228 net.cpp:137] Memory required for data: 1627514892
I1109 18:09:07.258399 26228 layer_factory.hpp:77] Creating layer relu7
I1109 18:09:07.258414 26228 net.cpp:84] Creating Layer relu7
I1109 18:09:07.258422 26228 net.cpp:406] relu7 <- fc7
I1109 18:09:07.258432 26228 net.cpp:367] relu7 -> fc7 (in-place)
I1109 18:09:07.258443 26228 net.cpp:122] Setting up relu7
I1109 18:09:07.258450 26228 net.cpp:129] Top shape: 3 2048 (6144)
I1109 18:09:07.258453 26228 net.cpp:137] Memory required for data: 1627539468
I1109 18:09:07.258458 26228 layer_factory.hpp:77] Creating layer drop7
I1109 18:09:07.258466 26228 net.cpp:84] Creating Layer drop7
I1109 18:09:07.258472 26228 net.cpp:406] drop7 <- fc7
I1109 18:09:07.258479 26228 net.cpp:367] drop7 -> fc7 (in-place)
I1109 18:09:07.258502 26228 net.cpp:122] Setting up drop7
I1109 18:09:07.258518 26228 net.cpp:129] Top shape: 3 2048 (6144)
I1109 18:09:07.258523 26228 net.cpp:137] Memory required for data: 1627564044
I1109 18:09:07.258528 26228 layer_factory.hpp:77] Creating layer fc8
I1109 18:09:07.258538 26228 net.cpp:84] Creating Layer fc8
I1109 18:09:07.258546 26228 net.cpp:406] fc8 <- fc7
I1109 18:09:07.258554 26228 net.cpp:380] fc8 -> fc8
I1109 18:09:07.262495 26228 net.cpp:122] Setting up fc8
I1109 18:09:07.262527 26228 net.cpp:129] Top shape: 3 101 (303)
I1109 18:09:07.262532 26228 net.cpp:137] Memory required for data: 1627565256
I1109 18:09:07.262549 26228 layer_factory.hpp:77] Creating layer conv1a_p
I1109 18:09:07.262565 26228 net.cpp:84] Creating Layer conv1a_p
I1109 18:09:07.262578 26228 net.cpp:406] conv1a_p <- data_p
I1109 18:09:07.262589 26228 net.cpp:380] conv1a_p -> conv1a_p
I1109 18:09:07.265089 26228 net.cpp:122] Setting up conv1a_p
I1109 18:09:07.265137 26228 net.cpp:129] Top shape: 3 64 40 120 120 (110592000)
I1109 18:09:07.265144 26228 net.cpp:137] Memory required for data: 2069933256
I1109 18:09:07.265168 26228 net.cpp:465] Sharing parameters 'conv1a_w' owned by layer 'conv1a', param index 0
I1109 18:09:07.265179 26228 net.cpp:465] Sharing parameters 'conv1a_b' owned by layer 'conv1a', param index 1
I1109 18:09:07.265185 26228 layer_factory.hpp:77] Creating layer relu1a_p
I1109 18:09:07.265200 26228 net.cpp:84] Creating Layer relu1a_p
I1109 18:09:07.265239 26228 net.cpp:406] relu1a_p <- conv1a_p
I1109 18:09:07.265250 26228 net.cpp:367] relu1a_p -> conv1a_p (in-place)
I1109 18:09:07.265265 26228 net.cpp:122] Setting up relu1a_p
I1109 18:09:07.265291 26228 net.cpp:129] Top shape: 3 64 40 120 120 (110592000)
I1109 18:09:07.265296 26228 net.cpp:137] Memory required for data: 2512301256
I1109 18:09:07.265301 26228 layer_factory.hpp:77] Creating layer pool1_p
I1109 18:09:07.265311 26228 net.cpp:84] Creating Layer pool1_p
I1109 18:09:07.265321 26228 net.cpp:406] pool1_p <- conv1a_p
I1109 18:09:07.265328 26228 net.cpp:380] pool1_p -> pool1_p
I1109 18:09:07.265396 26228 net.cpp:122] Setting up pool1_p
I1109 18:09:07.265404 26228 net.cpp:129] Top shape: 3 64 40 60 60 (27648000)
I1109 18:09:07.265409 26228 net.cpp:137] Memory required for data: 2622893256
I1109 18:09:07.265414 26228 layer_factory.hpp:77] Creating layer conv2a_p
I1109 18:09:07.265425 26228 net.cpp:84] Creating Layer conv2a_p
I1109 18:09:07.265455 26228 net.cpp:406] conv2a_p <- pool1_p
I1109 18:09:07.265466 26228 net.cpp:380] conv2a_p -> conv2a_p
I1109 18:09:07.268446 26228 net.cpp:122] Setting up conv2a_p
I1109 18:09:07.268474 26228 net.cpp:129] Top shape: 3 128 40 60 60 (55296000)
I1109 18:09:07.268482 26228 net.cpp:137] Memory required for data: 2844077256
I1109 18:09:07.268491 26228 net.cpp:465] Sharing parameters 'conv2a_w' owned by layer 'conv2a', param index 0
I1109 18:09:07.268502 26228 net.cpp:465] Sharing parameters 'conv2a_b' owned by layer 'conv2a', param index 1
I1109 18:09:07.268508 26228 layer_factory.hpp:77] Creating layer relu2a_p
I1109 18:09:07.268519 26228 net.cpp:84] Creating Layer relu2a_p
I1109 18:09:07.268524 26228 net.cpp:406] relu2a_p <- conv2a_p
I1109 18:09:07.268533 26228 net.cpp:367] relu2a_p -> conv2a_p (in-place)
I1109 18:09:07.268543 26228 net.cpp:122] Setting up relu2a_p
I1109 18:09:07.268550 26228 net.cpp:129] Top shape: 3 128 40 60 60 (55296000)
I1109 18:09:07.268555 26228 net.cpp:137] Memory required for data: 3065261256
I1109 18:09:07.268559 26228 layer_factory.hpp:77] Creating layer pool2_p
I1109 18:09:07.268568 26228 net.cpp:84] Creating Layer pool2_p
I1109 18:09:07.268573 26228 net.cpp:406] pool2_p <- conv2a_p
I1109 18:09:07.268580 26228 net.cpp:380] pool2_p -> pool2_p
I1109 18:09:07.268610 26228 net.cpp:122] Setting up pool2_p
I1109 18:09:07.268633 26228 net.cpp:129] Top shape: 3 128 20 30 30 (6912000)
I1109 18:09:07.268638 26228 net.cpp:137] Memory required for data: 3092909256
I1109 18:09:07.268643 26228 layer_factory.hpp:77] Creating layer conv3a_p
I1109 18:09:07.268652 26228 net.cpp:84] Creating Layer conv3a_p
I1109 18:09:07.268657 26228 net.cpp:406] conv3a_p <- pool2_p
I1109 18:09:07.268666 26228 net.cpp:380] conv3a_p -> conv3a_p
I1109 18:09:07.281047 26228 net.cpp:122] Setting up conv3a_p
I1109 18:09:07.281082 26228 net.cpp:129] Top shape: 3 256 20 30 30 (13824000)
I1109 18:09:07.281087 26228 net.cpp:137] Memory required for data: 3148205256
I1109 18:09:07.281100 26228 net.cpp:465] Sharing parameters 'conv3a_w' owned by layer 'conv3a', param index 0
I1109 18:09:07.281111 26228 net.cpp:465] Sharing parameters 'conv3a_b' owned by layer 'conv3a', param index 1
I1109 18:09:07.281118 26228 layer_factory.hpp:77] Creating layer relu3a_p
I1109 18:09:07.281132 26228 net.cpp:84] Creating Layer relu3a_p
I1109 18:09:07.281139 26228 net.cpp:406] relu3a_p <- conv3a_p
I1109 18:09:07.281149 26228 net.cpp:367] relu3a_p -> conv3a_p (in-place)
I1109 18:09:07.281160 26228 net.cpp:122] Setting up relu3a_p
I1109 18:09:07.281168 26228 net.cpp:129] Top shape: 3 256 20 30 30 (13824000)
I1109 18:09:07.281173 26228 net.cpp:137] Memory required for data: 3203501256
I1109 18:09:07.281177 26228 layer_factory.hpp:77] Creating layer pool3_p
I1109 18:09:07.281193 26228 net.cpp:84] Creating Layer pool3_p
I1109 18:09:07.281198 26228 net.cpp:406] pool3_p <- conv3a_p
I1109 18:09:07.281205 26228 net.cpp:380] pool3_p -> pool3_p
I1109 18:09:07.281229 26228 net.cpp:122] Setting up pool3_p
I1109 18:09:07.281237 26228 net.cpp:129] Top shape: 3 256 10 15 15 (1728000)
I1109 18:09:07.281241 26228 net.cpp:137] Memory required for data: 3210413256
I1109 18:09:07.281246 26228 layer_factory.hpp:77] Creating layer conv4a_p
I1109 18:09:07.281256 26228 net.cpp:84] Creating Layer conv4a_p
I1109 18:09:07.281306 26228 net.cpp:406] conv4a_p <- pool3_p
I1109 18:09:07.281314 26228 net.cpp:380] conv4a_p -> conv4a_p
I1109 18:09:07.305845 26228 net.cpp:122] Setting up conv4a_p
I1109 18:09:07.305886 26228 net.cpp:129] Top shape: 3 256 10 15 15 (1728000)
I1109 18:09:07.305891 26228 net.cpp:137] Memory required for data: 3217325256
I1109 18:09:07.305903 26228 net.cpp:465] Sharing parameters 'conv4a_w' owned by layer 'conv4a', param index 0
I1109 18:09:07.305912 26228 net.cpp:465] Sharing parameters 'conv4a_b' owned by layer 'conv4a', param index 1
I1109 18:09:07.305919 26228 layer_factory.hpp:77] Creating layer relu4a_p
I1109 18:09:07.305945 26228 net.cpp:84] Creating Layer relu4a_p
I1109 18:09:07.305953 26228 net.cpp:406] relu4a_p <- conv4a_p
I1109 18:09:07.305963 26228 net.cpp:367] relu4a_p -> conv4a_p (in-place)
I1109 18:09:07.305975 26228 net.cpp:122] Setting up relu4a_p
I1109 18:09:07.305982 26228 net.cpp:129] Top shape: 3 256 10 15 15 (1728000)
I1109 18:09:07.305986 26228 net.cpp:137] Memory required for data: 3224237256
I1109 18:09:07.305991 26228 layer_factory.hpp:77] Creating layer pool4_p
I1109 18:09:07.306000 26228 net.cpp:84] Creating Layer pool4_p
I1109 18:09:07.306005 26228 net.cpp:406] pool4_p <- conv4a_p
I1109 18:09:07.306011 26228 net.cpp:380] pool4_p -> pool4_p
I1109 18:09:07.306035 26228 net.cpp:122] Setting up pool4_p
I1109 18:09:07.306043 26228 net.cpp:129] Top shape: 3 256 5 8 8 (245760)
I1109 18:09:07.306047 26228 net.cpp:137] Memory required for data: 3225220296
I1109 18:09:07.306051 26228 layer_factory.hpp:77] Creating layer conv5a_p
I1109 18:09:07.306062 26228 net.cpp:84] Creating Layer conv5a_p
I1109 18:09:07.306067 26228 net.cpp:406] conv5a_p <- pool4_p
I1109 18:09:07.306077 26228 net.cpp:380] conv5a_p -> conv5a_p
I1109 18:09:07.330044 26228 net.cpp:122] Setting up conv5a_p
I1109 18:09:07.330082 26228 net.cpp:129] Top shape: 3 256 5 8 8 (245760)
I1109 18:09:07.330088 26228 net.cpp:137] Memory required for data: 3226203336
I1109 18:09:07.330103 26228 net.cpp:465] Sharing parameters 'conv5a_w' owned by layer 'conv5a', param index 0
I1109 18:09:07.330112 26228 net.cpp:465] Sharing parameters 'conv5a_b' owned by layer 'conv5a', param index 1
I1109 18:09:07.330118 26228 layer_factory.hpp:77] Creating layer relu5a_p
I1109 18:09:07.330132 26228 net.cpp:84] Creating Layer relu5a_p
I1109 18:09:07.330137 26228 net.cpp:406] relu5a_p <- conv5a_p
I1109 18:09:07.330147 26228 net.cpp:367] relu5a_p -> conv5a_p (in-place)
I1109 18:09:07.330159 26228 net.cpp:122] Setting up relu5a_p
I1109 18:09:07.330166 26228 net.cpp:129] Top shape: 3 256 5 8 8 (245760)
I1109 18:09:07.330171 26228 net.cpp:137] Memory required for data: 3227186376
I1109 18:09:07.330175 26228 layer_factory.hpp:77] Creating layer pool5_p
I1109 18:09:07.330185 26228 net.cpp:84] Creating Layer pool5_p
I1109 18:09:07.330189 26228 net.cpp:406] pool5_p <- conv5a_p
I1109 18:09:07.330196 26228 net.cpp:380] pool5_p -> pool5_p
I1109 18:09:07.330243 26228 net.cpp:122] Setting up pool5_p
I1109 18:09:07.330252 26228 net.cpp:129] Top shape: 3 256 3 4 4 (36864)
I1109 18:09:07.330257 26228 net.cpp:137] Memory required for data: 3227333832
I1109 18:09:07.330261 26228 layer_factory.hpp:77] Creating layer fc6_p
I1109 18:09:07.330272 26228 net.cpp:84] Creating Layer fc6_p
I1109 18:09:07.330277 26228 net.cpp:406] fc6_p <- pool5_p
I1109 18:09:07.330286 26228 net.cpp:380] fc6_p -> fc6_p
I1109 18:09:07.657975 26228 net.cpp:122] Setting up fc6_p
I1109 18:09:07.658015 26228 net.cpp:129] Top shape: 3 2048 (6144)
I1109 18:09:07.658020 26228 net.cpp:137] Memory required for data: 3227358408
I1109 18:09:07.658031 26228 net.cpp:465] Sharing parameters 'fc6_w' owned by layer 'fc6', param index 0
I1109 18:09:07.658041 26228 net.cpp:465] Sharing parameters 'fc6_b' owned by layer 'fc6', param index 1
I1109 18:09:07.658047 26228 layer_factory.hpp:77] Creating layer relu6_p
I1109 18:09:07.658061 26228 net.cpp:84] Creating Layer relu6_p
I1109 18:09:07.658102 26228 net.cpp:406] relu6_p <- fc6_p
I1109 18:09:07.658112 26228 net.cpp:367] relu6_p -> fc6_p (in-place)
I1109 18:09:07.658140 26228 net.cpp:122] Setting up relu6_p
I1109 18:09:07.658149 26228 net.cpp:129] Top shape: 3 2048 (6144)
I1109 18:09:07.658152 26228 net.cpp:137] Memory required for data: 3227382984
I1109 18:09:07.658157 26228 layer_factory.hpp:77] Creating layer drop6_p
I1109 18:09:07.658166 26228 net.cpp:84] Creating Layer drop6_p
I1109 18:09:07.658172 26228 net.cpp:406] drop6_p <- fc6_p
I1109 18:09:07.658179 26228 net.cpp:367] drop6_p -> fc6_p (in-place)
I1109 18:09:07.658205 26228 net.cpp:122] Setting up drop6_p
I1109 18:09:07.658212 26228 net.cpp:129] Top shape: 3 2048 (6144)
I1109 18:09:07.658217 26228 net.cpp:137] Memory required for data: 3227407560
I1109 18:09:07.658221 26228 layer_factory.hpp:77] Creating layer fc7_p
I1109 18:09:07.658231 26228 net.cpp:84] Creating Layer fc7_p
I1109 18:09:07.658237 26228 net.cpp:406] fc7_p <- fc6_p
I1109 18:09:07.658246 26228 net.cpp:380] fc7_p -> fc7_p
I1109 18:09:07.713840 26228 net.cpp:122] Setting up fc7_p
I1109 18:09:07.713872 26228 net.cpp:129] Top shape: 3 2048 (6144)
I1109 18:09:07.713877 26228 net.cpp:137] Memory required for data: 3227432136
I1109 18:09:07.713891 26228 net.cpp:465] Sharing parameters 'fc7_w' owned by layer 'fc7', param index 0
I1109 18:09:07.713899 26228 net.cpp:465] Sharing parameters 'fc7_b' owned by layer 'fc7', param index 1
I1109 18:09:07.713908 26228 layer_factory.hpp:77] Creating layer relu7_p
I1109 18:09:07.713922 26228 net.cpp:84] Creating Layer relu7_p
I1109 18:09:07.713929 26228 net.cpp:406] relu7_p <- fc7_p
I1109 18:09:07.713953 26228 net.cpp:367] relu7_p -> fc7_p (in-place)
I1109 18:09:07.713965 26228 net.cpp:122] Setting up relu7_p
I1109 18:09:07.713971 26228 net.cpp:129] Top shape: 3 2048 (6144)
I1109 18:09:07.713976 26228 net.cpp:137] Memory required for data: 3227456712
I1109 18:09:07.713980 26228 layer_factory.hpp:77] Creating layer drop7_p
I1109 18:09:07.713990 26228 net.cpp:84] Creating Layer drop7_p
I1109 18:09:07.713999 26228 net.cpp:406] drop7_p <- fc7_p
I1109 18:09:07.714006 26228 net.cpp:367] drop7_p -> fc7_p (in-place)
I1109 18:09:07.714031 26228 net.cpp:122] Setting up drop7_p
I1109 18:09:07.714040 26228 net.cpp:129] Top shape: 3 2048 (6144)
I1109 18:09:07.714043 26228 net.cpp:137] Memory required for data: 3227481288
I1109 18:09:07.714048 26228 layer_factory.hpp:77] Creating layer fc8_p
I1109 18:09:07.714058 26228 net.cpp:84] Creating Layer fc8_p
I1109 18:09:07.714066 26228 net.cpp:406] fc8_p <- fc7_p
I1109 18:09:07.714073 26228 net.cpp:380] fc8_p -> fc8_p
I1109 18:09:07.717968 26228 net.cpp:122] Setting up fc8_p
I1109 18:09:07.718004 26228 net.cpp:129] Top shape: 3 101 (303)
I1109 18:09:07.718009 26228 net.cpp:137] Memory required for data: 3227482500
I1109 18:09:07.718022 26228 net.cpp:465] Sharing parameters 'fc8_w' owned by layer 'fc8', param index 0
I1109 18:09:07.718030 26228 net.cpp:465] Sharing parameters 'fc8_b' owned by layer 'fc8', param index 1
I1109 18:09:07.718036 26228 layer_factory.hpp:77] Creating layer loss
I1109 18:09:07.718051 26228 net.cpp:84] Creating Layer loss
…
