…
I1104 20:46:22.401762 11574 net.cpp:294] The NetState phase (0) differed from the phase (1) specified by a rule in layer accuracy
I1104 20:46:22.401955 11574 net.cpp:51] Initializing net from parameters: 
name: "lenet_siamese_train_test"
state {
  phase: TRAIN
  level: 0
  stage: ""
}
layer {
  name: "pair_data"
  type: "Data"
  top: "pair_data"
  top: "sim"
  include {
    phase: TRAIN
  }
  transform_param {
    crop_size: 270
  }
  data_param {
    source: "/home/hzzone/1tb/id-data/lmdb/siamese_train_lmdb"
    batch_size: 5
    backend: LMDB
  }
}
layer {
  name: "slice_pair"
  type: "Slice"
  bottom: "pair_data"
  top: "data"
  top: "data_p"
  slice_param {
    slice_dim: 1
    slice_point: 200
  }
}
layer {
  name: "conv1"
  type: "Convolution"
  bottom: "data"
  top: "conv1"
  param {
    name: "conv1_w"
    lr_mult: 1
  }
  param {
    name: "conv1_b"
    lr_mult: 2
  }
  convolution_param {
    num_output: 64
    kernel_size: 3
    stride: 1
    weight_filler {
      type: "xavier"
    }
    bias_filler {
      type: "constant"
    }
  }
}
layer {
  name: "pool1"
  type: "Pooling"
  bottom: "conv1"
  top: "pool1"
  pooling_param {
    pool: MAX
    kernel_size: 2
    stride: 2
  }
}
layer {
  name: "conv2"
  type: "Convolution"
  bottom: "pool1"
  top: "conv2"
  param {
    name: "conv2_w"
    lr_mult: 1
  }
  param {
    name: "conv2_b"
    lr_mult: 2
  }
  convolution_param {
    num_output: 128
    kernel_size: 3
    stride: 1
    weight_filler {
      type: "xavier"
    }
    bias_filler {
      type: "constant"
    }
  }
}
layer {
  name: "pool2"
  type: "Pooling"
  bottom: "conv2"
  top: "pool2"
  pooling_param {
    pool: MAX
    kernel_size: 2
    stride: 2
  }
}
layer {
  name: "ip1"
  type: "InnerProduct"
  bottom: "pool2"
  top: "ip1"
  param {
    name: "ip1_w"
    lr_mult: 1
  }
  param {
    name: "ip1_b"
    lr_mult: 2
  }
  inner_product_param {
    num_output: 512
    weight_filler {
      type: "xavier"
    }
    bias_filler {
      type: "constant"
    }
  }
}
layer {
  name: "relu1"
  type: "ReLU"
  bottom: "ip1"
  top: "ip1"
}
layer {
  name: "ip2"
  type: "InnerProduct"
  bottom: "ip1"
  top: "ip2"
  param {
    name: "ip2_w"
    lr_mult: 1
  }
  param {
    name: "ip2_b"
    lr_mult: 2
  }
  inner_product_param {
    num_output: 1024
    weight_filler {
      type: "xavier"
    }
    bias_filler {
      type: "constant"
    }
  }
}
layer {
  name: "feat"
  type: "InnerProduct"
  bottom: "ip2"
  top: "feat"
  param {
    name: "feat_w"
    lr_mult: 1
  }
  param {
    name: "feat_b"
    lr_mult: 2
  }
  inner_product_param {
    num_output: 128
    weight_filler {
      type: "xavier"
    }
    bias_filler {
      type: "constant"
    }
  }
}
layer {
  name: "conv1_p"
  type: "Convolution"
  bottom: "data_p"
  top: "conv1_p"
  param {
    name: "conv1_w"
    lr_mult: 1
  }
  param {
    name: "conv1_b"
    lr_mult: 2
  }
  convolution_param {
    num_output: 64
    kernel_size: 3
    stride: 1
    weight_filler {
      type: "xavier"
    }
    bias_filler {
      type: "constant"
    }
  }
}
layer {
  name: "pool1_p"
  type: "Pooling"
  bottom: "conv1_p"
  top: "pool1_p"
  pooling_param {
    pool: MAX
    kernel_size: 2
    stride: 2
  }
}
layer {
  name: "conv2_p"
  type: "Convolution"
  bottom: "pool1_p"
  top: "conv2_p"
  param {
    name: "conv2_w"
    lr_mult: 1
  }
  param {
    name: "conv2_b"
    lr_mult: 2
  }
  convolution_param {
    num_output: 128
    kernel_size: 3
    stride: 1
    weight_filler {
      type: "xavier"
    }
    bias_filler {
      type: "constant"
    }
  }
}
layer {
  name: "pool2_p"
  type: "Pooling"
  bottom: "conv2_p"
  top: "pool2_p"
  pooling_param {
    pool: MAX
    kernel_size: 2
    stride: 2
  }
}
layer {
  name: "ip1_p"
  type: "InnerProduct"
  bottom: "pool2_p"
  top: "ip1_p"
  param {
    name: "ip1_w"
    lr_mult: 1
  }
  param {
    name: "ip1_b"
    lr_mult: 2
  }
  inner_product_param {
    num_output: 512
    weight_filler {
      type: "xavier"
    }
    bias_filler {
      type: "constant"
    }
  }
}
layer {
  name: "relu1_p"
  type: "ReLU"
  bottom: "ip1_p"
  top: "ip1_p"
}
layer {
  name: "ip2_p"
  type: "InnerProduct"
  bottom: "ip1_p"
  top: "ip2_p"
  param {
    name: "ip2_w"
    lr_mult: 1
  }
  param {
    name: "ip2_b"
    lr_mult: 2
  }
  inner_product_param {
    num_output: 1024
    weight_filler {
      type: "xavier"
    }
    bias_filler {
      type: "constant"
    }
  }
}
layer {
  name: "feat_p"
  type: "InnerProduct"
  bottom: "ip2_p"
  top: "feat_p"
  param {
    name: "feat_w"
    lr_mult: 1
  }
  param {
    name: "feat_b"
    lr_mult: 2
  }
  inner_product_param {
    num_output: 128
    weight_filler {
      type: "xavier"
    }
    bias_filler {
      type: "constant"
    }
  }
}
layer {
  name: "loss"
  type: "ContrastiveLoss"
  bottom: "feat"
  bottom: "feat_p"
  bottom: "sim"
  top: "loss"
  contrastive_loss_param {
    margin: 1
  }
}
layer {
  name: "concat_feat"
  type: "Concat"
  bottom: "feat"
  bottom: "feat_p"
  top: "concat_feat"
  concat_param {
    axis: 1
  }
}
layer {
  name: "classifier"
  type: "InnerProduct"
  bottom: "concat_feat"
  top: "classifier"
  param {
    lr_mult: 1
    decay_mult: 1
  }
  param {
    lr_mult: 2
    decay_mult: 0
  }
  inner_product_param {
    num_output: 2
    weight_filler {
      type: "gaussian"
      std: 0.01
    }
    bias_filler {
      type: "constant"
      value: 0
    }
  }
}
layer {
  name: "classifier/loss"
  type: "SoftmaxWithLoss"
  bottom: "classifier"
  bottom: "sim"
  top: "classifier/loss"
}
I1104 20:46:22.402132 11574 layer_factory.hpp:77] Creating layer pair_data
I1104 20:46:22.417140 11574 db_lmdb.cpp:35] Opened lmdb /home/hzzone/1tb/id-data/lmdb/siamese_train_lmdb
I1104 20:46:22.439551 11574 net.cpp:84] Creating Layer pair_data
I1104 20:46:22.439625 11574 net.cpp:380] pair_data -> pair_data
I1104 20:46:22.439692 11574 net.cpp:380] pair_data -> sim
[libprotobuf ERROR google/protobuf/io/coded_stream.cc:180] A protocol message was rejected because it was too big (more than 67108864 bytes).  To increase the limit (or to disable these warnings), see CodedInputStream::SetTotalBytesLimit() in google/protobuf/io/coded_stream.h.
I1104 20:46:24.183779 11574 data_layer.cpp:45] output data size: 5,400,270,270
I1104 20:46:25.657177 11574 net.cpp:122] Setting up pair_data
I1104 20:46:25.657217 11574 net.cpp:129] Top shape: 5 400 270 270 (145800000)
I1104 20:46:25.657224 11574 net.cpp:129] Top shape: 5 (5)
I1104 20:46:25.657229 11574 net.cpp:137] Memory required for data: 583200020
I1104 20:46:25.657244 11574 layer_factory.hpp:77] Creating layer sim_pair_data_1_split
I1104 20:46:25.657263 11574 net.cpp:84] Creating Layer sim_pair_data_1_split
I1104 20:46:25.657272 11574 net.cpp:406] sim_pair_data_1_split <- sim
I1104 20:46:25.657290 11574 net.cpp:380] sim_pair_data_1_split -> sim_pair_data_1_split_0
I1104 20:46:25.657305 11574 net.cpp:380] sim_pair_data_1_split -> sim_pair_data_1_split_1
I1104 20:46:25.657451 11574 net.cpp:122] Setting up sim_pair_data_1_split
I1104 20:46:25.657464 11574 net.cpp:129] Top shape: 5 (5)
I1104 20:46:25.657470 11574 net.cpp:129] Top shape: 5 (5)
I1104 20:46:25.657475 11574 net.cpp:137] Memory required for data: 583200060
I1104 20:46:25.657480 11574 layer_factory.hpp:77] Creating layer slice_pair
I1104 20:46:25.657492 11574 net.cpp:84] Creating Layer slice_pair
I1104 20:46:25.657498 11574 net.cpp:406] slice_pair <- pair_data
I1104 20:46:25.657505 11574 net.cpp:380] slice_pair -> data
I1104 20:46:25.657517 11574 net.cpp:380] slice_pair -> data_p
I1104 20:46:25.657562 11574 net.cpp:122] Setting up slice_pair
I1104 20:46:25.657568 11574 net.cpp:129] Top shape: 5 200 270 270 (72900000)
I1104 20:46:25.657598 11574 net.cpp:129] Top shape: 5 200 270 270 (72900000)
I1104 20:46:25.657603 11574 net.cpp:137] Memory required for data: 1166400060
I1104 20:46:25.657606 11574 layer_factory.hpp:77] Creating layer conv1
I1104 20:46:25.657626 11574 net.cpp:84] Creating Layer conv1
I1104 20:46:25.657631 11574 net.cpp:406] conv1 <- data
I1104 20:46:25.657642 11574 net.cpp:380] conv1 -> conv1
[libprotobuf ERROR google/protobuf/io/coded_stream.cc:180] A protocol message was rejected because it was too big (more than 67108864 bytes).  To increase the limit (or to disable these warnings), see CodedInputStream::SetTotalBytesLimit() in google/protobuf/io/coded_stream.h.
I1104 20:46:26.111361 11574 net.cpp:122] Setting up conv1
I1104 20:46:26.111409 11574 net.cpp:129] Top shape: 5 64 268 268 (22983680)
I1104 20:46:26.111415 11574 net.cpp:137] Memory required for data: 1258334780
I1104 20:46:26.111448 11574 layer_factory.hpp:77] Creating layer pool1
I1104 20:46:26.111469 11574 net.cpp:84] Creating Layer pool1
I1104 20:46:26.111484 11574 net.cpp:406] pool1 <- conv1
I1104 20:46:26.111495 11574 net.cpp:380] pool1 -> pool1
I1104 20:46:26.111560 11574 net.cpp:122] Setting up pool1
I1104 20:46:26.111572 11574 net.cpp:129] Top shape: 5 64 134 134 (5745920)
I1104 20:46:26.111577 11574 net.cpp:137] Memory required for data: 1281318460
I1104 20:46:26.111582 11574 layer_factory.hpp:77] Creating layer conv2
I1104 20:46:26.111599 11574 net.cpp:84] Creating Layer conv2
I1104 20:46:26.111605 11574 net.cpp:406] conv2 <- pool1
I1104 20:46:26.111614 11574 net.cpp:380] conv2 -> conv2
I1104 20:46:26.114950 11574 net.cpp:122] Setting up conv2
I1104 20:46:26.115001 11574 net.cpp:129] Top shape: 5 128 132 132 (11151360)
I1104 20:46:26.115008 11574 net.cpp:137] Memory required for data: 1325923900
I1104 20:46:26.115039 11574 layer_factory.hpp:77] Creating layer pool2
I1104 20:46:26.115057 11574 net.cpp:84] Creating Layer pool2
I1104 20:46:26.115092 11574 net.cpp:406] pool2 <- conv2
I1104 20:46:26.115118 11574 net.cpp:380] pool2 -> pool2
I1104 20:46:26.115227 11574 net.cpp:122] Setting up pool2
I1104 20:46:26.115238 11574 net.cpp:129] Top shape: 5 128 66 66 (2787840)
I1104 20:46:26.115243 11574 net.cpp:137] Memory required for data: 1337075260
I1104 20:46:26.115248 11574 layer_factory.hpp:77] Creating layer ip1
I1104 20:46:26.115262 11574 net.cpp:84] Creating Layer ip1
I1104 20:46:26.115279 11574 net.cpp:406] ip1 <- pool2
I1104 20:46:26.115300 11574 net.cpp:380] ip1 -> ip1
[libprotobuf ERROR google/protobuf/io/coded_stream.cc:180] A protocol message was rejected because it was too big (more than 67108864 bytes).  To increase the limit (or to disable these warnings), see CodedInputStream::SetTotalBytesLimit() in google/protobuf/io/coded_stream.h.
I1104 20:46:28.700855 11574 net.cpp:122] Setting up ip1
I1104 20:46:28.700904 11574 net.cpp:129] Top shape: 5 512 (2560)
I1104 20:46:28.700909 11574 net.cpp:137] Memory required for data: 1337085500
I1104 20:46:28.700934 11574 layer_factory.hpp:77] Creating layer relu1
I1104 20:46:28.700955 11574 net.cpp:84] Creating Layer relu1
I1104 20:46:28.700963 11574 net.cpp:406] relu1 <- ip1
I1104 20:46:28.700974 11574 net.cpp:367] relu1 -> ip1 (in-place)
I1104 20:46:28.701268 11574 net.cpp:122] Setting up relu1
I1104 20:46:28.701278 11574 net.cpp:129] Top shape: 5 512 (2560)
I1104 20:46:28.701282 11574 net.cpp:137] Memory required for data: 1337095740
I1104 20:46:28.701288 11574 layer_factory.hpp:77] Creating layer ip2
I1104 20:46:28.701300 11574 net.cpp:84] Creating Layer ip2
I1104 20:46:28.701306 11574 net.cpp:406] ip2 <- ip1
I1104 20:46:28.701318 11574 net.cpp:380] ip2 -> ip2
I1104 20:46:28.706773 11574 net.cpp:122] Setting up ip2
I1104 20:46:28.706817 11574 net.cpp:129] Top shape: 5 1024 (5120)
I1104 20:46:28.706823 11574 net.cpp:137] Memory required for data: 1337116220
I1104 20:46:28.706840 11574 layer_factory.hpp:77] Creating layer feat
I1104 20:46:28.706859 11574 net.cpp:84] Creating Layer feat
I1104 20:46:28.706866 11574 net.cpp:406] feat <- ip2
I1104 20:46:28.706881 11574 net.cpp:380] feat -> feat
I1104 20:46:28.707991 11574 net.cpp:122] Setting up feat
I1104 20:46:28.708000 11574 net.cpp:129] Top shape: 5 128 (640)
I1104 20:46:28.708004 11574 net.cpp:137] Memory required for data: 1337118780
I1104 20:46:28.708017 11574 layer_factory.hpp:77] Creating layer feat_feat_0_split
I1104 20:46:28.708027 11574 net.cpp:84] Creating Layer feat_feat_0_split
I1104 20:46:28.708032 11574 net.cpp:406] feat_feat_0_split <- feat
I1104 20:46:28.708039 11574 net.cpp:380] feat_feat_0_split -> feat_feat_0_split_0
I1104 20:46:28.708047 11574 net.cpp:380] feat_feat_0_split -> feat_feat_0_split_1
I1104 20:46:28.708128 11574 net.cpp:122] Setting up feat_feat_0_split
I1104 20:46:28.708138 11574 net.cpp:129] Top shape: 5 128 (640)
I1104 20:46:28.708144 11574 net.cpp:129] Top shape: 5 128 (640)
I1104 20:46:28.708148 11574 net.cpp:137] Memory required for data: 1337123900
I1104 20:46:28.708153 11574 layer_factory.hpp:77] Creating layer conv1_p
I1104 20:46:28.708168 11574 net.cpp:84] Creating Layer conv1_p
I1104 20:46:28.708173 11574 net.cpp:406] conv1_p <- data_p
I1104 20:46:28.708184 11574 net.cpp:380] conv1_p -> conv1_p
I1104 20:46:28.711897 11574 net.cpp:122] Setting up conv1_p
I1104 20:46:28.711953 11574 net.cpp:129] Top shape: 5 64 268 268 (22983680)
I1104 20:46:28.711959 11574 net.cpp:137] Memory required for data: 1429058620
I1104 20:46:28.711974 11574 net.cpp:465] Sharing parameters 'conv1_w' owned by layer 'conv1', param index 0
I1104 20:46:28.711984 11574 net.cpp:465] Sharing parameters 'conv1_b' owned by layer 'conv1', param index 1
I1104 20:46:28.711990 11574 layer_factory.hpp:77] Creating layer pool1_p
I1104 20:46:28.712007 11574 net.cpp:84] Creating Layer pool1_p
I1104 20:46:28.712013 11574 net.cpp:406] pool1_p <- conv1_p
I1104 20:46:28.712026 11574 net.cpp:380] pool1_p -> pool1_p
I1104 20:46:28.712116 11574 net.cpp:122] Setting up pool1_p
I1104 20:46:28.712126 11574 net.cpp:129] Top shape: 5 64 134 134 (5745920)
I1104 20:46:28.712131 11574 net.cpp:137] Memory required for data: 1452042300
I1104 20:46:28.712136 11574 layer_factory.hpp:77] Creating layer conv2_p
I1104 20:46:28.712153 11574 net.cpp:84] Creating Layer conv2_p
I1104 20:46:28.712159 11574 net.cpp:406] conv2_p <- pool1_p
I1104 20:46:28.712170 11574 net.cpp:380] conv2_p -> conv2_p
I1104 20:46:28.714332 11574 net.cpp:122] Setting up conv2_p
I1104 20:46:28.714361 11574 net.cpp:129] Top shape: 5 128 132 132 (11151360)
I1104 20:46:28.714367 11574 net.cpp:137] Memory required for data: 1496647740
I1104 20:46:28.714378 11574 net.cpp:465] Sharing parameters 'conv2_w' owned by layer 'conv2', param index 0
I1104 20:46:28.714386 11574 net.cpp:465] Sharing parameters 'conv2_b' owned by layer 'conv2', param index 1
I1104 20:46:28.714391 11574 layer_factory.hpp:77] Creating layer pool2_p
I1104 20:46:28.714406 11574 net.cpp:84] Creating Layer pool2_p
I1104 20:46:28.714412 11574 net.cpp:406] pool2_p <- conv2_p
I1104 20:46:28.714426 11574 net.cpp:380] pool2_p -> pool2_p
I1104 20:46:28.714475 11574 net.cpp:122] Setting up pool2_p
I1104 20:46:28.714484 11574 net.cpp:129] Top shape: 5 128 66 66 (2787840)
I1104 20:46:28.714489 11574 net.cpp:137] Memory required for data: 1507799100
I1104 20:46:28.714493 11574 layer_factory.hpp:77] Creating layer ip1_p
I1104 20:46:28.714510 11574 net.cpp:84] Creating Layer ip1_p
I1104 20:46:28.714515 11574 net.cpp:406] ip1_p <- pool2_p
I1104 20:46:28.714524 11574 net.cpp:380] ip1_p -> ip1_p
[libprotobuf ERROR google/protobuf/io/coded_stream.cc:180] A protocol message was rejected because it was too big (more than 67108864 bytes).  To increase the limit (or to disable these warnings), see CodedInputStream::SetTotalBytesLimit() in google/protobuf/io/coded_stream.h.
I1104 20:46:31.415305 11574 net.cpp:122] Setting up ip1_p
I1104 20:46:31.415359 11574 net.cpp:129] Top shape: 5 512 (2560)
I1104 20:46:31.415364 11574 net.cpp:137] Memory required for data: 1507809340
I1104 20:46:31.415376 11574 net.cpp:465] Sharing parameters 'ip1_w' owned by layer 'ip1', param index 0
I1104 20:46:31.415386 11574 net.cpp:465] Sharing parameters 'ip1_b' owned by layer 'ip1', param index 1
I1104 20:46:31.415393 11574 layer_factory.hpp:77] Creating layer relu1_p
I1104 20:46:31.415408 11574 net.cpp:84] Creating Layer relu1_p
I1104 20:46:31.415416 11574 net.cpp:406] relu1_p <- ip1_p
I1104 20:46:31.415427 11574 net.cpp:367] relu1_p -> ip1_p (in-place)
I1104 20:46:31.415750 11574 net.cpp:122] Setting up relu1_p
I1104 20:46:31.415760 11574 net.cpp:129] Top shape: 5 512 (2560)
I1104 20:46:31.415766 11574 net.cpp:137] Memory required for data: 1507819580
I1104 20:46:31.415771 11574 layer_factory.hpp:77] Creating layer ip2_p
I1104 20:46:31.415783 11574 net.cpp:84] Creating Layer ip2_p
I1104 20:46:31.415788 11574 net.cpp:406] ip2_p <- ip1_p
I1104 20:46:31.415824 11574 net.cpp:380] ip2_p -> ip2_p
I1104 20:46:31.421517 11574 net.cpp:122] Setting up ip2_p
I1104 20:46:31.421562 11574 net.cpp:129] Top shape: 5 1024 (5120)
I1104 20:46:31.421612 11574 net.cpp:137] Memory required for data: 1507840060
I1104 20:46:31.421636 11574 net.cpp:465] Sharing parameters 'ip2_w' owned by layer 'ip2', param index 0
I1104 20:46:31.421645 11574 net.cpp:465] Sharing parameters 'ip2_b' owned by layer 'ip2', param index 1
I1104 20:46:31.421651 11574 layer_factory.hpp:77] Creating layer feat_p
I1104 20:46:31.421675 11574 net.cpp:84] Creating Layer feat_p
I1104 20:46:31.421681 11574 net.cpp:406] feat_p <- ip2_p
I1104 20:46:31.421694 11574 net.cpp:380] feat_p -> feat_p
I1104 20:46:31.422812 11574 net.cpp:122] Setting up feat_p
I1104 20:46:31.422823 11574 net.cpp:129] Top shape: 5 128 (640)
I1104 20:46:31.422827 11574 net.cpp:137] Memory required for data: 1507842620
I1104 20:46:31.422832 11574 net.cpp:465] Sharing parameters 'feat_w' owned by layer 'feat', param index 0
I1104 20:46:31.422838 11574 net.cpp:465] Sharing parameters 'feat_b' owned by layer 'feat', param index 1
I1104 20:46:31.422842 11574 layer_factory.hpp:77] Creating layer feat_p_feat_p_0_split
I1104 20:46:31.422849 11574 net.cpp:84] Creating Layer feat_p_feat_p_0_split
I1104 20:46:31.422854 11574 net.cpp:406] feat_p_feat_p_0_split <- feat_p
I1104 20:46:31.422863 11574 net.cpp:380] feat_p_feat_p_0_split -> feat_p_feat_p_0_split_0
I1104 20:46:31.422873 11574 net.cpp:380] feat_p_feat_p_0_split -> feat_p_feat_p_0_split_1
I1104 20:46:31.422914 11574 net.cpp:122] Setting up feat_p_feat_p_0_split
I1104 20:46:31.422937 11574 net.cpp:129] Top shape: 5 128 (640)
I1104 20:46:31.422942 11574 net.cpp:129] Top shape: 5 128 (640)
I1104 20:46:31.422946 11574 net.cpp:137] Memory required for data: 1507847740
I1104 20:46:31.422950 11574 layer_factory.hpp:77] Creating layer loss
I1104 20:46:31.422962 11574 net.cpp:84] Creating Layer loss
I1104 20:46:31.422967 11574 net.cpp:406] loss <- feat_feat_0_split_0
I1104 20:46:31.422973 11574 net.cpp:406] loss <- feat_p_feat_p_0_split_0
I1104 20:46:31.422979 11574 net.cpp:406] loss <- sim_pair_data_1_split_0
I1104 20:46:31.422989 11574 net.cpp:380] loss -> loss
I1104 20:46:31.423099 11574 net.cpp:122] Setting up loss
I1104 20:46:31.423108 11574 net.cpp:129] Top shape: (1)
I1104 20:46:31.423113 11574 net.cpp:132]     with loss weight 1
I1104 20:46:31.423159 11574 net.cpp:137] Memory required for data: 1507847744
I1104 20:46:31.423183 11574 layer_factory.hpp:77] Creating layer concat_feat
I1104 20:46:31.423205 11574 net.cpp:84] Creating Layer concat_feat
I1104 20:46:31.423224 11574 net.cpp:406] concat_feat <- feat_feat_0_split_1
I1104 20:46:31.423243 11574 net.cpp:406] concat_feat <- feat_p_feat_p_0_split_1
I1104 20:46:31.423267 11574 net.cpp:380] concat_feat -> concat_feat
I1104 20:46:31.423302 11574 net.cpp:122] Setting up concat_feat
I1104 20:46:31.423311 11574 net.cpp:129] Top shape: 5 256 (1280)
I1104 20:46:31.423316 11574 net.cpp:137] Memory required for data: 1507852864
I1104 20:46:31.423319 11574 layer_factory.hpp:77] Creating layer classifier
I1104 20:46:31.423331 11574 net.cpp:84] Creating Layer classifier
I1104 20:46:31.423336 11574 net.cpp:406] classifier <- concat_feat
I1104 20:46:31.423346 11574 net.cpp:380] classifier -> classifier
I1104 20:46:31.423477 11574 net.cpp:122] Setting up classifier
I1104 20:46:31.423485 11574 net.cpp:129] Top shape: 5 2 (10)
I1104 20:46:31.423490 11574 net.cpp:137] Memory required for data: 1507852904
I1104 20:46:31.423504 11574 layer_factory.hpp:77] Creating layer classifier/loss
I1104 20:46:31.423516 11574 net.cpp:84] Creating Layer classifier/loss
I1104 20:46:31.423519 11574 net.cpp:406] classifier/loss <- classifier
I1104 20:46:31.423527 11574 net.cpp:406] classifier/loss <- sim_pair_data_1_split_1
I1104 20:46:31.423533 11574 net.cpp:380] classifier/loss -> classifier/loss
…
I1104 20:46:31.654867 11574 solver.cpp:172] Creating test net (#0) specified by net file: ./lenet_siamese_train_test.prototxt
I1104 20:46:31.654920 11574 net.cpp:294] The NetState phase (1) differed from the phase (0) specified by a rule in layer pair_data
I1104 20:46:31.655128 11574 net.cpp:51] Initializing net from parameters: 
name: "lenet_siamese_train_test"
state {
  phase: TEST
}
layer {
  name: "pair_data"
  type: "Data"
  top: "pair_data"
  top: "sim"
  include {
    phase: TEST
  }
  transform_param {
    crop_size: 270
  }
  data_param {
    source: "/home/hzzone/1tb/id-data/lmdb/siamese_test_lmdb"
    batch_size: 2
    backend: LMDB
  }
}
layer {
  name: "slice_pair"
  type: "Slice"
  bottom: "pair_data"
  top: "data"
  top: "data_p"
  slice_param {
    slice_dim: 1
    slice_point: 200
  }
}
layer {
  name: "conv1"
  type: "Convolution"
  bottom: "data"
  top: "conv1"
  param {
    name: "conv1_w"
    lr_mult: 1
  }
  param {
    name: "conv1_b"
    lr_mult: 2
  }
  convolution_param {
    num_output: 64
    kernel_size: 3
    stride: 1
    weight_filler {
      type: "xavier"
    }
    bias_filler {
      type: "constant"
    }
  }
}
layer {
  name: "pool1"
  type: "Pooling"
  bottom: "conv1"
  top: "pool1"
  pooling_param {
    pool: MAX
    kernel_size: 2
    stride: 2
  }
}
layer {
  name: "conv2"
  type: "Convolution"
  bottom: "pool1"
  top: "conv2"
  param {
    name: "conv2_w"
    lr_mult: 1
  }
  param {
    name: "conv2_b"
    lr_mult: 2
  }
  convolution_param {
    num_output: 128
    kernel_size: 3
    stride: 1
    weight_filler {
      type: "xavier"
    }
    bias_filler {
      type: "constant"
    }
  }
}
layer {
  name: "pool2"
  type: "Pooling"
  bottom: "conv2"
  top: "pool2"
  pooling_param {
    pool: MAX
    kernel_size: 2
    stride: 2
  }
}
layer {
  name: "ip1"
  type: "InnerProduct"
  bottom: "pool2"
  top: "ip1"
  param {
    name: "ip1_w"
    lr_mult: 1
  }
  param {
    name: "ip1_b"
    lr_mult: 2
  }
  inner_product_param {
    num_output: 512
    weight_filler {
      type: "xavier"
    }
    bias_filler {
      type: "constant"
    }
  }
}
layer {
  name: "relu1"
  type: "ReLU"
  bottom: "ip1"
  top: "ip1"
}
layer {
  name: "ip2"
  type: "InnerProduct"
  bottom: "ip1"
  top: "ip2"
  param {
    name: "ip2_w"
    lr_mult: 1
  }
  param {
    name: "ip2_b"
    lr_mult: 2
  }
  inner_product_param {
    num_output: 1024
    weight_filler {
      type: "xavier"
    }
    bias_filler {
      type: "constant"
    }
  }
}
layer {
  name: "feat"
  type: "InnerProduct"
  bottom: "ip2"
  top: "feat"
  param {
    name: "feat_w"
    lr_mult: 1
  }
  param {
    name: "feat_b"
    lr_mult: 2
  }
  inner_product_param {
    num_output: 128
    weight_filler {
      type: "xavier"
    }
    bias_filler {
      type: "constant"
    }
  }
}
layer {
  name: "conv1_p"
  type: "Convolution"
  bottom: "data_p"
  top: "conv1_p"
  param {
    name: "conv1_w"
    lr_mult: 1
  }
  param {
    name: "conv1_b"
    lr_mult: 2
  }
  convolution_param {
    num_output: 64
    kernel_size: 3
    stride: 1
    weight_filler {
      type: "xavier"
    }
    bias_filler {
      type: "constant"
    }
  }
}
layer {
  name: "pool1_p"
  type: "Pooling"
  bottom: "conv1_p"
  top: "pool1_p"
  pooling_param {
    pool: MAX
    kernel_size: 2
    stride: 2
  }
}
layer {
  name: "conv2_p"
  type: "Convolution"
  bottom: "pool1_p"
  top: "conv2_p"
  param {
    name: "conv2_w"
    lr_mult: 1
  }
  param {
    name: "conv2_b"
    lr_mult: 2
  }
  convolution_param {
    num_output: 128
    kernel_size: 3
    stride: 1
    weight_filler {
      type: "xavier"
    }
    bias_filler {
      type: "constant"
    }
  }
}
layer {
  name: "pool2_p"
  type: "Pooling"
  bottom: "conv2_p"
  top: "pool2_p"
  pooling_param {
    pool: MAX
    kernel_size: 2
    stride: 2
  }
}
layer {
  name: "ip1_p"
  type: "InnerProduct"
  bottom: "pool2_p"
  top: "ip1_p"
  param {
    name: "ip1_w"
    lr_mult: 1
  }
  param {
    name: "ip1_b"
    lr_mult: 2
  }
  inner_product_param {
    num_output: 512
    weight_filler {
      type: "xavier"
    }
    bias_filler {
      type: "constant"
    }
  }
}
layer {
  name: "relu1_p"
  type: "ReLU"
  bottom: "ip1_p"
  top: "ip1_p"
}
layer {
  name: "ip2_p"
  type: "InnerProduct"
  bottom: "ip1_p"
  top: "ip2_p"
  param {
    name: "ip2_w"
    lr_mult: 1
  }
  param {
    name: "ip2_b"
    lr_mult: 2
  }
  inner_product_param {
    num_output: 1024
    weight_filler {
      type: "xavier"
    }
    bias_filler {
      type: "constant"
    }
  }
}
layer {
  name: "feat_p"
  type: "InnerProduct"
  bottom: "ip2_p"
  top: "feat_p"
  param {
    name: "feat_w"
    lr_mult: 1
  }
  param {
    name: "feat_b"
    lr_mult: 2
  }
  inner_product_param {
    num_output: 128
    weight_filler {
      type: "xavier"
    }
    bias_filler {
      type: "constant"
    }
  }
}
layer {
  name: "loss"
  type: "ContrastiveLoss"
  bottom: "feat"
  bottom: "feat_p"
  bottom: "sim"
  top: "loss"
  contrastive_loss_param {
    margin: 1
  }
}
layer {
  name: "concat_feat"
  type: "Concat"
  bottom: "feat"
  bottom: "feat_p"
  top: "concat_feat"
  concat_param {
    axis: 1
  }
}
layer {
  name: "classifier"
  type: "InnerProduct"
  bottom: "concat_feat"
  top: "classifier"
  param {
    lr_mult: 1
    decay_mult: 1
  }
  param {
    lr_mult: 2
    decay_mult: 0
  }
  inner_product_param {
    num_output: 2
    weight_filler {
      type: "gaussian"
      std: 0.01
    }
    bias_filler {
      type: "constant"
      value: 0
    }
  }
}
layer {
  name: "classifier/loss"
  type: "SoftmaxWithLoss"
  bottom: "classifier"
  bottom: "sim"
  top: "classifier/loss"
}
layer {
  name: "accuracy"
  type: "Accuracy"
  bottom: "classifier"
  bottom: "sim"
  top: "accuracy"
  include {
    phase: TEST
  }
}
I1104 20:46:31.655299 11574 layer_factory.hpp:77] Creating layer pair_data
I1104 20:46:31.739437 11574 db_lmdb.cpp:35] Opened lmdb /home/hzzone/1tb/id-data/lmdb/siamese_test_lmdb
I1104 20:46:31.739517 11574 net.cpp:84] Creating Layer pair_data
I1104 20:46:31.739542 11574 net.cpp:380] pair_data -> pair_data
I1104 20:46:31.739572 11574 net.cpp:380] pair_data -> sim
[libprotobuf ERROR google/protobuf/io/coded_stream.cc:180] A protocol message was rejected because it was too big (more than 67108864 bytes).  To increase the limit (or to disable these warnings), see CodedInputStream::SetTotalBytesLimit() in google/protobuf/io/coded_stream.h.
[libprotobuf ERROR google/protobuf/io/coded_stream.cc:180] A protocol message was rejected because it was too big (more than 67108864 bytes).  To increase the limit (or to disable these warnings), see CodedInputStream::SetTotalBytesLimit() in google/protobuf/io/coded_stream.h.
I1104 20:46:32.219280 11574 data_layer.cpp:45] output data size: 2,400,270,270
I1104 20:46:32.883193 11574 net.cpp:122] Setting up pair_data
I1104 20:46:32.883234 11574 net.cpp:129] Top shape: 2 400 270 270 (58320000)
I1104 20:46:32.883241 11574 net.cpp:129] Top shape: 2 (2)
I1104 20:46:32.883245 11574 net.cpp:137] Memory required for data: 233280008
I1104 20:46:32.883256 11574 layer_factory.hpp:77] Creating layer sim_pair_data_1_split
I1104 20:46:32.883278 11574 net.cpp:84] Creating Layer sim_pair_data_1_split
I1104 20:46:32.883285 11574 net.cpp:406] sim_pair_data_1_split <- sim
I1104 20:46:32.883298 11574 net.cpp:380] sim_pair_data_1_split -> sim_pair_data_1_split_0
I1104 20:46:32.883312 11574 net.cpp:380] sim_pair_data_1_split -> sim_pair_data_1_split_1
I1104 20:46:32.883322 11574 net.cpp:380] sim_pair_data_1_split -> sim_pair_data_1_split_2
I1104 20:46:32.883628 11574 net.cpp:122] Setting up sim_pair_data_1_split
I1104 20:46:32.883675 11574 net.cpp:129] Top shape: 2 (2)
I1104 20:46:32.883687 11574 net.cpp:129] Top shape: 2 (2)
I1104 20:46:32.883697 11574 net.cpp:129] Top shape: 2 (2)
I1104 20:46:32.883703 11574 net.cpp:137] Memory required for data: 233280032
I1104 20:46:32.883714 11574 layer_factory.hpp:77] Creating layer slice_pair
I1104 20:46:32.883740 11574 net.cpp:84] Creating Layer slice_pair
I1104 20:46:32.883754 11574 net.cpp:406] slice_pair <- pair_data
I1104 20:46:32.883772 11574 net.cpp:380] slice_pair -> data
I1104 20:46:32.883793 11574 net.cpp:380] slice_pair -> data_p
I1104 20:46:32.883872 11574 net.cpp:122] Setting up slice_pair
I1104 20:46:32.883890 11574 net.cpp:129] Top shape: 2 200 270 270 (29160000)
I1104 20:46:32.883904 11574 net.cpp:129] Top shape: 2 200 270 270 (29160000)
I1104 20:46:32.883911 11574 net.cpp:137] Memory required for data: 466560032
I1104 20:46:32.883918 11574 layer_factory.hpp:77] Creating layer conv1
I1104 20:46:32.883939 11574 net.cpp:84] Creating Layer conv1
I1104 20:46:32.883950 11574 net.cpp:406] conv1 <- data
I1104 20:46:32.883962 11574 net.cpp:380] conv1 -> conv1
I1104 20:46:32.888778 11574 net.cpp:122] Setting up conv1
I1104 20:46:32.888891 11574 net.cpp:129] Top shape: 2 64 268 268 (9193472)
I1104 20:46:32.888906 11574 net.cpp:137] Memory required for data: 503333920
I1104 20:46:32.888942 11574 layer_factory.hpp:77] Creating layer pool1
I1104 20:46:32.888969 11574 net.cpp:84] Creating Layer pool1
I1104 20:46:32.888983 11574 net.cpp:406] pool1 <- conv1
I1104 20:46:32.889003 11574 net.cpp:380] pool1 -> pool1
I1104 20:46:32.889122 11574 net.cpp:122] Setting up pool1
I1104 20:46:32.889144 11574 net.cpp:129] Top shape: 2 64 134 134 (2298368)
I1104 20:46:32.889152 11574 net.cpp:137] Memory required for data: 512527392
I1104 20:46:32.889160 11574 layer_factory.hpp:77] Creating layer conv2
I1104 20:46:32.889185 11574 net.cpp:84] Creating Layer conv2
I1104 20:46:32.889247 11574 net.cpp:406] conv2 <- pool1
I1104 20:46:32.889329 11574 net.cpp:380] conv2 -> conv2
I1104 20:46:32.892956 11574 net.cpp:122] Setting up conv2
I1104 20:46:32.893014 11574 net.cpp:129] Top shape: 2 128 132 132 (4460544)
I1104 20:46:32.893021 11574 net.cpp:137] Memory required for data: 530369568
I1104 20:46:32.893050 11574 layer_factory.hpp:77] Creating layer pool2
I1104 20:46:32.893074 11574 net.cpp:84] Creating Layer pool2
I1104 20:46:32.893084 11574 net.cpp:406] pool2 <- conv2
I1104 20:46:32.893101 11574 net.cpp:380] pool2 -> pool2
I1104 20:46:32.893191 11574 net.cpp:122] Setting up pool2
I1104 20:46:32.893208 11574 net.cpp:129] Top shape: 2 128 66 66 (1115136)
I1104 20:46:32.893214 11574 net.cpp:137] Memory required for data: 534830112
I1104 20:46:32.893220 11574 layer_factory.hpp:77] Creating layer ip1
I1104 20:46:32.893239 11574 net.cpp:84] Creating Layer ip1
I1104 20:46:32.893249 11574 net.cpp:406] ip1 <- pool2
I1104 20:46:32.893265 11574 net.cpp:380] ip1 -> ip1
[libprotobuf ERROR google/protobuf/io/coded_stream.cc:180] A protocol message was rejected because it was too big (more than 67108864 bytes).  To increase the limit (or to disable these warnings), see CodedInputStream::SetTotalBytesLimit() in google/protobuf/io/coded_stream.h.
…
[libprotobuf ERROR google/protobuf/io/coded_stream.cc:180] A protocol message was rejected because it was too big (more than 67108864 bytes).  To increase the limit (or to disable these warnings), see CodedInputStream::SetTotalBytesLimit() in google/protobuf/io/coded_stream.h.
[libprotobuf ERROR google/protobuf/io/coded_stream.cc:180] A protocol message was rejected because it was too big (more than 67108864 bytes).  To increase the limit (or to disable these warnings), see CodedInputStream::SetTotalBytesLimit() in google/protobuf/io/coded_stream.h.
I1104 20:46:35.782464 11574 net.cpp:122] Setting up ip1
I1104 20:46:35.782557 11574 net.cpp:129] Top shape: 2 512 (1024)
I1104 20:46:35.782562 11574 net.cpp:137] Memory required for data: 534834208
I1104 20:46:35.782585 11574 layer_factory.hpp:77] Creating layer relu1
I1104 20:46:35.782605 11574 net.cpp:84] Creating Layer relu1
I1104 20:46:35.782627 11574 net.cpp:406] relu1 <- ip1
I1104 20:46:35.782650 11574 net.cpp:367] relu1 -> ip1 (in-place)
I1104 20:46:35.782961 11574 net.cpp:122] Setting up relu1
I1104 20:46:35.782970 11574 net.cpp:129] Top shape: 2 512 (1024)
I1104 20:46:35.782974 11574 net.cpp:137] Memory required for data: 534838304
I1104 20:46:35.782979 11574 layer_factory.hpp:77] Creating layer ip2
I1104 20:46:35.782989 11574 net.cpp:84] Creating Layer ip2
I1104 20:46:35.782994 11574 net.cpp:406] ip2 <- ip1
I1104 20:46:35.783005 11574 net.cpp:380] ip2 -> ip2
I1104 20:46:35.788550 11574 net.cpp:122] Setting up ip2
I1104 20:46:35.788589 11574 net.cpp:129] Top shape: 2 1024 (2048)
I1104 20:46:35.788594 11574 net.cpp:137] Memory required for data: 534846496
I1104 20:46:35.788609 11574 layer_factory.hpp:77] Creating layer feat
I1104 20:46:35.788625 11574 net.cpp:84] Creating Layer feat
I1104 20:46:35.788631 11574 net.cpp:406] feat <- ip2
I1104 20:46:35.788643 11574 net.cpp:380] feat -> feat
I1104 20:46:35.789779 11574 net.cpp:122] Setting up feat
I1104 20:46:35.789790 11574 net.cpp:129] Top shape: 2 128 (256)
I1104 20:46:35.789795 11574 net.cpp:137] Memory required for data: 534847520
I1104 20:46:35.789811 11574 layer_factory.hpp:77] Creating layer feat_feat_0_split
I1104 20:46:35.789821 11574 net.cpp:84] Creating Layer feat_feat_0_split
I1104 20:46:35.789827 11574 net.cpp:406] feat_feat_0_split <- feat
I1104 20:46:35.789835 11574 net.cpp:380] feat_feat_0_split -> feat_feat_0_split_0
I1104 20:46:35.789844 11574 net.cpp:380] feat_feat_0_split -> feat_feat_0_split_1
I1104 20:46:35.789893 11574 net.cpp:122] Setting up feat_feat_0_split
I1104 20:46:35.789939 11574 net.cpp:129] Top shape: 2 128 (256)
I1104 20:46:35.789948 11574 net.cpp:129] Top shape: 2 128 (256)
I1104 20:46:35.789952 11574 net.cpp:137] Memory required for data: 534849568
I1104 20:46:35.789958 11574 layer_factory.hpp:77] Creating layer conv1_p
I1104 20:46:35.789973 11574 net.cpp:84] Creating Layer conv1_p
I1104 20:46:35.789978 11574 net.cpp:406] conv1_p <- data_p
I1104 20:46:35.789988 11574 net.cpp:380] conv1_p -> conv1_p
I1104 20:46:35.793789 11574 net.cpp:122] Setting up conv1_p
I1104 20:46:35.793836 11574 net.cpp:129] Top shape: 2 64 268 268 (9193472)
I1104 20:46:35.793841 11574 net.cpp:137] Memory required for data: 571623456
I1104 20:46:35.793854 11574 net.cpp:465] Sharing parameters 'conv1_w' owned by layer 'conv1', param index 0
I1104 20:46:35.793864 11574 net.cpp:465] Sharing parameters 'conv1_b' owned by layer 'conv1', param index 1
I1104 20:46:35.793870 11574 layer_factory.hpp:77] Creating layer pool1_p
I1104 20:46:35.793889 11574 net.cpp:84] Creating Layer pool1_p
I1104 20:46:35.793897 11574 net.cpp:406] pool1_p <- conv1_p
I1104 20:46:35.793910 11574 net.cpp:380] pool1_p -> pool1_p
I1104 20:46:35.794008 11574 net.cpp:122] Setting up pool1_p
I1104 20:46:35.794016 11574 net.cpp:129] Top shape: 2 64 134 134 (2298368)
I1104 20:46:35.794020 11574 net.cpp:137] Memory required for data: 580816928
I1104 20:46:35.794026 11574 layer_factory.hpp:77] Creating layer conv2_p
I1104 20:46:35.794047 11574 net.cpp:84] Creating Layer conv2_p
I1104 20:46:35.794054 11574 net.cpp:406] conv2_p <- pool1_p
I1104 20:46:35.794064 11574 net.cpp:380] conv2_p -> conv2_p
I1104 20:46:35.796321 11574 net.cpp:122] Setting up conv2_p
I1104 20:46:35.796350 11574 net.cpp:129] Top shape: 2 128 132 132 (4460544)
I1104 20:46:35.796356 11574 net.cpp:137] Memory required for data: 598659104
I1104 20:46:35.796366 11574 net.cpp:465] Sharing parameters 'conv2_w' owned by layer 'conv2', param index 0
I1104 20:46:35.796375 11574 net.cpp:465] Sharing parameters 'conv2_b' owned by layer 'conv2', param index 1
I1104 20:46:35.796381 11574 layer_factory.hpp:77] Creating layer pool2_p
I1104 20:46:35.796396 11574 net.cpp:84] Creating Layer pool2_p
I1104 20:46:35.796486 11574 net.cpp:406] pool2_p <- conv2_p
I1104 20:46:35.796512 11574 net.cpp:380] pool2_p -> pool2_p
I1104 20:46:35.796581 11574 net.cpp:122] Setting up pool2_p
I1104 20:46:35.796589 11574 net.cpp:129] Top shape: 2 128 66 66 (1115136)
I1104 20:46:35.796594 11574 net.cpp:137] Memory required for data: 603119648
I1104 20:46:35.796599 11574 layer_factory.hpp:77] Creating layer ip1_p
I1104 20:46:35.796618 11574 net.cpp:84] Creating Layer ip1_p
I1104 20:46:35.796623 11574 net.cpp:406] ip1_p <- pool2_p
I1104 20:46:35.796633 11574 net.cpp:380] ip1_p -> ip1_p
[libprotobuf ERROR google/protobuf/io/coded_stream.cc:180] A protocol message was rejected because it was too big (more than 67108864 bytes).  To increase the limit (or to disable these warnings), see CodedInputStream::SetTotalBytesLimit() in google/protobuf/io/coded_stream.h.
[libprotobuf ERROR google/protobuf/io/coded_stream.cc:180] A protocol message was rejected because it was too big (more than 67108864 bytes).  To increase the limit (or to disable these warnings), see CodedInputStream::SetTotalBytesLimit() in google/protobuf/io/coded_stream.h.
I1104 20:46:38.499096 11574 net.cpp:122] Setting up ip1_p
I1104 20:46:38.499147 11574 net.cpp:129] Top shape: 2 512 (1024)
I1104 20:46:38.499153 11574 net.cpp:137] Memory required for data: 603123744
I1104 20:46:38.499166 11574 net.cpp:465] Sharing parameters 'ip1_w' owned by layer 'ip1', param index 0
I1104 20:46:38.499174 11574 net.cpp:465] Sharing parameters 'ip1_b' owned by layer 'ip1', param index 1
I1104 20:46:38.499181 11574 layer_factory.hpp:77] Creating layer relu1_p
I1104 20:46:38.499197 11574 net.cpp:84] Creating Layer relu1_p
I1104 20:46:38.499203 11574 net.cpp:406] relu1_p <- ip1_p
I1104 20:46:38.499217 11574 net.cpp:367] relu1_p -> ip1_p (in-place)
I1104 20:46:38.499522 11574 net.cpp:122] Setting up relu1_p
I1104 20:46:38.499531 11574 net.cpp:129] Top shape: 2 512 (1024)
I1104 20:46:38.499536 11574 net.cpp:137] Memory required for data: 603127840
I1104 20:46:38.499542 11574 layer_factory.hpp:77] Creating layer ip2_p
I1104 20:46:38.499553 11574 net.cpp:84] Creating Layer ip2_p
I1104 20:46:38.499558 11574 net.cpp:406] ip2_p <- ip1_p
I1104 20:46:38.499568 11574 net.cpp:380] ip2_p -> ip2_p
I1104 20:46:38.505242 11574 net.cpp:122] Setting up ip2_p
I1104 20:46:38.505291 11574 net.cpp:129] Top shape: 2 1024 (2048)
I1104 20:46:38.505298 11574 net.cpp:137] Memory required for data: 603136032
I1104 20:46:38.505323 11574 net.cpp:465] Sharing parameters 'ip2_w' owned by layer 'ip2', param index 0
I1104 20:46:38.505334 11574 net.cpp:465] Sharing parameters 'ip2_b' owned by layer 'ip2', param index 1
I1104 20:46:38.505342 11574 layer_factory.hpp:77] Creating layer feat_p
I1104 20:46:38.505378 11574 net.cpp:84] Creating Layer feat_p
I1104 20:46:38.505385 11574 net.cpp:406] feat_p <- ip2_p
I1104 20:46:38.505405 11574 net.cpp:380] feat_p -> feat_p
I1104 20:46:38.506552 11574 net.cpp:122] Setting up feat_p
I1104 20:46:38.506563 11574 net.cpp:129] Top shape: 2 128 (256)
I1104 20:46:38.506568 11574 net.cpp:137] Memory required for data: 603137056
I1104 20:46:38.506574 11574 net.cpp:465] Sharing parameters 'feat_w' owned by layer 'feat', param index 0
I1104 20:46:38.506580 11574 net.cpp:465] Sharing parameters 'feat_b' owned by layer 'feat', param index 1
I1104 20:46:38.506585 11574 layer_factory.hpp:77] Creating layer feat_p_feat_p_0_split
I1104 20:46:38.506593 11574 net.cpp:84] Creating Layer feat_p_feat_p_0_split
I1104 20:46:38.506598 11574 net.cpp:406] feat_p_feat_p_0_split <- feat_p
I1104 20:46:38.506605 11574 net.cpp:380] feat_p_feat_p_0_split -> feat_p_feat_p_0_split_0
I1104 20:46:38.506615 11574 net.cpp:380] feat_p_feat_p_0_split -> feat_p_feat_p_0_split_1
I1104 20:46:38.506664 11574 net.cpp:122] Setting up feat_p_feat_p_0_split
I1104 20:46:38.506675 11574 net.cpp:129] Top shape: 2 128 (256)
I1104 20:46:38.506680 11574 net.cpp:129] Top shape: 2 128 (256)
I1104 20:46:38.506685 11574 net.cpp:137] Memory required for data: 603139104
I1104 20:46:38.506690 11574 layer_factory.hpp:77] Creating layer loss
I1104 20:46:38.506700 11574 net.cpp:84] Creating Layer loss
I1104 20:46:38.506705 11574 net.cpp:406] loss <- feat_feat_0_split_0
I1104 20:46:38.506711 11574 net.cpp:406] loss <- feat_p_feat_p_0_split_0
I1104 20:46:38.506716 11574 net.cpp:406] loss <- sim_pair_data_1_split_0
I1104 20:46:38.506726 11574 net.cpp:380] loss -> loss
I1104 20:46:38.506835 11574 net.cpp:122] Setting up loss
I1104 20:46:38.506844 11574 net.cpp:129] Top shape: (1)
I1104 20:46:38.506847 11574 net.cpp:132]     with loss weight 1
I1104 20:46:38.506868 11574 net.cpp:137] Memory required for data: 603139108
I1104 20:46:38.506896 11574 layer_factory.hpp:77] Creating layer concat_feat
I1104 20:46:38.506904 11574 net.cpp:84] Creating Layer concat_feat
I1104 20:46:38.506909 11574 net.cpp:406] concat_feat <- feat_feat_0_split_1
I1104 20:46:38.506916 11574 net.cpp:406] concat_feat <- feat_p_feat_p_0_split_1
I1104 20:46:38.506924 11574 net.cpp:380] concat_feat -> concat_feat
I1104 20:46:38.506954 11574 net.cpp:122] Setting up concat_feat
I1104 20:46:38.506963 11574 net.cpp:129] Top shape: 2 256 (512)
I1104 20:46:38.506968 11574 net.cpp:137] Memory required for data: 603141156
I1104 20:46:38.506973 11574 layer_factory.hpp:77] Creating layer classifier
I1104 20:46:38.506980 11574 net.cpp:84] Creating Layer classifier
I1104 20:46:38.506985 11574 net.cpp:406] classifier <- concat_feat
I1104 20:46:38.506992 11574 net.cpp:380] classifier -> classifier
I1104 20:46:38.507114 11574 net.cpp:122] Setting up classifier
I1104 20:46:38.507122 11574 net.cpp:129] Top shape: 2 2 (4)
I1104 20:46:38.507127 11574 net.cpp:137] Memory required for data: 603141172
I1104 20:46:38.507136 11574 layer_factory.hpp:77] Creating layer classifier_classifier_0_split
I1104 20:46:38.507164 11574 net.cpp:84] Creating Layer classifier_classifier_0_split
I1104 20:46:38.507181 11574 net.cpp:406] classifier_classifier_0_split <- classifier
I1104 20:46:38.507202 11574 net.cpp:380] classifier_classifier_0_split -> classifier_classifier_0_split_0
I1104 20:46:38.507225 11574 net.cpp:380] classifier_classifier_0_split -> classifier_classifier_0_split_1
I1104 20:46:38.507284 11574 net.cpp:122] Setting up classifier_classifier_0_split
I1104 20:46:38.507292 11574 net.cpp:129] Top shape: 2 2 (4)
I1104 20:46:38.507298 11574 net.cpp:129] Top shape: 2 2 (4)
I1104 20:46:38.507302 11574 net.cpp:137] Memory required for data: 603141204
I1104 20:46:38.507308 11574 layer_factory.hpp:77] Creating layer classifier/loss
I1104 20:46:38.507316 11574 net.cpp:84] Creating Layer classifier/loss
I1104 20:46:38.507321 11574 net.cpp:406] classifier/loss <- classifier_classifier_0_split_0
I1104 20:46:38.507328 11574 net.cpp:406] classifier/loss <- sim_pair_data_1_split_1
…
