…
solver_mode: GPU
device_id: 0
net: "./3d_lenet_siamese.ptototxt"
train_state {
  level: 0
  stage: ""
}
I1108 19:04:29.944044  5309 solver.cpp:87] Creating training net from net file: ./3d_lenet_siamese.ptototxt
I1108 19:04:29.944948  5309 net.cpp:51] Initializing net from parameters: 
name: "C3D-UCF101Net"
state {
  phase: TRAIN
  level: 0
  stage: ""
}
layer {
  name: "pair_data"
  type: "HDF5Data"
  top: "pair_data"
  top: "sim"
  include {
    phase: TRAIN
  }
  hdf5_data_param {
    source: "./train.txt"
    batch_size: 3
    shuffle: true
  }
}
layer {
  name: "slice_pair"
  type: "Slice"
  bottom: "pair_data"
  top: "data"
  top: "data_p"
  slice_param {
    slice_dim: 2
    slice_point: 40
  }
}
layer {
  name: "conv1a"
  type: "Convolution3D"
  bottom: "data"
  top: "conv1a"
  param {
    name: "conv1a_w"
    lr_mult: 1
    decay_mult: 1
  }
  param {
    name: "conv1a_b"
    lr_mult: 2
    decay_mult: 0
  }
  convolution3d_param {
    num_output: 64
    pad: 1
    kernel_size: 3
    kernel_depth: 3
    stride: 1
    temporal_stride: 1
    weight_filler {
      type: "gaussian"
      std: 0.01
    }
    bias_filler {
      type: "constant"
      value: 0
    }
    temporal_pad: 1
  }
}
layer {
  name: "relu1a"
  type: "ReLU"
  bottom: "conv1a"
  top: "conv1a"
}
layer {
  name: "pool1"
  type: "Pooling3D"
  bottom: "conv1a"
  top: "pool1"
  pooling3d_param {
    pool: MAX
    kernel_size: 2
    stride: 2
    kernel_depth: 1
    temporal_stride: 1
  }
}
layer {
  name: "conv2a"
  type: "Convolution3D"
  bottom: "pool1"
  top: "conv2a"
  param {
    name: "conv2a_w"
    lr_mult: 1
    decay_mult: 1
  }
  param {
    name: "conv2a_b"
    lr_mult: 2
    decay_mult: 0
  }
  convolution3d_param {
    num_output: 128
    pad: 1
    kernel_size: 3
    kernel_depth: 3
    stride: 1
    temporal_stride: 1
    weight_filler {
      type: "gaussian"
      std: 0.01
    }
    bias_filler {
      type: "constant"
      value: 1
    }
    temporal_pad: 1
  }
}
layer {
  name: "relu2a"
  type: "ReLU"
  bottom: "conv2a"
  top: "conv2a"
}
layer {
  name: "pool2"
  type: "Pooling3D"
  bottom: "conv2a"
  top: "pool2"
  pooling3d_param {
    pool: MAX
    kernel_size: 2
    stride: 2
    kernel_depth: 2
    temporal_stride: 2
  }
}
layer {
  name: "conv3a"
  type: "Convolution3D"
  bottom: "pool2"
  top: "conv3a"
  param {
    name: "conv3a_w"
    lr_mult: 1
    decay_mult: 1
  }
  param {
    name: "conv3a_b"
    lr_mult: 2
    decay_mult: 0
  }
  convolution3d_param {
    num_output: 256
    pad: 1
    kernel_size: 3
    kernel_depth: 3
    stride: 1
    temporal_stride: 1
    weight_filler {
      type: "gaussian"
      std: 0.01
    }
    bias_filler {
      type: "constant"
      value: 1
    }
    temporal_pad: 1
  }
}
layer {
  name: "relu3a"
  type: "ReLU"
  bottom: "conv3a"
  top: "conv3a"
}
layer {
  name: "pool3"
  type: "Pooling3D"
  bottom: "conv3a"
  top: "pool3"
  pooling3d_param {
    pool: MAX
    kernel_size: 2
    stride: 2
    kernel_depth: 2
    temporal_stride: 2
  }
}
layer {
  name: "conv4a"
  type: "Convolution3D"
  bottom: "pool3"
  top: "conv4a"
  param {
    name: "conv4a_w"
    lr_mult: 1
    decay_mult: 1
  }
  param {
    name: "conv4a_b"
    lr_mult: 2
    decay_mult: 0
  }
  convolution3d_param {
    num_output: 256
    pad: 1
    kernel_size: 3
    kernel_depth: 3
    stride: 1
    temporal_stride: 1
    weight_filler {
      type: "gaussian"
      std: 0.01
    }
    bias_filler {
      type: "constant"
      value: 1
    }
    temporal_pad: 1
  }
}
layer {
  name: "relu4a"
  type: "ReLU"
  bottom: "conv4a"
  top: "conv4a"
}
layer {
  name: "pool4"
  type: "Pooling3D"
  bottom: "conv4a"
  top: "pool4"
  pooling3d_param {
    pool: MAX
    kernel_size: 2
    stride: 2
    kernel_depth: 2
    temporal_stride: 2
  }
}
layer {
  name: "conv5a"
  type: "Convolution3D"
  bottom: "pool4"
  top: "conv5a"
  param {
    name: "conv5a_w"
    lr_mult: 1
    decay_mult: 1
  }
  param {
    name: "conv5a_b"
    lr_mult: 2
    decay_mult: 0
  }
  convolution3d_param {
    num_output: 256
    pad: 1
    kernel_size: 3
    kernel_depth: 3
    stride: 1
    temporal_stride: 1
    weight_filler {
      type: "gaussian"
      std: 0.01
    }
    bias_filler {
      type: "constant"
      value: 1
    }
    temporal_pad: 1
  }
}
layer {
  name: "relu5a"
  type: "ReLU"
  bottom: "conv5a"
  top: "conv5a"
}
layer {
  name: "pool5"
  type: "Pooling3D"
  bottom: "conv5a"
  top: "pool5"
  pooling3d_param {
    pool: MAX
    kernel_size: 2
    stride: 2
    kernel_depth: 2
    temporal_stride: 2
  }
}
layer {
  name: "fc6"
  type: "InnerProduct"
  bottom: "pool5"
  top: "fc6"
  param {
    name: "fc6_w"
    lr_mult: 1
    decay_mult: 1
  }
  param {
    name: "fc6_b"
    lr_mult: 2
    decay_mult: 0
  }
  inner_product_param {
    num_output: 2048
    weight_filler {
      type: "gaussian"
      std: 0.005
    }
    bias_filler {
      type: "constant"
      value: 1
    }
  }
}
layer {
  name: "relu6"
  type: "ReLU"
  bottom: "fc6"
  top: "fc6"
}
layer {
  name: "drop6"
  type: "Dropout"
  bottom: "fc6"
  top: "fc6"
  dropout_param {
    dropout_ratio: 0.5
  }
}
layer {
  name: "fc7"
  type: "InnerProduct"
  bottom: "fc6"
  top: "fc7"
  param {
    name: "fc7_w"
    lr_mult: 1
    decay_mult: 1
  }
  param {
    name: "fc7_b"
    lr_mult: 2
    decay_mult: 0
  }
  inner_product_param {
    num_output: 2048
    weight_filler {
      type: "gaussian"
      std: 0.005
    }
    bias_filler {
      type: "constant"
      value: 1
    }
  }
}
layer {
  name: "relu7"
  type: "ReLU"
  bottom: "fc7"
  top: "fc7"
}
layer {
  name: "drop7"
  type: "Dropout"
  bottom: "fc7"
  top: "fc7"
  dropout_param {
    dropout_ratio: 0.5
  }
}
layer {
  name: "fc8"
  type: "InnerProduct"
  bottom: "fc7"
  top: "fc8"
  param {
    name: "fc8_w"
    lr_mult: 1
    decay_mult: 1
  }
  param {
    name: "fc8_b"
    lr_mult: 2
    decay_mult: 0
  }
  inner_product_param {
    num_output: 101
    weight_filler {
      type: "gaussian"
      std: 0.01
    }
    bias_filler {
      type: "constant"
      value: 0
    }
  }
}
layer {
  name: "conv1a_p"
  type: "Convolution3D"
  bottom: "data_p"
  top: "conv1a_p"
  param {
    name: "conv1a_w"
    lr_mult: 1
    decay_mult: 1
  }
  param {
    name: "conv1a_b"
    lr_mult: 2
    decay_mult: 0
  }
  convolution3d_param {
    num_output: 64
    pad: 1
    kernel_size: 3
    kernel_depth: 3
    stride: 1
    temporal_stride: 1
    weight_filler {
      type: "gaussian"
      std: 0.01
    }
    bias_filler {
      type: "constant"
      value: 0
    }
    temporal_pad: 1
  }
}
layer {
  name: "relu1a_p"
  type: "ReLU"
  bottom: "conv1a_p"
  top: "conv1a_p"
}
layer {
  name: "pool1_p"
  type: "Pooling3D"
  bottom: "conv1a_p"
  top: "pool1_p"
  pooling3d_param {
    pool: MAX
    kernel_size: 2
    stride: 2
    kernel_depth: 1
    temporal_stride: 1
  }
}
layer {
  name: "conv2a_p"
  type: "Convolution3D"
  bottom: "pool1_p"
  top: "conv2a_p"
  param {
    name: "conv2a_w"
    lr_mult: 1
    decay_mult: 1
  }
  param {
    name: "conv2a_b"
    lr_mult: 2
    decay_mult: 0
  }
  convolution3d_param {
    num_output: 128
    pad: 1
    kernel_size: 3
    kernel_depth: 3
    stride: 1
    temporal_stride: 1
    weight_filler {
      type: "gaussian"
      std: 0.01
    }
    bias_filler {
      type: "constant"
      value: 1
    }
    temporal_pad: 1
  }
}
layer {
  name: "relu2a_p"
  type: "ReLU"
  bottom: "conv2a_p"
  top: "conv2a_p"
}
layer {
  name: "pool2_p"
  type: "Pooling3D"
  bottom: "conv2a_p"
  top: "pool2_p"
  pooling3d_param {
    pool: MAX
    kernel_size: 2
    stride: 2
    kernel_depth: 2
    temporal_stride: 2
  }
}
layer {
  name: "conv3a_p"
  type: "Convolution3D"
  bottom: "pool2_p"
  top: "conv3a_p"
  param {
    name: "conv3a_w"
    lr_mult: 1
    decay_mult: 1
  }
  param {
    name: "conv3a_b"
    lr_mult: 2
    decay_mult: 0
  }
  convolution3d_param {
    num_output: 256
    pad: 1
    kernel_size: 3
    kernel_depth: 3
    stride: 1
    temporal_stride: 1
    weight_filler {
      type: "gaussian"
      std: 0.01
    }
    bias_filler {
      type: "constant"
      value: 1
    }
    temporal_pad: 1
  }
}
layer {
  name: "relu3a_p"
  type: "ReLU"
  bottom: "conv3a_p"
  top: "conv3a_p"
}
layer {
  name: "pool3_p"
  type: "Pooling3D"
  bottom: "conv3a_p"
  top: "pool3_p"
  pooling3d_param {
    pool: MAX
    kernel_size: 2
    stride: 2
    kernel_depth: 2
    temporal_stride: 2
  }
}
layer {
  name: "conv4a_p"
  type: "Convolution3D"
  bottom: "pool3_p"
  top: "conv4a_p"
  param {
    name: "conv4a_w"
    lr_mult: 1
    decay_mult: 1
  }
  param {
    name: "conv4a_b"
    lr_mult: 2
    decay_mult: 0
  }
  convolution3d_param {
    num_output: 256
    pad: 1
    kernel_size: 3
    kernel_depth: 3
    stride: 1
    temporal_stride: 1
    weight_filler {
      type: "gaussian"
      std: 0.01
    }
    bias_filler {
      type: "constant"
      value: 1
    }
    temporal_pad: 1
  }
}
layer {
  name: "relu4a_p"
  type: "ReLU"
  bottom: "conv4a_p"
  top: "conv4a_p"
}
layer {
  name: "pool4_p"
  type: "Pooling3D"
  bottom: "conv4a_p"
  top: "pool4_p"
  pooling3d_param {
    pool: MAX
    kernel_size: 2
    stride: 2
    kernel_depth: 2
    temporal_stride: 2
  }
}
layer {
  name: "conv5a_p"
  type: "Convolution3D"
  bottom: "pool4_p"
  top: "conv5a_p"
  param {
    name: "conv5a_w"
    lr_mult: 1
    decay_mult: 1
  }
  param {
    name: "conv5a_b"
    lr_mult: 2
    decay_mult: 0
  }
  convolution3d_param {
    num_output: 256
    pad: 1
    kernel_size: 3
    kernel_depth: 3
    stride: 1
    temporal_stride: 1
    weight_filler {
      type: "gaussian"
      std: 0.01
    }
    bias_filler {
      type: "constant"
      value: 1
    }
    temporal_pad: 1
  }
}
layer {
  name: "relu5a_p"
  type: "ReLU"
  bottom: "conv5a_p"
  top: "conv5a_p"
}
layer {
  name: "pool5_p"
  type: "Pooling3D"
  bottom: "conv5a_p"
  top: "pool5_p"
  pooling3d_param {
    pool: MAX
    kernel_size: 2
    stride: 2
    kernel_depth: 2
    temporal_stride: 2
  }
}
layer {
  name: "fc6_p"
  type: "InnerProduct"
  bottom: "pool5_p"
  top: "fc6_p"
  param {
    name: "fc6_w"
    lr_mult: 1
    decay_mult: 1
  }
  param {
    name: "fc6_b"
    lr_mult: 2
    decay_mult: 0
  }
  inner_product_param {
    num_output: 2048
    weight_filler {
      type: "gaussian"
      std: 0.005
    }
    bias_filler {
      type: "constant"
      value: 1
    }
  }
}
layer {
  name: "relu6_p"
  type: "ReLU"
  bottom: "fc6_p"
  top: "fc6_p"
}
layer {
  name: "drop6_p"
  type: "Dropout"
  bottom: "fc6_p"
  top: "fc6_p"
  dropout_param {
    dropout_ratio: 0.5
  }
}
layer {
  name: "fc7_p"
  type: "InnerProduct"
  bottom: "fc6_p"
  top: "fc7_p"
  param {
    name: "fc7_w"
    lr_mult: 1
    decay_mult: 1
  }
  param {
    name: "fc7_b"
    lr_mult: 2
    decay_mult: 0
  }
  inner_product_param {
    num_output: 2048
    weight_filler {
      type: "gaussian"
      std: 0.005
    }
    bias_filler {
      type: "constant"
      value: 1
    }
  }
}
layer {
  name: "relu7_p"
  type: "ReLU"
  bottom: "fc7_p"
  top: "fc7_p"
}
layer {
  name: "drop7_p"
  type: "Dropout"
  bottom: "fc7_p"
  top: "fc7_p"
  dropout_param {
    dropout_ratio: 0.5
  }
}
layer {
  name: "fc8_p"
  type: "InnerProduct"
  bottom: "fc7_p"
  top: "fc8_p"
  param {
    name: "fc8_w"
    lr_mult: 1
    decay_mult: 1
  }
  param {
    name: "fc8_b"
    lr_mult: 2
    decay_mult: 0
  }
  inner_product_param {
    num_output: 101
    weight_filler {
      type: "gaussian"
      std: 0.01
    }
    bias_filler {
      type: "constant"
      value: 0
    }
  }
}
layer {
  name: "loss"
  type: "ContrastiveLoss"
  bottom: "fc8"
  bottom: "fc8_p"
  bottom: "sim"
  top: "loss"
  contrastive_loss_param {
    margin: 1
  }
}
I1108 19:04:29.945166  5309 layer_factory.hpp:77] Creating layer pair_data
I1108 19:04:29.945183  5309 net.cpp:84] Creating Layer pair_data
I1108 19:04:29.945191  5309 net.cpp:380] pair_data -> pair_data
I1108 19:04:29.945222  5309 net.cpp:380] pair_data -> sim
I1108 19:04:29.945236  5309 hdf5_data_layer.cpp:79] Loading list of HDF5 filenames from: ./train.txt
I1108 19:04:29.945358  5309 hdf5_data_layer.cpp:93] Number of HDF5 files: 166
I1108 19:04:29.946588  5309 hdf5.cpp:32] Datatype class: H5T_FLOAT
I1108 19:04:29.958139  5309 net.cpp:122] Setting up pair_data
I1108 19:04:29.958189  5309 net.cpp:129] Top shape: 3 1 80 120 120 (3456000)
I1108 19:04:29.958197  5309 net.cpp:129] Top shape: 3 (3)
I1108 19:04:29.958202  5309 net.cpp:137] Memory required for data: 13824012
I1108 19:04:29.958215  5309 layer_factory.hpp:77] Creating layer slice_pair
I1108 19:04:29.958240  5309 net.cpp:84] Creating Layer slice_pair
I1108 19:04:29.958247  5309 net.cpp:406] slice_pair <- pair_data
I1108 19:04:29.958268  5309 net.cpp:380] slice_pair -> data
I1108 19:04:29.958287  5309 net.cpp:380] slice_pair -> data_p
I1108 19:04:29.958328  5309 net.cpp:122] Setting up slice_pair
I1108 19:04:29.958336  5309 net.cpp:129] Top shape: 3 1 40 120 120 (1728000)
I1108 19:04:29.958344  5309 net.cpp:129] Top shape: 3 1 40 120 120 (1728000)
I1108 19:04:29.958348  5309 net.cpp:137] Memory required for data: 27648012
I1108 19:04:29.958354  5309 layer_factory.hpp:77] Creating layer conv1a
I1108 19:04:29.958370  5309 net.cpp:84] Creating Layer conv1a
I1108 19:04:29.958375  5309 net.cpp:406] conv1a <- data
I1108 19:04:29.958385  5309 net.cpp:380] conv1a -> conv1a
I1108 19:04:29.963392  5309 net.cpp:122] Setting up conv1a
I1108 19:04:29.963520  5309 net.cpp:129] Top shape: 3 64 40 120 120 (110592000)
I1108 19:04:29.963538  5309 net.cpp:137] Memory required for data: 470016012
I1108 19:04:29.963582  5309 layer_factory.hpp:77] Creating layer relu1a
I1108 19:04:29.963609  5309 net.cpp:84] Creating Layer relu1a
I1108 19:04:29.963626  5309 net.cpp:406] relu1a <- conv1a
I1108 19:04:29.963647  5309 net.cpp:367] relu1a -> conv1a (in-place)
I1108 19:04:29.963671  5309 net.cpp:122] Setting up relu1a
I1108 19:04:29.963688  5309 net.cpp:129] Top shape: 3 64 40 120 120 (110592000)
I1108 19:04:29.963702  5309 net.cpp:137] Memory required for data: 912384012
I1108 19:04:29.963717  5309 layer_factory.hpp:77] Creating layer pool1
I1108 19:04:29.963738  5309 net.cpp:84] Creating Layer pool1
I1108 19:04:29.963753  5309 net.cpp:406] pool1 <- conv1a
I1108 19:04:29.963770  5309 net.cpp:380] pool1 -> pool1
I1108 19:04:29.963866  5309 net.cpp:122] Setting up pool1
I1108 19:04:29.963886  5309 net.cpp:129] Top shape: 3 64 40 60 60 (27648000)
I1108 19:04:29.963899  5309 net.cpp:137] Memory required for data: 1022976012
I1108 19:04:29.963913  5309 layer_factory.hpp:77] Creating layer conv2a
I1108 19:04:29.963935  5309 net.cpp:84] Creating Layer conv2a
I1108 19:04:29.963949  5309 net.cpp:406] conv2a <- pool1
I1108 19:04:29.963968  5309 net.cpp:380] conv2a -> conv2a
I1108 19:04:29.968685  5309 net.cpp:122] Setting up conv2a
I1108 19:04:29.968757  5309 net.cpp:129] Top shape: 3 128 40 60 60 (55296000)
I1108 19:04:29.968775  5309 net.cpp:137] Memory required for data: 1244160012
I1108 19:04:29.968804  5309 layer_factory.hpp:77] Creating layer relu2a
I1108 19:04:29.968829  5309 net.cpp:84] Creating Layer relu2a
I1108 19:04:29.968845  5309 net.cpp:406] relu2a <- conv2a
I1108 19:04:29.968865  5309 net.cpp:367] relu2a -> conv2a (in-place)
I1108 19:04:29.968888  5309 net.cpp:122] Setting up relu2a
I1108 19:04:29.968904  5309 net.cpp:129] Top shape: 3 128 40 60 60 (55296000)
I1108 19:04:29.968919  5309 net.cpp:137] Memory required for data: 1465344012
I1108 19:04:29.968933  5309 layer_factory.hpp:77] Creating layer pool2
I1108 19:04:29.968952  5309 net.cpp:84] Creating Layer pool2
I1108 19:04:29.968966  5309 net.cpp:406] pool2 <- conv2a
I1108 19:04:29.968983  5309 net.cpp:380] pool2 -> pool2
I1108 19:04:29.969022  5309 net.cpp:122] Setting up pool2
I1108 19:04:29.969038  5309 net.cpp:129] Top shape: 3 128 20 30 30 (6912000)
I1108 19:04:29.969053  5309 net.cpp:137] Memory required for data: 1492992012
I1108 19:04:29.969065  5309 layer_factory.hpp:77] Creating layer conv3a
I1108 19:04:29.969102  5309 net.cpp:84] Creating Layer conv3a
I1108 19:04:29.969130  5309 net.cpp:406] conv3a <- pool2
I1108 19:04:29.969147  5309 net.cpp:380] conv3a -> conv3a
I1108 19:04:29.983286  5309 net.cpp:122] Setting up conv3a
I1108 19:04:29.983338  5309 net.cpp:129] Top shape: 3 256 20 30 30 (13824000)
I1108 19:04:29.983343  5309 net.cpp:137] Memory required for data: 1548288012
I1108 19:04:29.983371  5309 layer_factory.hpp:77] Creating layer relu3a
I1108 19:04:29.983387  5309 net.cpp:84] Creating Layer relu3a
I1108 19:04:29.983394  5309 net.cpp:406] relu3a <- conv3a
I1108 19:04:29.983405  5309 net.cpp:367] relu3a -> conv3a (in-place)
I1108 19:04:29.983419  5309 net.cpp:122] Setting up relu3a
I1108 19:04:29.983428  5309 net.cpp:129] Top shape: 3 256 20 30 30 (13824000)
I1108 19:04:29.983433  5309 net.cpp:137] Memory required for data: 1603584012
I1108 19:04:29.983438  5309 layer_factory.hpp:77] Creating layer pool3
I1108 19:04:29.983448  5309 net.cpp:84] Creating Layer pool3
I1108 19:04:29.983453  5309 net.cpp:406] pool3 <- conv3a
I1108 19:04:29.983461  5309 net.cpp:380] pool3 -> pool3
I1108 19:04:29.983500  5309 net.cpp:122] Setting up pool3
I1108 19:04:29.983508  5309 net.cpp:129] Top shape: 3 256 10 15 15 (1728000)
I1108 19:04:29.983515  5309 net.cpp:137] Memory required for data: 1610496012
I1108 19:04:29.983520  5309 layer_factory.hpp:77] Creating layer conv4a
I1108 19:04:29.983531  5309 net.cpp:84] Creating Layer conv4a
I1108 19:04:29.983538  5309 net.cpp:406] conv4a <- pool3
I1108 19:04:29.983546  5309 net.cpp:380] conv4a -> conv4a
I1108 19:04:30.007262  5309 net.cpp:122] Setting up conv4a
I1108 19:04:30.007304  5309 net.cpp:129] Top shape: 3 256 10 15 15 (1728000)
I1108 19:04:30.007309  5309 net.cpp:137] Memory required for data: 1617408012
I1108 19:04:30.007326  5309 layer_factory.hpp:77] Creating layer relu4a
I1108 19:04:30.007340  5309 net.cpp:84] Creating Layer relu4a
I1108 19:04:30.007349  5309 net.cpp:406] relu4a <- conv4a
I1108 19:04:30.007359  5309 net.cpp:367] relu4a -> conv4a (in-place)
I1108 19:04:30.007370  5309 net.cpp:122] Setting up relu4a
I1108 19:04:30.007377  5309 net.cpp:129] Top shape: 3 256 10 15 15 (1728000)
I1108 19:04:30.007382  5309 net.cpp:137] Memory required for data: 1624320012
I1108 19:04:30.007387  5309 layer_factory.hpp:77] Creating layer pool4
I1108 19:04:30.007397  5309 net.cpp:84] Creating Layer pool4
I1108 19:04:30.007403  5309 net.cpp:406] pool4 <- conv4a
I1108 19:04:30.007411  5309 net.cpp:380] pool4 -> pool4
I1108 19:04:30.007431  5309 net.cpp:122] Setting up pool4
I1108 19:04:30.007441  5309 net.cpp:129] Top shape: 3 256 5 8 8 (245760)
I1108 19:04:30.007446  5309 net.cpp:137] Memory required for data: 1625303052
I1108 19:04:30.007450  5309 layer_factory.hpp:77] Creating layer conv5a
I1108 19:04:30.007462  5309 net.cpp:84] Creating Layer conv5a
I1108 19:04:30.007498  5309 net.cpp:406] conv5a <- pool4
I1108 19:04:30.007506  5309 net.cpp:380] conv5a -> conv5a
I1108 19:04:30.033113  5309 net.cpp:122] Setting up conv5a
I1108 19:04:30.033161  5309 net.cpp:129] Top shape: 3 256 5 8 8 (245760)
I1108 19:04:30.033166  5309 net.cpp:137] Memory required for data: 1626286092
I1108 19:04:30.033200  5309 layer_factory.hpp:77] Creating layer relu5a
I1108 19:04:30.033215  5309 net.cpp:84] Creating Layer relu5a
I1108 19:04:30.033232  5309 net.cpp:406] relu5a <- conv5a
I1108 19:04:30.033243  5309 net.cpp:367] relu5a -> conv5a (in-place)
I1108 19:04:30.033258  5309 net.cpp:122] Setting up relu5a
I1108 19:04:30.033270  5309 net.cpp:129] Top shape: 3 256 5 8 8 (245760)
I1108 19:04:30.033275  5309 net.cpp:137] Memory required for data: 1627269132
I1108 19:04:30.033280  5309 layer_factory.hpp:77] Creating layer pool5
I1108 19:04:30.033293  5309 net.cpp:84] Creating Layer pool5
I1108 19:04:30.033303  5309 net.cpp:406] pool5 <- conv5a
I1108 19:04:30.033313  5309 net.cpp:380] pool5 -> pool5
I1108 19:04:30.033359  5309 net.cpp:122] Setting up pool5
I1108 19:04:30.033368  5309 net.cpp:129] Top shape: 3 256 3 4 4 (36864)
I1108 19:04:30.033375  5309 net.cpp:137] Memory required for data: 1627416588
I1108 19:04:30.033414  5309 layer_factory.hpp:77] Creating layer fc6
I1108 19:04:30.033427  5309 net.cpp:84] Creating Layer fc6
I1108 19:04:30.033434  5309 net.cpp:406] fc6 <- pool5
I1108 19:04:30.033442  5309 net.cpp:380] fc6 -> fc6
I1108 19:04:30.359378  5309 net.cpp:122] Setting up fc6
I1108 19:04:30.359417  5309 net.cpp:129] Top shape: 3 2048 (6144)
I1108 19:04:30.359423  5309 net.cpp:137] Memory required for data: 1627441164
I1108 19:04:30.359438  5309 layer_factory.hpp:77] Creating layer relu6
I1108 19:04:30.359453  5309 net.cpp:84] Creating Layer relu6
I1108 19:04:30.359462  5309 net.cpp:406] relu6 <- fc6
I1108 19:04:30.359472  5309 net.cpp:367] relu6 -> fc6 (in-place)
I1108 19:04:30.359488  5309 net.cpp:122] Setting up relu6
I1108 19:04:30.359494  5309 net.cpp:129] Top shape: 3 2048 (6144)
I1108 19:04:30.359498  5309 net.cpp:137] Memory required for data: 1627465740
I1108 19:04:30.359504  5309 layer_factory.hpp:77] Creating layer drop6
I1108 19:04:30.359513  5309 net.cpp:84] Creating Layer drop6
I1108 19:04:30.359519  5309 net.cpp:406] drop6 <- fc6
I1108 19:04:30.359526  5309 net.cpp:367] drop6 -> fc6 (in-place)
I1108 19:04:30.359555  5309 net.cpp:122] Setting up drop6
I1108 19:04:30.359565  5309 net.cpp:129] Top shape: 3 2048 (6144)
I1108 19:04:30.359568  5309 net.cpp:137] Memory required for data: 1627490316
I1108 19:04:30.359575  5309 layer_factory.hpp:77] Creating layer fc7
I1108 19:04:30.359586  5309 net.cpp:84] Creating Layer fc7
I1108 19:04:30.359591  5309 net.cpp:406] fc7 <- fc6
I1108 19:04:30.359598  5309 net.cpp:380] fc7 -> fc7
I1108 19:04:30.414435  5309 net.cpp:122] Setting up fc7
I1108 19:04:30.414472  5309 net.cpp:129] Top shape: 3 2048 (6144)
I1108 19:04:30.414477  5309 net.cpp:137] Memory required for data: 1627514892
I1108 19:04:30.414492  5309 layer_factory.hpp:77] Creating layer relu7
I1108 19:04:30.414506  5309 net.cpp:84] Creating Layer relu7
I1108 19:04:30.414513  5309 net.cpp:406] relu7 <- fc7
I1108 19:04:30.414523  5309 net.cpp:367] relu7 -> fc7 (in-place)
I1108 19:04:30.414536  5309 net.cpp:122] Setting up relu7
I1108 19:04:30.414543  5309 net.cpp:129] Top shape: 3 2048 (6144)
I1108 19:04:30.414548  5309 net.cpp:137] Memory required for data: 1627539468
I1108 19:04:30.414552  5309 layer_factory.hpp:77] Creating layer drop7
I1108 19:04:30.414563  5309 net.cpp:84] Creating Layer drop7
I1108 19:04:30.414568  5309 net.cpp:406] drop7 <- fc7
I1108 19:04:30.414577  5309 net.cpp:367] drop7 -> fc7 (in-place)
I1108 19:04:30.414602  5309 net.cpp:122] Setting up drop7
I1108 19:04:30.414608  5309 net.cpp:129] Top shape: 3 2048 (6144)
I1108 19:04:30.414613  5309 net.cpp:137] Memory required for data: 1627564044
I1108 19:04:30.414618  5309 layer_factory.hpp:77] Creating layer fc8
I1108 19:04:30.414629  5309 net.cpp:84] Creating Layer fc8
I1108 19:04:30.414633  5309 net.cpp:406] fc8 <- fc7
I1108 19:04:30.414641  5309 net.cpp:380] fc8 -> fc8
I1108 19:04:30.418587  5309 net.cpp:122] Setting up fc8
I1108 19:04:30.418623  5309 net.cpp:129] Top shape: 3 101 (303)
I1108 19:04:30.418628  5309 net.cpp:137] Memory required for data: 1627565256
I1108 19:04:30.418643  5309 layer_factory.hpp:77] Creating layer conv1a_p
I1108 19:04:30.418660  5309 net.cpp:84] Creating Layer conv1a_p
I1108 19:04:30.418666  5309 net.cpp:406] conv1a_p <- data_p
I1108 19:04:30.418678  5309 net.cpp:380] conv1a_p -> conv1a_p
I1108 19:04:30.421144  5309 net.cpp:122] Setting up conv1a_p
I1108 19:04:30.421198  5309 net.cpp:129] Top shape: 3 64 40 120 120 (110592000)
I1108 19:04:30.421205  5309 net.cpp:137] Memory required for data: 2069933256
I1108 19:04:30.421231  5309 net.cpp:465] Sharing parameters 'conv1a_w' owned by layer 'conv1a', param index 0
I1108 19:04:30.421241  5309 net.cpp:465] Sharing parameters 'conv1a_b' owned by layer 'conv1a', param index 1
I1108 19:04:30.421248  5309 layer_factory.hpp:77] Creating layer relu1a_p
I1108 19:04:30.421263  5309 net.cpp:84] Creating Layer relu1a_p
I1108 19:04:30.421272  5309 net.cpp:406] relu1a_p <- conv1a_p
I1108 19:04:30.421283  5309 net.cpp:367] relu1a_p -> conv1a_p (in-place)
I1108 19:04:30.421298  5309 net.cpp:122] Setting up relu1a_p
I1108 19:04:30.421380  5309 net.cpp:129] Top shape: 3 64 40 120 120 (110592000)
I1108 19:04:30.421385  5309 net.cpp:137] Memory required for data: 2512301256
I1108 19:04:30.421389  5309 layer_factory.hpp:77] Creating layer pool1_p
I1108 19:04:30.421399  5309 net.cpp:84] Creating Layer pool1_p
I1108 19:04:30.421404  5309 net.cpp:406] pool1_p <- conv1a_p
I1108 19:04:30.421412  5309 net.cpp:380] pool1_p -> pool1_p
I1108 19:04:30.421486  5309 net.cpp:122] Setting up pool1_p
I1108 19:04:30.421496  5309 net.cpp:129] Top shape: 3 64 40 60 60 (27648000)
I1108 19:04:30.421501  5309 net.cpp:137] Memory required for data: 2622893256
I1108 19:04:30.421509  5309 layer_factory.hpp:77] Creating layer conv2a_p
I1108 19:04:30.421520  5309 net.cpp:84] Creating Layer conv2a_p
I1108 19:04:30.421525  5309 net.cpp:406] conv2a_p <- pool1_p
I1108 19:04:30.421535  5309 net.cpp:380] conv2a_p -> conv2a_p
I1108 19:04:30.424618  5309 net.cpp:122] Setting up conv2a_p
I1108 19:04:30.424641  5309 net.cpp:129] Top shape: 3 128 40 60 60 (55296000)
I1108 19:04:30.424646  5309 net.cpp:137] Memory required for data: 2844077256
I1108 19:04:30.424656  5309 net.cpp:465] Sharing parameters 'conv2a_w' owned by layer 'conv2a', param index 0
I1108 19:04:30.424664  5309 net.cpp:465] Sharing parameters 'conv2a_b' owned by layer 'conv2a', param index 1
I1108 19:04:30.424670  5309 layer_factory.hpp:77] Creating layer relu2a_p
I1108 19:04:30.424680  5309 net.cpp:84] Creating Layer relu2a_p
I1108 19:04:30.424695  5309 net.cpp:406] relu2a_p <- conv2a_p
I1108 19:04:30.424705  5309 net.cpp:367] relu2a_p -> conv2a_p (in-place)
I1108 19:04:30.424716  5309 net.cpp:122] Setting up relu2a_p
I1108 19:04:30.424724  5309 net.cpp:129] Top shape: 3 128 40 60 60 (55296000)
I1108 19:04:30.424729  5309 net.cpp:137] Memory required for data: 3065261256
I1108 19:04:30.424734  5309 layer_factory.hpp:77] Creating layer pool2_p
I1108 19:04:30.424742  5309 net.cpp:84] Creating Layer pool2_p
I1108 19:04:30.424747  5309 net.cpp:406] pool2_p <- conv2a_p
I1108 19:04:30.424756  5309 net.cpp:380] pool2_p -> pool2_p
I1108 19:04:30.424787  5309 net.cpp:122] Setting up pool2_p
I1108 19:04:30.424798  5309 net.cpp:129] Top shape: 3 128 20 30 30 (6912000)
I1108 19:04:30.424803  5309 net.cpp:137] Memory required for data: 3092909256
I1108 19:04:30.424808  5309 layer_factory.hpp:77] Creating layer conv3a_p
I1108 19:04:30.424820  5309 net.cpp:84] Creating Layer conv3a_p
I1108 19:04:30.424826  5309 net.cpp:406] conv3a_p <- pool2_p
I1108 19:04:30.424835  5309 net.cpp:380] conv3a_p -> conv3a_p
I1108 19:04:30.437114  5309 net.cpp:122] Setting up conv3a_p
I1108 19:04:30.437152  5309 net.cpp:129] Top shape: 3 256 20 30 30 (13824000)
I1108 19:04:30.437158  5309 net.cpp:137] Memory required for data: 3148205256
I1108 19:04:30.437170  5309 net.cpp:465] Sharing parameters 'conv3a_w' owned by layer 'conv3a', param index 0
I1108 19:04:30.437177  5309 net.cpp:465] Sharing parameters 'conv3a_b' owned by layer 'conv3a', param index 1
I1108 19:04:30.437182  5309 layer_factory.hpp:77] Creating layer relu3a_p
I1108 19:04:30.437196  5309 net.cpp:84] Creating Layer relu3a_p
I1108 19:04:30.437204  5309 net.cpp:406] relu3a_p <- conv3a_p
I1108 19:04:30.437214  5309 net.cpp:367] relu3a_p -> conv3a_p (in-place)
I1108 19:04:30.437228  5309 net.cpp:122] Setting up relu3a_p
I1108 19:04:30.437237  5309 net.cpp:129] Top shape: 3 256 20 30 30 (13824000)
I1108 19:04:30.437240  5309 net.cpp:137] Memory required for data: 3203501256
I1108 19:04:30.437245  5309 layer_factory.hpp:77] Creating layer pool3_p
I1108 19:04:30.437261  5309 net.cpp:84] Creating Layer pool3_p
I1108 19:04:30.437268  5309 net.cpp:406] pool3_p <- conv3a_p
I1108 19:04:30.437275  5309 net.cpp:380] pool3_p -> pool3_p
I1108 19:04:30.437299  5309 net.cpp:122] Setting up pool3_p
I1108 19:04:30.437310  5309 net.cpp:129] Top shape: 3 256 10 15 15 (1728000)
I1108 19:04:30.437316  5309 net.cpp:137] Memory required for data: 3210413256
I1108 19:04:30.437321  5309 layer_factory.hpp:77] Creating layer conv4a_p
I1108 19:04:30.437332  5309 net.cpp:84] Creating Layer conv4a_p
I1108 19:04:30.437366  5309 net.cpp:406] conv4a_p <- pool3_p
I1108 19:04:30.437374  5309 net.cpp:380] conv4a_p -> conv4a_p
I1108 19:04:30.460942  5309 net.cpp:122] Setting up conv4a_p
I1108 19:04:30.460980  5309 net.cpp:129] Top shape: 3 256 10 15 15 (1728000)
I1108 19:04:30.460985  5309 net.cpp:137] Memory required for data: 3217325256
I1108 19:04:30.460999  5309 net.cpp:465] Sharing parameters 'conv4a_w' owned by layer 'conv4a', param index 0
I1108 19:04:30.461006  5309 net.cpp:465] Sharing parameters 'conv4a_b' owned by layer 'conv4a', param index 1
I1108 19:04:30.461011  5309 layer_factory.hpp:77] Creating layer relu4a_p
I1108 19:04:30.461024  5309 net.cpp:84] Creating Layer relu4a_p
I1108 19:04:30.461032  5309 net.cpp:406] relu4a_p <- conv4a_p
I1108 19:04:30.461043  5309 net.cpp:367] relu4a_p -> conv4a_p (in-place)
I1108 19:04:30.461056  5309 net.cpp:122] Setting up relu4a_p
I1108 19:04:30.461066  5309 net.cpp:129] Top shape: 3 256 10 15 15 (1728000)
I1108 19:04:30.461071  5309 net.cpp:137] Memory required for data: 3224237256
I1108 19:04:30.461076  5309 layer_factory.hpp:77] Creating layer pool4_p
I1108 19:04:30.461086  5309 net.cpp:84] Creating Layer pool4_p
I1108 19:04:30.461091  5309 net.cpp:406] pool4_p <- conv4a_p
I1108 19:04:30.461098  5309 net.cpp:380] pool4_p -> pool4_p
I1108 19:04:30.461122  5309 net.cpp:122] Setting up pool4_p
I1108 19:04:30.461129  5309 net.cpp:129] Top shape: 3 256 5 8 8 (245760)
I1108 19:04:30.461134  5309 net.cpp:137] Memory required for data: 3225220296
I1108 19:04:30.461139  5309 layer_factory.hpp:77] Creating layer conv5a_p
I1108 19:04:30.461150  5309 net.cpp:84] Creating Layer conv5a_p
I1108 19:04:30.461156  5309 net.cpp:406] conv5a_p <- pool4_p
I1108 19:04:30.461164  5309 net.cpp:380] conv5a_p -> conv5a_p
I1108 19:04:30.484843  5309 net.cpp:122] Setting up conv5a_p
I1108 19:04:30.484885  5309 net.cpp:129] Top shape: 3 256 5 8 8 (245760)
I1108 19:04:30.484890  5309 net.cpp:137] Memory required for data: 3226203336
I1108 19:04:30.484904  5309 net.cpp:465] Sharing parameters 'conv5a_w' owned by layer 'conv5a', param index 0
I1108 19:04:30.484910  5309 net.cpp:465] Sharing parameters 'conv5a_b' owned by layer 'conv5a', param index 1
I1108 19:04:30.484916  5309 layer_factory.hpp:77] Creating layer relu5a_p
I1108 19:04:30.484930  5309 net.cpp:84] Creating Layer relu5a_p
I1108 19:04:30.484938  5309 net.cpp:406] relu5a_p <- conv5a_p
I1108 19:04:30.484949  5309 net.cpp:367] relu5a_p -> conv5a_p (in-place)
I1108 19:04:30.484963  5309 net.cpp:122] Setting up relu5a_p
I1108 19:04:30.484972  5309 net.cpp:129] Top shape: 3 256 5 8 8 (245760)
I1108 19:04:30.484978  5309 net.cpp:137] Memory required for data: 3227186376
I1108 19:04:30.484983  5309 layer_factory.hpp:77] Creating layer pool5_p
I1108 19:04:30.484993  5309 net.cpp:84] Creating Layer pool5_p
I1108 19:04:30.484998  5309 net.cpp:406] pool5_p <- conv5a_p
I1108 19:04:30.485008  5309 net.cpp:380] pool5_p -> pool5_p
I1108 19:04:30.485033  5309 net.cpp:122] Setting up pool5_p
I1108 19:04:30.485044  5309 net.cpp:129] Top shape: 3 256 3 4 4 (36864)
I1108 19:04:30.485049  5309 net.cpp:137] Memory required for data: 3227333832
I1108 19:04:30.485055  5309 layer_factory.hpp:77] Creating layer fc6_p
I1108 19:04:30.485064  5309 net.cpp:84] Creating Layer fc6_p
I1108 19:04:30.485074  5309 net.cpp:406] fc6_p <- pool5_p
I1108 19:04:30.485083  5309 net.cpp:380] fc6_p -> fc6_p
I1108 19:04:30.810017  5309 net.cpp:122] Setting up fc6_p
I1108 19:04:30.810055  5309 net.cpp:129] Top shape: 3 2048 (6144)
I1108 19:04:30.810060  5309 net.cpp:137] Memory required for data: 3227358408
I1108 19:04:30.810070  5309 net.cpp:465] Sharing parameters 'fc6_w' owned by layer 'fc6', param index 0
I1108 19:04:30.810077  5309 net.cpp:465] Sharing parameters 'fc6_b' owned by layer 'fc6', param index 1
I1108 19:04:30.810084  5309 layer_factory.hpp:77] Creating layer relu6_p
I1108 19:04:30.810098  5309 net.cpp:84] Creating Layer relu6_p
I1108 19:04:30.810106  5309 net.cpp:406] relu6_p <- fc6_p
I1108 19:04:30.810119  5309 net.cpp:367] relu6_p -> fc6_p (in-place)
I1108 19:04:30.810163  5309 net.cpp:122] Setting up relu6_p
I1108 19:04:30.810170  5309 net.cpp:129] Top shape: 3 2048 (6144)
I1108 19:04:30.810174  5309 net.cpp:137] Memory required for data: 3227382984
I1108 19:04:30.810179  5309 layer_factory.hpp:77] Creating layer drop6_p
I1108 19:04:30.810189  5309 net.cpp:84] Creating Layer drop6_p
I1108 19:04:30.810194  5309 net.cpp:406] drop6_p <- fc6_p
I1108 19:04:30.810204  5309 net.cpp:367] drop6_p -> fc6_p (in-place)
I1108 19:04:30.810230  5309 net.cpp:122] Setting up drop6_p
I1108 19:04:30.810240  5309 net.cpp:129] Top shape: 3 2048 (6144)
I1108 19:04:30.810245  5309 net.cpp:137] Memory required for data: 3227407560
I1108 19:04:30.810250  5309 layer_factory.hpp:77] Creating layer fc7_p
I1108 19:04:30.810259  5309 net.cpp:84] Creating Layer fc7_p
I1108 19:04:30.810264  5309 net.cpp:406] fc7_p <- fc6_p
I1108 19:04:30.810273  5309 net.cpp:380] fc7_p -> fc7_p
I1108 19:04:30.865597  5309 net.cpp:122] Setting up fc7_p
I1108 19:04:30.865635  5309 net.cpp:129] Top shape: 3 2048 (6144)
I1108 19:04:30.865640  5309 net.cpp:137] Memory required for data: 3227432136
I1108 19:04:30.865653  5309 net.cpp:465] Sharing parameters 'fc7_w' owned by layer 'fc7', param index 0
I1108 19:04:30.865660  5309 net.cpp:465] Sharing parameters 'fc7_b' owned by layer 'fc7', param index 1
I1108 19:04:30.865666  5309 layer_factory.hpp:77] Creating layer relu7_p
I1108 19:04:30.865679  5309 net.cpp:84] Creating Layer relu7_p
I1108 19:04:30.865684  5309 net.cpp:406] relu7_p <- fc7_p
I1108 19:04:30.865695  5309 net.cpp:367] relu7_p -> fc7_p (in-place)
I1108 19:04:30.865707  5309 net.cpp:122] Setting up relu7_p
I1108 19:04:30.865715  5309 net.cpp:129] Top shape: 3 2048 (6144)
I1108 19:04:30.865720  5309 net.cpp:137] Memory required for data: 3227456712
I1108 19:04:30.865725  5309 layer_factory.hpp:77] Creating layer drop7_p
I1108 19:04:30.865736  5309 net.cpp:84] Creating Layer drop7_p
I1108 19:04:30.865741  5309 net.cpp:406] drop7_p <- fc7_p
I1108 19:04:30.865749  5309 net.cpp:367] drop7_p -> fc7_p (in-place)
I1108 19:04:30.865777  5309 net.cpp:122] Setting up drop7_p
I1108 19:04:30.865784  5309 net.cpp:129] Top shape: 3 2048 (6144)
I1108 19:04:30.865788  5309 net.cpp:137] Memory required for data: 3227481288
I1108 19:04:30.865793  5309 layer_factory.hpp:77] Creating layer fc8_p
I1108 19:04:30.865806  5309 net.cpp:84] Creating Layer fc8_p
I1108 19:04:30.865810  5309 net.cpp:406] fc8_p <- fc7_p
I1108 19:04:30.865819  5309 net.cpp:380] fc8_p -> fc8_p
I1108 19:04:30.869765  5309 net.cpp:122] Setting up fc8_p
I1108 19:04:30.869803  5309 net.cpp:129] Top shape: 3 101 (303)
I1108 19:04:30.869810  5309 net.cpp:137] Memory required for data: 3227482500
I1108 19:04:30.869820  5309 net.cpp:465] Sharing parameters 'fc8_w' owned by layer 'fc8', param index 0
I1108 19:04:30.869828  5309 net.cpp:465] Sharing parameters 'fc8_b' owned by layer 'fc8', param index 1
I1108 19:04:30.869833  5309 layer_factory.hpp:77] Creating layer loss
I1108 19:04:30.869850  5309 net.cpp:84] Creating Layer loss
…
