…
snapshot_prefix: "/home/hzzone/1tb/id-model/classification/2d/2d_alexnet/2d_classification_alexnet_train"
solver_mode: GPU
device_id: 0
net: "./train_val.prototxt"
train_state {
  level: 0
  stage: ""
}
I1118 16:57:36.069896 23391 solver.cpp:91] Creating training net from net file: ./train_val.prototxt
I1118 16:57:36.070588 23391 net.cpp:58] Initializing net from parameters: 
name: "AlexNet"
state {
  phase: TRAIN
  level: 0
  stage: ""
}
layer {
  name: "data"
  type: "HDF5Data"
  top: "data"
  top: "label"
  include {
    phase: TRAIN
  }
  hdf5_data_param {
    source: "../train.txt"
    batch_size: 50
    shuffle: true
  }
}
layer {
  name: "conv1"
  type: "Convolution"
  bottom: "data"
  top: "conv1"
  param {
    lr_mult: 1
    decay_mult: 1
  }
  param {
    lr_mult: 2
    decay_mult: 0
  }
  convolution_param {
    num_output: 96
    kernel_size: 11
    stride: 4
    weight_filler {
      type: "gaussian"
      std: 0.01
    }
    bias_filler {
      type: "constant"
      value: 0
    }
  }
}
layer {
  name: "relu1"
  type: "ReLU"
  bottom: "conv1"
  top: "conv1"
}
layer {
  name: "norm1"
  type: "LRN"
  bottom: "conv1"
  top: "norm1"
  lrn_param {
    local_size: 5
    alpha: 0.0001
    beta: 0.75
  }
}
layer {
  name: "pool1"
  type: "Pooling"
  bottom: "norm1"
  top: "pool1"
  pooling_param {
    pool: MAX
    kernel_size: 3
    stride: 2
  }
}
layer {
  name: "conv2"
  type: "Convolution"
  bottom: "pool1"
  top: "conv2"
  param {
    lr_mult: 1
    decay_mult: 1
  }
  param {
    lr_mult: 2
    decay_mult: 0
  }
  convolution_param {
    num_output: 256
    pad: 2
    kernel_size: 5
    group: 2
    weight_filler {
      type: "gaussian"
      std: 0.01
    }
    bias_filler {
      type: "constant"
      value: 0.1
    }
  }
}
layer {
  name: "relu2"
  type: "ReLU"
  bottom: "conv2"
  top: "conv2"
}
layer {
  name: "norm2"
  type: "LRN"
  bottom: "conv2"
  top: "norm2"
  lrn_param {
    local_size: 5
    alpha: 0.0001
    beta: 0.75
  }
}
layer {
  name: "pool2"
  type: "Pooling"
  bottom: "norm2"
  top: "pool2"
  pooling_param {
    pool: MAX
    kernel_size: 3
    stride: 2
  }
}
layer {
  name: "conv3"
  type: "Convolution"
  bottom: "pool2"
  top: "conv3"
  param {
    lr_mult: 1
    decay_mult: 1
  }
  param {
    lr_mult: 2
    decay_mult: 0
  }
  convolution_param {
    num_output: 384
    pad: 1
    kernel_size: 3
    weight_filler {
      type: "gaussian"
      std: 0.01
    }
    bias_filler {
      type: "constant"
      value: 0
    }
  }
}
layer {
  name: "relu3"
  type: "ReLU"
  bottom: "conv3"
  top: "conv3"
}
layer {
  name: "conv4"
  type: "Convolution"
  bottom: "conv3"
  top: "conv4"
  param {
    lr_mult: 1
    decay_mult: 1
  }
  param {
    lr_mult: 2
    decay_mult: 0
  }
  convolution_param {
    num_output: 384
    pad: 1
    kernel_size: 3
    group: 2
    weight_filler {
      type: "gaussian"
      std: 0.01
    }
    bias_filler {
      type: "constant"
      value: 0.1
    }
  }
}
layer {
  name: "relu4"
  type: "ReLU"
  bottom: "conv4"
  top: "conv4"
}
layer {
  name: "conv5"
  type: "Convolution"
  bottom: "conv4"
  top: "conv5"
  param {
    lr_mult: 1
    decay_mult: 1
  }
  param {
    lr_mult: 2
    decay_mult: 0
  }
  convolution_param {
    num_output: 256
    pad: 1
    kernel_size: 3
    group: 2
    weight_filler {
      type: "gaussian"
      std: 0.01
    }
    bias_filler {
      type: "constant"
      value: 0.1
    }
  }
}
layer {
  name: "relu5"
  type: "ReLU"
  bottom: "conv5"
  top: "conv5"
}
layer {
  name: "pool5"
  type: "Pooling"
  bottom: "conv5"
  top: "pool5"
  pooling_param {
    pool: MAX
    kernel_size: 3
    stride: 2
  }
}
layer {
  name: "fc6"
  type: "InnerProduct"
  bottom: "pool5"
  top: "fc6"
  param {
    lr_mult: 1
    decay_mult: 1
  }
  param {
    lr_mult: 2
    decay_mult: 0
  }
  inner_product_param {
    num_output: 4096
    weight_filler {
      type: "gaussian"
      std: 0.005
    }
    bias_filler {
      type: "constant"
      value: 0.1
    }
  }
}
layer {
  name: "relu6"
  type: "ReLU"
  bottom: "fc6"
  top: "fc6"
}
layer {
  name: "drop6"
  type: "Dropout"
  bottom: "fc6"
  top: "fc6"
  dropout_param {
    dropout_ratio: 0.5
  }
}
layer {
  name: "fc7"
  type: "InnerProduct"
  bottom: "fc6"
  top: "fc7"
  param {
    lr_mult: 1
    decay_mult: 1
  }
  param {
    lr_mult: 2
    decay_mult: 0
  }
  inner_product_param {
    num_output: 4096
    weight_filler {
      type: "gaussian"
      std: 0.005
    }
    bias_filler {
      type: "constant"
      value: 0.1
    }
  }
}
layer {
  name: "relu7"
  type: "ReLU"
  bottom: "fc7"
  top: "fc7"
}
layer {
  name: "drop7"
  type: "Dropout"
  bottom: "fc7"
  top: "fc7"
  dropout_param {
    dropout_ratio: 0.5
  }
}
layer {
  name: "fc8"
  type: "InnerProduct"
  bottom: "fc7"
  top: "fc8"
  param {
    lr_mult: 1
    decay_mult: 1
  }
  param {
    lr_mult: 2
    decay_mult: 0
  }
  inner_product_param {
    num_output: 70
    weight_filler {
      type: "gaussian"
      std: 0.01
    }
    bias_filler {
      type: "constant"
      value: 0
    }
  }
}
layer {
  name: "loss"
  type: "SoftmaxWithLoss"
  bottom: "fc8"
  bottom: "label"
  top: "loss"
}
layer {
  name: "center_loss"
  type: "CenterLoss"
  bottom: "fc8"
  bottom: "label"
  top: "center_loss"
  loss_weight: 0.008
  param {
    lr_mult: 1
    decay_mult: 2
  }
  center_loss_param {
    num_output: 70
    center_filler {
      type: "xavier"
    }
  }
}
I1118 16:57:36.070799 23391 layer_factory.hpp:77] Creating layer data
I1118 16:57:36.070819 23391 net.cpp:100] Creating Layer data
I1118 16:57:36.070828 23391 net.cpp:408] data -> data
I1118 16:57:36.071621 23391 net.cpp:408] data -> label
I1118 16:57:36.071637 23391 hdf5_data_layer.cpp:79] Loading list of HDF5 filenames from: ../train.txt
I1118 16:57:36.071750 23391 hdf5_data_layer.cpp:93] Number of HDF5 files: 146
I1118 16:57:36.074427 23391 hdf5.cpp:32] Datatype class: H5T_FLOAT
I1118 16:57:36.096782 23391 net.cpp:150] Setting up data
I1118 16:57:36.096832 23391 net.cpp:157] Top shape: 50 40 120 120 (28800000)
I1118 16:57:36.096839 23391 net.cpp:157] Top shape: 50 (50)
I1118 16:57:36.096843 23391 net.cpp:165] Memory required for data: 115200200
I1118 16:57:36.096854 23391 layer_factory.hpp:77] Creating layer label_data_1_split
I1118 16:57:36.096873 23391 net.cpp:100] Creating Layer label_data_1_split
I1118 16:57:36.096881 23391 net.cpp:434] label_data_1_split <- label
I1118 16:57:36.096897 23391 net.cpp:408] label_data_1_split -> label_data_1_split_0
I1118 16:57:36.096910 23391 net.cpp:408] label_data_1_split -> label_data_1_split_1
I1118 16:57:36.096947 23391 net.cpp:150] Setting up label_data_1_split
I1118 16:57:36.096959 23391 net.cpp:157] Top shape: 50 (50)
I1118 16:57:36.096966 23391 net.cpp:157] Top shape: 50 (50)
I1118 16:57:36.096971 23391 net.cpp:165] Memory required for data: 115200600
I1118 16:57:36.096976 23391 layer_factory.hpp:77] Creating layer conv1
I1118 16:57:36.097002 23391 net.cpp:100] Creating Layer conv1
I1118 16:57:36.097007 23391 net.cpp:434] conv1 <- data
I1118 16:57:36.097015 23391 net.cpp:408] conv1 -> conv1
I1118 16:57:36.486397 23391 net.cpp:150] Setting up conv1
I1118 16:57:36.486440 23391 net.cpp:157] Top shape: 50 96 28 28 (3763200)
I1118 16:57:36.486445 23391 net.cpp:165] Memory required for data: 130253400
I1118 16:57:36.486486 23391 layer_factory.hpp:77] Creating layer relu1
I1118 16:57:36.486511 23391 net.cpp:100] Creating Layer relu1
I1118 16:57:36.486519 23391 net.cpp:434] relu1 <- conv1
I1118 16:57:36.486531 23391 net.cpp:395] relu1 -> conv1 (in-place)
I1118 16:57:36.486840 23391 net.cpp:150] Setting up relu1
I1118 16:57:36.486852 23391 net.cpp:157] Top shape: 50 96 28 28 (3763200)
I1118 16:57:36.486858 23391 net.cpp:165] Memory required for data: 145306200
I1118 16:57:36.486863 23391 layer_factory.hpp:77] Creating layer norm1
I1118 16:57:36.486878 23391 net.cpp:100] Creating Layer norm1
I1118 16:57:36.486899 23391 net.cpp:434] norm1 <- conv1
I1118 16:57:36.486909 23391 net.cpp:408] norm1 -> norm1
I1118 16:57:36.487159 23391 net.cpp:150] Setting up norm1
I1118 16:57:36.487169 23391 net.cpp:157] Top shape: 50 96 28 28 (3763200)
I1118 16:57:36.487175 23391 net.cpp:165] Memory required for data: 160359000
I1118 16:57:36.487180 23391 layer_factory.hpp:77] Creating layer pool1
I1118 16:57:36.487190 23391 net.cpp:100] Creating Layer pool1
I1118 16:57:36.487195 23391 net.cpp:434] pool1 <- norm1
I1118 16:57:36.487203 23391 net.cpp:408] pool1 -> pool1
I1118 16:57:36.487257 23391 net.cpp:150] Setting up pool1
I1118 16:57:36.487267 23391 net.cpp:157] Top shape: 50 96 14 14 (940800)
I1118 16:57:36.487272 23391 net.cpp:165] Memory required for data: 164122200
I1118 16:57:36.487277 23391 layer_factory.hpp:77] Creating layer conv2
I1118 16:57:36.487293 23391 net.cpp:100] Creating Layer conv2
I1118 16:57:36.487299 23391 net.cpp:434] conv2 <- pool1
I1118 16:57:36.487306 23391 net.cpp:408] conv2 -> conv2
I1118 16:57:36.494746 23391 net.cpp:150] Setting up conv2
I1118 16:57:36.494791 23391 net.cpp:157] Top shape: 50 256 14 14 (2508800)
I1118 16:57:36.494796 23391 net.cpp:165] Memory required for data: 174157400
I1118 16:57:36.494818 23391 layer_factory.hpp:77] Creating layer relu2
I1118 16:57:36.494832 23391 net.cpp:100] Creating Layer relu2
I1118 16:57:36.494841 23391 net.cpp:434] relu2 <- conv2
I1118 16:57:36.494850 23391 net.cpp:395] relu2 -> conv2 (in-place)
I1118 16:57:36.495069 23391 net.cpp:150] Setting up relu2
I1118 16:57:36.495077 23391 net.cpp:157] Top shape: 50 256 14 14 (2508800)
I1118 16:57:36.495082 23391 net.cpp:165] Memory required for data: 184192600
I1118 16:57:36.495086 23391 layer_factory.hpp:77] Creating layer norm2
I1118 16:57:36.495105 23391 net.cpp:100] Creating Layer norm2
I1118 16:57:36.495112 23391 net.cpp:434] norm2 <- conv2
I1118 16:57:36.495120 23391 net.cpp:408] norm2 -> norm2
I1118 16:57:36.495353 23391 net.cpp:150] Setting up norm2
I1118 16:57:36.495363 23391 net.cpp:157] Top shape: 50 256 14 14 (2508800)
I1118 16:57:36.495368 23391 net.cpp:165] Memory required for data: 194227800
I1118 16:57:36.495373 23391 layer_factory.hpp:77] Creating layer pool2
I1118 16:57:36.495388 23391 net.cpp:100] Creating Layer pool2
I1118 16:57:36.495394 23391 net.cpp:434] pool2 <- norm2
I1118 16:57:36.495401 23391 net.cpp:408] pool2 -> pool2
I1118 16:57:36.495452 23391 net.cpp:150] Setting up pool2
I1118 16:57:36.495461 23391 net.cpp:157] Top shape: 50 256 7 7 (627200)
I1118 16:57:36.495466 23391 net.cpp:165] Memory required for data: 196736600
I1118 16:57:36.495473 23391 layer_factory.hpp:77] Creating layer conv3
I1118 16:57:36.495494 23391 net.cpp:100] Creating Layer conv3
I1118 16:57:36.495501 23391 net.cpp:434] conv3 <- pool2
I1118 16:57:36.495512 23391 net.cpp:408] conv3 -> conv3
I1118 16:57:36.510339 23391 net.cpp:150] Setting up conv3
I1118 16:57:36.510376 23391 net.cpp:157] Top shape: 50 384 7 7 (940800)
I1118 16:57:36.510381 23391 net.cpp:165] Memory required for data: 200499800
I1118 16:57:36.510404 23391 layer_factory.hpp:77] Creating layer relu3
I1118 16:57:36.510421 23391 net.cpp:100] Creating Layer relu3
I1118 16:57:36.510428 23391 net.cpp:434] relu3 <- conv3
I1118 16:57:36.510438 23391 net.cpp:395] relu3 -> conv3 (in-place)
I1118 16:57:36.511091 23391 net.cpp:150] Setting up relu3
I1118 16:57:36.511103 23391 net.cpp:157] Top shape: 50 384 7 7 (940800)
I1118 16:57:36.511108 23391 net.cpp:165] Memory required for data: 204263000
I1118 16:57:36.511112 23391 layer_factory.hpp:77] Creating layer conv4
I1118 16:57:36.511129 23391 net.cpp:100] Creating Layer conv4
I1118 16:57:36.511135 23391 net.cpp:434] conv4 <- conv3
I1118 16:57:36.511152 23391 net.cpp:408] conv4 -> conv4
I1118 16:57:36.523627 23391 net.cpp:150] Setting up conv4
I1118 16:57:36.523665 23391 net.cpp:157] Top shape: 50 384 7 7 (940800)
I1118 16:57:36.523671 23391 net.cpp:165] Memory required for data: 208026200
I1118 16:57:36.523686 23391 layer_factory.hpp:77] Creating layer relu4
I1118 16:57:36.523707 23391 net.cpp:100] Creating Layer relu4
I1118 16:57:36.523741 23391 net.cpp:434] relu4 <- conv4
I1118 16:57:36.523751 23391 net.cpp:395] relu4 -> conv4 (in-place)
I1118 16:57:36.524256 23391 net.cpp:150] Setting up relu4
I1118 16:57:36.524267 23391 net.cpp:157] Top shape: 50 384 7 7 (940800)
I1118 16:57:36.524272 23391 net.cpp:165] Memory required for data: 211789400
I1118 16:57:36.524277 23391 layer_factory.hpp:77] Creating layer conv5
I1118 16:57:36.524293 23391 net.cpp:100] Creating Layer conv5
I1118 16:57:36.524298 23391 net.cpp:434] conv5 <- conv4
I1118 16:57:36.524313 23391 net.cpp:408] conv5 -> conv5
I1118 16:57:36.533792 23391 net.cpp:150] Setting up conv5
I1118 16:57:36.533840 23391 net.cpp:157] Top shape: 50 256 7 7 (627200)
I1118 16:57:36.533845 23391 net.cpp:165] Memory required for data: 214298200
I1118 16:57:36.533872 23391 layer_factory.hpp:77] Creating layer relu5
I1118 16:57:36.533890 23391 net.cpp:100] Creating Layer relu5
I1118 16:57:36.533897 23391 net.cpp:434] relu5 <- conv5
I1118 16:57:36.533907 23391 net.cpp:395] relu5 -> conv5 (in-place)
I1118 16:57:36.534152 23391 net.cpp:150] Setting up relu5
I1118 16:57:36.534162 23391 net.cpp:157] Top shape: 50 256 7 7 (627200)
I1118 16:57:36.534166 23391 net.cpp:165] Memory required for data: 216807000
I1118 16:57:36.534170 23391 layer_factory.hpp:77] Creating layer pool5
I1118 16:57:36.534191 23391 net.cpp:100] Creating Layer pool5
I1118 16:57:36.534196 23391 net.cpp:434] pool5 <- conv5
I1118 16:57:36.534204 23391 net.cpp:408] pool5 -> pool5
I1118 16:57:36.534260 23391 net.cpp:150] Setting up pool5
I1118 16:57:36.534268 23391 net.cpp:157] Top shape: 50 256 3 3 (115200)
I1118 16:57:36.534273 23391 net.cpp:165] Memory required for data: 217267800
I1118 16:57:36.534277 23391 layer_factory.hpp:77] Creating layer fc6
I1118 16:57:36.534289 23391 net.cpp:100] Creating Layer fc6
I1118 16:57:36.534294 23391 net.cpp:434] fc6 <- pool5
I1118 16:57:36.534303 23391 net.cpp:408] fc6 -> fc6
I1118 16:57:36.667165 23391 net.cpp:150] Setting up fc6
I1118 16:57:36.667217 23391 net.cpp:157] Top shape: 50 4096 (204800)
I1118 16:57:36.667223 23391 net.cpp:165] Memory required for data: 218087000
I1118 16:57:36.667243 23391 layer_factory.hpp:77] Creating layer relu6
I1118 16:57:36.667265 23391 net.cpp:100] Creating Layer relu6
I1118 16:57:36.667273 23391 net.cpp:434] relu6 <- fc6
I1118 16:57:36.667284 23391 net.cpp:395] relu6 -> fc6 (in-place)
I1118 16:57:36.667624 23391 net.cpp:150] Setting up relu6
I1118 16:57:36.667639 23391 net.cpp:157] Top shape: 50 4096 (204800)
I1118 16:57:36.667644 23391 net.cpp:165] Memory required for data: 218906200
I1118 16:57:36.667647 23391 layer_factory.hpp:77] Creating layer drop6
I1118 16:57:36.667656 23391 net.cpp:100] Creating Layer drop6
I1118 16:57:36.667661 23391 net.cpp:434] drop6 <- fc6
I1118 16:57:36.667667 23391 net.cpp:395] drop6 -> fc6 (in-place)
I1118 16:57:36.667703 23391 net.cpp:150] Setting up drop6
I1118 16:57:36.667711 23391 net.cpp:157] Top shape: 50 4096 (204800)
I1118 16:57:36.667714 23391 net.cpp:165] Memory required for data: 219725400
I1118 16:57:36.667718 23391 layer_factory.hpp:77] Creating layer fc7
I1118 16:57:36.667732 23391 net.cpp:100] Creating Layer fc7
I1118 16:57:36.667735 23391 net.cpp:434] fc7 <- fc6
I1118 16:57:36.667742 23391 net.cpp:408] fc7 -> fc7
I1118 16:57:36.899016 23391 net.cpp:150] Setting up fc7
I1118 16:57:36.899080 23391 net.cpp:157] Top shape: 50 4096 (204800)
I1118 16:57:36.899085 23391 net.cpp:165] Memory required for data: 220544600
I1118 16:57:36.899106 23391 layer_factory.hpp:77] Creating layer relu7
I1118 16:57:36.899127 23391 net.cpp:100] Creating Layer relu7
I1118 16:57:36.899135 23391 net.cpp:434] relu7 <- fc7
I1118 16:57:36.899152 23391 net.cpp:395] relu7 -> fc7 (in-place)
I1118 16:57:36.899504 23391 net.cpp:150] Setting up relu7
I1118 16:57:36.899514 23391 net.cpp:157] Top shape: 50 4096 (204800)
I1118 16:57:36.899519 23391 net.cpp:165] Memory required for data: 221363800
I1118 16:57:36.899523 23391 layer_factory.hpp:77] Creating layer drop7
I1118 16:57:36.899534 23391 net.cpp:100] Creating Layer drop7
I1118 16:57:36.899569 23391 net.cpp:434] drop7 <- fc7
I1118 16:57:36.899580 23391 net.cpp:395] drop7 -> fc7 (in-place)
I1118 16:57:36.899610 23391 net.cpp:150] Setting up drop7
I1118 16:57:36.899622 23391 net.cpp:157] Top shape: 50 4096 (204800)
I1118 16:57:36.899628 23391 net.cpp:165] Memory required for data: 222183000
I1118 16:57:36.899632 23391 layer_factory.hpp:77] Creating layer fc8
I1118 16:57:36.899643 23391 net.cpp:100] Creating Layer fc8
I1118 16:57:36.899648 23391 net.cpp:434] fc8 <- fc7
I1118 16:57:36.899658 23391 net.cpp:408] fc8 -> fc8
I1118 16:57:36.904749 23391 net.cpp:150] Setting up fc8
I1118 16:57:36.904793 23391 net.cpp:157] Top shape: 50 70 (3500)
I1118 16:57:36.904798 23391 net.cpp:165] Memory required for data: 222197000
I1118 16:57:36.904815 23391 layer_factory.hpp:77] Creating layer fc8_fc8_0_split
I1118 16:57:36.904829 23391 net.cpp:100] Creating Layer fc8_fc8_0_split
I1118 16:57:36.904865 23391 net.cpp:434] fc8_fc8_0_split <- fc8
I1118 16:57:36.904892 23391 net.cpp:408] fc8_fc8_0_split -> fc8_fc8_0_split_0
I1118 16:57:36.904917 23391 net.cpp:408] fc8_fc8_0_split -> fc8_fc8_0_split_1
I1118 16:57:36.904995 23391 net.cpp:150] Setting up fc8_fc8_0_split
I1118 16:57:36.905004 23391 net.cpp:157] Top shape: 50 70 (3500)
I1118 16:57:36.905009 23391 net.cpp:157] Top shape: 50 70 (3500)
I1118 16:57:36.905014 23391 net.cpp:165] Memory required for data: 222225000
I1118 16:57:36.905019 23391 layer_factory.hpp:77] Creating layer loss
I1118 16:57:36.905028 23391 net.cpp:100] Creating Layer loss
I1118 16:57:36.905033 23391 net.cpp:434] loss <- fc8_fc8_0_split_0
I1118 16:57:36.905040 23391 net.cpp:434] loss <- label_data_1_split_0
I1118 16:57:36.905047 23391 net.cpp:408] loss -> loss
…
