…
snapshot_prefix: "/home/hzzone/1tb/id-model/siamese/3d/3d_alexnet/3d_siamese_alexnet_train"
solver_mode: GPU
device_id: 0
net: "./train_val.prototxt"
train_state {
  level: 0
  stage: ""
}
I1119 12:23:21.149271 13747 solver.cpp:87] Creating training net from net file: ./train_val.prototxt
I1119 12:23:21.150149 13747 net.cpp:51] Initializing net from parameters: 
name: "AlexNet"
state {
  phase: TRAIN
  level: 0
  stage: ""
}
layer {
  name: "pair_data"
  type: "HDF5Data"
  top: "pair_data"
  top: "sim"
  include {
    phase: TRAIN
  }
  hdf5_data_param {
    source: "../train.txt"
    batch_size: 1
  }
}
layer {
  name: "slice_pair"
  type: "Slice"
  bottom: "pair_data"
  top: "data"
  top: "data_p"
  slice_param {
    slice_dim: 2
    slice_point: 40
  }
}
layer {
  name: "conv1"
  type: "Convolution3D"
  bottom: "data"
  top: "conv1"
  param {
    name: "conv1_w"
    lr_mult: 1
    decay_mult: 1
  }
  param {
    name: "conv1_b"
    lr_mult: 2
    decay_mult: 0
  }
  convolution3d_param {
    num_output: 96
    pad: 1
    kernel_size: 3
    kernel_depth: 3
    stride: 1
    temporal_stride: 1
    weight_filler {
      type: "gaussian"
      std: 0.01
    }
    bias_filler {
      type: "constant"
      value: 0
    }
    temporal_pad: 1
  }
}
layer {
  name: "relu1"
  type: "ReLU"
  bottom: "conv1"
  top: "conv1"
}
layer {
  name: "pool1"
  type: "Pooling3D"
  bottom: "conv1"
  top: "pool1"
  pooling3d_param {
    pool: MAX
    kernel_size: 2
    stride: 2
    kernel_depth: 2
    temporal_stride: 2
  }
}
layer {
  name: "conv2"
  type: "Convolution3D"
  bottom: "pool1"
  top: "conv2"
  param {
    name: "conv2_w"
    lr_mult: 1
    decay_mult: 1
  }
  param {
    name: "conv2_b"
    lr_mult: 2
    decay_mult: 0
  }
  convolution3d_param {
    num_output: 256
    pad: 1
    kernel_size: 3
    kernel_depth: 3
    stride: 1
    temporal_stride: 1
    weight_filler {
      type: "gaussian"
      std: 0.01
    }
    bias_filler {
      type: "constant"
      value: 0
    }
    temporal_pad: 1
  }
}
layer {
  name: "relu2"
  type: "ReLU"
  bottom: "conv2"
  top: "conv2"
}
layer {
  name: "pool2"
  type: "Pooling3D"
  bottom: "conv2"
  top: "pool2"
  pooling3d_param {
    pool: MAX
    kernel_size: 2
    stride: 2
    kernel_depth: 2
    temporal_stride: 2
  }
}
layer {
  name: "conv3"
  type: "Convolution3D"
  bottom: "pool2"
  top: "conv3"
  param {
    name: "conv3_w"
    lr_mult: 1
    decay_mult: 1
  }
  param {
    name: "conv3_b"
    lr_mult: 2
    decay_mult: 0
  }
  convolution3d_param {
    num_output: 384
    pad: 1
    kernel_size: 3
    kernel_depth: 3
    stride: 1
    temporal_stride: 1
    weight_filler {
      type: "gaussian"
      std: 0.01
    }
    bias_filler {
      type: "constant"
      value: 1
    }
    temporal_pad: 1
  }
}
layer {
  name: "relu3"
  type: "ReLU"
  bottom: "conv3"
  top: "conv3"
}
layer {
  name: "conv4"
  type: "Convolution3D"
  bottom: "conv3"
  top: "conv4"
  param {
    name: "conv4_w"
    lr_mult: 1
    decay_mult: 1
  }
  param {
    name: "conv4_b"
    lr_mult: 2
    decay_mult: 0
  }
  convolution3d_param {
    num_output: 384
    pad: 1
    kernel_size: 3
    kernel_depth: 3
    stride: 1
    temporal_stride: 1
    weight_filler {
      type: "gaussian"
      std: 0.01
    }
    bias_filler {
      type: "constant"
      value: 1
    }
    temporal_pad: 1
  }
}
layer {
  name: "relu4"
  type: "ReLU"
  bottom: "conv4"
  top: "conv4"
}
layer {
  name: "conv5"
  type: "Convolution3D"
  bottom: "conv4"
  top: "conv5"
  param {
    name: "conv5_w"
    lr_mult: 1
    decay_mult: 1
  }
  param {
    name: "conv5_b"
    lr_mult: 2
    decay_mult: 0
  }
  convolution3d_param {
    num_output: 384
    pad: 1
    kernel_size: 3
    kernel_depth: 3
    stride: 1
    temporal_stride: 1
    weight_filler {
      type: "gaussian"
      std: 0.01
    }
    bias_filler {
      type: "constant"
      value: 1
    }
    temporal_pad: 1
  }
}
layer {
  name: "relu5"
  type: "ReLU"
  bottom: "conv5"
  top: "conv5"
}
layer {
  name: "pool5"
  type: "Pooling3D"
  bottom: "conv5"
  top: "pool5"
  pooling3d_param {
    pool: MAX
    kernel_size: 2
    stride: 2
    kernel_depth: 2
    temporal_stride: 2
  }
}
layer {
  name: "fc6"
  type: "InnerProduct"
  bottom: "pool5"
  top: "fc6"
  param {
    name: "fc6_w"
    lr_mult: 1
    decay_mult: 1
  }
  param {
    name: "fc6_b"
    lr_mult: 2
    decay_mult: 0
  }
  inner_product_param {
    num_output: 256
    weight_filler {
      type: "gaussian"
      std: 0.005
    }
    bias_filler {
      type: "constant"
      value: 0.1
    }
  }
}
layer {
  name: "relu6"
  type: "ReLU"
  bottom: "fc6"
  top: "fc6"
}
layer {
  name: "drop6"
  type: "Dropout"
  bottom: "fc6"
  top: "fc6"
  dropout_param {
    dropout_ratio: 0.5
  }
}
layer {
  name: "fc7"
  type: "InnerProduct"
  bottom: "fc6"
  top: "fc7"
  param {
    name: "fc7_w"
    lr_mult: 1
    decay_mult: 1
  }
  param {
    name: "fc7_b"
    lr_mult: 2
    decay_mult: 0
  }
  inner_product_param {
    num_output: 256
    weight_filler {
      type: "gaussian"
      std: 0.005
    }
    bias_filler {
      type: "constant"
      value: 0.1
    }
  }
}
layer {
  name: "relu7"
  type: "ReLU"
  bottom: "fc7"
  top: "fc7"
}
layer {
  name: "drop7"
  type: "Dropout"
  bottom: "fc7"
  top: "fc7"
  dropout_param {
    dropout_ratio: 0.5
  }
}
layer {
  name: "fc8"
  type: "InnerProduct"
  bottom: "fc7"
  top: "fc8"
  param {
    name: "fc8_w"
    lr_mult: 1
    decay_mult: 1
  }
  param {
    name: "fc8_b"
    lr_mult: 2
    decay_mult: 0
  }
  inner_product_param {
    num_output: 100
    weight_filler {
      type: "gaussian"
      std: 0.01
    }
    bias_filler {
      type: "constant"
      value: 0
    }
  }
}
layer {
  name: "conv1_p"
  type: "Convolution3D"
  bottom: "data_p"
  top: "conv1_p"
  param {
    name: "conv1_w"
    lr_mult: 1
    decay_mult: 1
  }
  param {
    name: "conv1_b"
    lr_mult: 2
    decay_mult: 0
  }
  convolution3d_param {
    num_output: 96
    pad: 1
    kernel_size: 3
    kernel_depth: 3
    stride: 1
    temporal_stride: 1
    weight_filler {
      type: "gaussian"
      std: 0.01
    }
    bias_filler {
      type: "constant"
      value: 0
    }
    temporal_pad: 1
  }
}
layer {
  name: "relu1_p"
  type: "ReLU"
  bottom: "conv1_p"
  top: "conv1_p"
}
layer {
  name: "pool1_p"
  type: "Pooling3D"
  bottom: "conv1_p"
  top: "pool1_p"
  pooling3d_param {
    pool: MAX
    kernel_size: 2
    stride: 2
    kernel_depth: 2
    temporal_stride: 2
  }
}
layer {
  name: "conv2_p"
  type: "Convolution3D"
  bottom: "pool1_p"
  top: "conv2_p"
  param {
    name: "conv2_w"
    lr_mult: 1
    decay_mult: 1
  }
  param {
    name: "conv2_b"
    lr_mult: 2
    decay_mult: 0
  }
  convolution3d_param {
    num_output: 256
    pad: 1
    kernel_size: 3
    kernel_depth: 3
    stride: 1
    temporal_stride: 1
    weight_filler {
      type: "gaussian"
      std: 0.01
    }
    bias_filler {
      type: "constant"
      value: 0
    }
    temporal_pad: 1
  }
}
layer {
  name: "relu2_p"
  type: "ReLU"
  bottom: "conv2_p"
  top: "conv2_p"
}
layer {
  name: "pool2_p"
  type: "Pooling3D"
  bottom: "conv2_p"
  top: "pool2_p"
  pooling3d_param {
    pool: MAX
    kernel_size: 2
    stride: 2
    kernel_depth: 2
    temporal_stride: 2
  }
}
layer {
  name: "conv3_p"
  type: "Convolution3D"
  bottom: "pool2_p"
  top: "conv3_p"
  param {
    name: "conv3_w"
    lr_mult: 1
    decay_mult: 1
  }
  param {
    name: "conv3_b"
    lr_mult: 2
    decay_mult: 0
  }
  convolution3d_param {
    num_output: 384
    pad: 1
    kernel_size: 3
    kernel_depth: 3
    stride: 1
    temporal_stride: 1
    weight_filler {
      type: "gaussian"
      std: 0.01
    }
    bias_filler {
      type: "constant"
      value: 1
    }
    temporal_pad: 1
  }
}
layer {
  name: "relu3_p"
  type: "ReLU"
  bottom: "conv3_p"
  top: "conv3_p"
}
layer {
  name: "conv4_p"
  type: "Convolution3D"
  bottom: "conv3_p"
  top: "conv4_p"
  param {
    name: "conv4_w"
    lr_mult: 1
    decay_mult: 1
  }
  param {
    name: "conv4_b"
    lr_mult: 2
    decay_mult: 0
  }
  convolution3d_param {
    num_output: 384
    pad: 1
    kernel_size: 3
    kernel_depth: 3
    stride: 1
    temporal_stride: 1
    weight_filler {
      type: "gaussian"
      std: 0.01
    }
    bias_filler {
      type: "constant"
      value: 1
    }
    temporal_pad: 1
  }
}
layer {
  name: "relu4_p"
  type: "ReLU"
  bottom: "conv4_p"
  top: "conv4_p"
}
layer {
  name: "conv5_p"
  type: "Convolution3D"
  bottom: "conv4_p"
  top: "conv5_p"
  param {
    name: "conv5_w"
    lr_mult: 1
    decay_mult: 1
  }
  param {
    name: "conv5_b"
    lr_mult: 2
    decay_mult: 0
  }
  convolution3d_param {
    num_output: 384
    pad: 1
    kernel_size: 3
    kernel_depth: 3
    stride: 1
    temporal_stride: 1
    weight_filler {
      type: "gaussian"
      std: 0.01
    }
    bias_filler {
      type: "constant"
      value: 1
    }
    temporal_pad: 1
  }
}
layer {
  name: "relu5_p"
  type: "ReLU"
  bottom: "conv5_p"
  top: "conv5_p"
}
layer {
  name: "pool5_p"
  type: "Pooling3D"
  bottom: "conv5_p"
  top: "pool5_p"
  pooling3d_param {
    pool: MAX
    kernel_size: 2
    stride: 2
    kernel_depth: 2
    temporal_stride: 2
  }
}
layer {
  name: "fc6_p"
  type: "InnerProduct"
  bottom: "pool5_p"
  top: "fc6_p"
  param {
    name: "fc6_w"
    lr_mult: 1
    decay_mult: 1
  }
  param {
    name: "fc6_b"
    lr_mult: 2
    decay_mult: 0
  }
  inner_product_param {
    num_output: 256
    weight_filler {
      type: "gaussian"
      std: 0.005
    }
    bias_filler {
      type: "constant"
      value: 0.1
    }
  }
}
layer {
  name: "relu6_p"
  type: "ReLU"
  bottom: "fc6_p"
  top: "fc6_p"
}
layer {
  name: "drop6_p"
  type: "Dropout"
  bottom: "fc6_p"
  top: "fc6_p"
  dropout_param {
    dropout_ratio: 0.5
  }
}
layer {
  name: "fc7_p"
  type: "InnerProduct"
  bottom: "fc6_p"
  top: "fc7_p"
  param {
    name: "fc7_w"
    lr_mult: 1
    decay_mult: 1
  }
  param {
    name: "fc7_b"
    lr_mult: 2
    decay_mult: 0
  }
  inner_product_param {
    num_output: 256
    weight_filler {
      type: "gaussian"
      std: 0.005
    }
    bias_filler {
      type: "constant"
      value: 0.1
    }
  }
}
layer {
  name: "relu7_p"
  type: "ReLU"
  bottom: "fc7_p"
  top: "fc7_p"
}
layer {
  name: "drop7_p"
  type: "Dropout"
  bottom: "fc7_p"
  top: "fc7_p"
  dropout_param {
    dropout_ratio: 0.5
  }
}
layer {
  name: "fc8_p"
  type: "InnerProduct"
  bottom: "fc7_p"
  top: "fc8_p"
  param {
    name: "fc8_w"
    lr_mult: 1
    decay_mult: 1
  }
  param {
    name: "fc8_b"
    lr_mult: 2
    decay_mult: 0
  }
  inner_product_param {
    num_output: 100
    weight_filler {
      type: "gaussian"
      std: 0.01
    }
    bias_filler {
      type: "constant"
      value: 0
    }
  }
}
layer {
  name: "loss"
  type: "ContrastiveLoss"
  bottom: "fc8"
  bottom: "fc8_p"
  bottom: "sim"
  top: "loss"
  contrastive_loss_param {
    margin: 1
  }
}
I1119 12:23:21.150322 13747 layer_factory.hpp:77] Creating layer pair_data
I1119 12:23:21.150337 13747 net.cpp:84] Creating Layer pair_data
I1119 12:23:21.150346 13747 net.cpp:380] pair_data -> pair_data
I1119 12:23:21.150368 13747 net.cpp:380] pair_data -> sim
I1119 12:23:21.150382 13747 hdf5_data_layer.cpp:79] Loading list of HDF5 filenames from: ../train.txt
I1119 12:23:21.150482 13747 hdf5_data_layer.cpp:93] Number of HDF5 files: 166
I1119 12:23:21.151628 13747 hdf5.cpp:32] Datatype class: H5T_FLOAT
I1119 12:23:21.163664 13747 net.cpp:122] Setting up pair_data
I1119 12:23:21.163712 13747 net.cpp:129] Top shape: 1 1 80 120 120 (1152000)
I1119 12:23:21.163718 13747 net.cpp:129] Top shape: 1 (1)
I1119 12:23:21.163722 13747 net.cpp:137] Memory required for data: 4608004
I1119 12:23:21.163733 13747 layer_factory.hpp:77] Creating layer slice_pair
I1119 12:23:21.163751 13747 net.cpp:84] Creating Layer slice_pair
I1119 12:23:21.163759 13747 net.cpp:406] slice_pair <- pair_data
I1119 12:23:21.163775 13747 net.cpp:380] slice_pair -> data
I1119 12:23:21.163823 13747 net.cpp:380] slice_pair -> data_p
I1119 12:23:21.163859 13747 net.cpp:122] Setting up slice_pair
I1119 12:23:21.163866 13747 net.cpp:129] Top shape: 1 1 40 120 120 (576000)
I1119 12:23:21.163872 13747 net.cpp:129] Top shape: 1 1 40 120 120 (576000)
I1119 12:23:21.163875 13747 net.cpp:137] Memory required for data: 9216004
I1119 12:23:21.163879 13747 layer_factory.hpp:77] Creating layer conv1
I1119 12:23:21.163892 13747 net.cpp:84] Creating Layer conv1
I1119 12:23:21.163897 13747 net.cpp:406] conv1 <- data
I1119 12:23:21.163902 13747 net.cpp:380] conv1 -> conv1
I1119 12:23:21.168112 13747 net.cpp:122] Setting up conv1
I1119 12:23:21.168164 13747 net.cpp:129] Top shape: 1 96 40 120 120 (55296000)
I1119 12:23:21.168170 13747 net.cpp:137] Memory required for data: 230400004
I1119 12:23:21.168201 13747 layer_factory.hpp:77] Creating layer relu1
I1119 12:23:21.168215 13747 net.cpp:84] Creating Layer relu1
I1119 12:23:21.168221 13747 net.cpp:406] relu1 <- conv1
I1119 12:23:21.168231 13747 net.cpp:367] relu1 -> conv1 (in-place)
I1119 12:23:21.168244 13747 net.cpp:122] Setting up relu1
I1119 12:23:21.168256 13747 net.cpp:129] Top shape: 1 96 40 120 120 (55296000)
I1119 12:23:21.168259 13747 net.cpp:137] Memory required for data: 451584004
I1119 12:23:21.168263 13747 layer_factory.hpp:77] Creating layer pool1
I1119 12:23:21.168273 13747 net.cpp:84] Creating Layer pool1
I1119 12:23:21.168277 13747 net.cpp:406] pool1 <- conv1
I1119 12:23:21.168284 13747 net.cpp:380] pool1 -> pool1
I1119 12:23:21.168356 13747 net.cpp:122] Setting up pool1
I1119 12:23:21.168365 13747 net.cpp:129] Top shape: 1 96 20 60 60 (6912000)
I1119 12:23:21.168370 13747 net.cpp:137] Memory required for data: 479232004
I1119 12:23:21.168373 13747 layer_factory.hpp:77] Creating layer conv2
I1119 12:23:21.168383 13747 net.cpp:84] Creating Layer conv2
I1119 12:23:21.168387 13747 net.cpp:406] conv2 <- pool1
I1119 12:23:21.168395 13747 net.cpp:380] conv2 -> conv2
I1119 12:23:21.179452 13747 net.cpp:122] Setting up conv2
I1119 12:23:21.179497 13747 net.cpp:129] Top shape: 1 256 20 60 60 (18432000)
I1119 12:23:21.179503 13747 net.cpp:137] Memory required for data: 552960004
I1119 12:23:21.179527 13747 layer_factory.hpp:77] Creating layer relu2
I1119 12:23:21.179539 13747 net.cpp:84] Creating Layer relu2
I1119 12:23:21.179545 13747 net.cpp:406] relu2 <- conv2
I1119 12:23:21.179555 13747 net.cpp:367] relu2 -> conv2 (in-place)
I1119 12:23:21.179569 13747 net.cpp:122] Setting up relu2
I1119 12:23:21.179574 13747 net.cpp:129] Top shape: 1 256 20 60 60 (18432000)
I1119 12:23:21.179579 13747 net.cpp:137] Memory required for data: 626688004
I1119 12:23:21.179582 13747 layer_factory.hpp:77] Creating layer pool2
I1119 12:23:21.179590 13747 net.cpp:84] Creating Layer pool2
I1119 12:23:21.179594 13747 net.cpp:406] pool2 <- conv2
I1119 12:23:21.179600 13747 net.cpp:380] pool2 -> pool2
I1119 12:23:21.179637 13747 net.cpp:122] Setting up pool2
I1119 12:23:21.179644 13747 net.cpp:129] Top shape: 1 256 10 30 30 (2304000)
I1119 12:23:21.179648 13747 net.cpp:137] Memory required for data: 635904004
I1119 12:23:21.179652 13747 layer_factory.hpp:77] Creating layer conv3
I1119 12:23:21.179664 13747 net.cpp:84] Creating Layer conv3
I1119 12:23:21.179668 13747 net.cpp:406] conv3 <- pool2
I1119 12:23:21.179675 13747 net.cpp:380] conv3 -> conv3
I1119 12:23:21.218487 13747 net.cpp:122] Setting up conv3
I1119 12:23:21.218534 13747 net.cpp:129] Top shape: 1 384 10 30 30 (3456000)
I1119 12:23:21.218539 13747 net.cpp:137] Memory required for data: 649728004
I1119 12:23:21.218564 13747 layer_factory.hpp:77] Creating layer relu3
I1119 12:23:21.218577 13747 net.cpp:84] Creating Layer relu3
I1119 12:23:21.218583 13747 net.cpp:406] relu3 <- conv3
I1119 12:23:21.218592 13747 net.cpp:367] relu3 -> conv3 (in-place)
I1119 12:23:21.218605 13747 net.cpp:122] Setting up relu3
I1119 12:23:21.218617 13747 net.cpp:129] Top shape: 1 384 10 30 30 (3456000)
I1119 12:23:21.218622 13747 net.cpp:137] Memory required for data: 663552004
I1119 12:23:21.218627 13747 layer_factory.hpp:77] Creating layer conv4
I1119 12:23:21.218677 13747 net.cpp:84] Creating Layer conv4
I1119 12:23:21.218682 13747 net.cpp:406] conv4 <- conv3
I1119 12:23:21.218689 13747 net.cpp:380] conv4 -> conv4
I1119 12:23:21.271740 13747 net.cpp:122] Setting up conv4
I1119 12:23:21.271777 13747 net.cpp:129] Top shape: 1 384 10 30 30 (3456000)
I1119 12:23:21.271785 13747 net.cpp:137] Memory required for data: 677376004
I1119 12:23:21.271805 13747 layer_factory.hpp:77] Creating layer relu4
I1119 12:23:21.271818 13747 net.cpp:84] Creating Layer relu4
I1119 12:23:21.271826 13747 net.cpp:406] relu4 <- conv4
I1119 12:23:21.271836 13747 net.cpp:367] relu4 -> conv4 (in-place)
I1119 12:23:21.271847 13747 net.cpp:122] Setting up relu4
I1119 12:23:21.271854 13747 net.cpp:129] Top shape: 1 384 10 30 30 (3456000)
I1119 12:23:21.271858 13747 net.cpp:137] Memory required for data: 691200004
I1119 12:23:21.271863 13747 layer_factory.hpp:77] Creating layer conv5
I1119 12:23:21.271874 13747 net.cpp:84] Creating Layer conv5
I1119 12:23:21.271878 13747 net.cpp:406] conv5 <- conv4
I1119 12:23:21.271885 13747 net.cpp:380] conv5 -> conv5
I1119 12:23:21.325120 13747 net.cpp:122] Setting up conv5
I1119 12:23:21.325157 13747 net.cpp:129] Top shape: 1 384 10 30 30 (3456000)
I1119 12:23:21.325163 13747 net.cpp:137] Memory required for data: 705024004
I1119 12:23:21.325189 13747 layer_factory.hpp:77] Creating layer relu5
I1119 12:23:21.325203 13747 net.cpp:84] Creating Layer relu5
I1119 12:23:21.325219 13747 net.cpp:406] relu5 <- conv5
I1119 12:23:21.325229 13747 net.cpp:367] relu5 -> conv5 (in-place)
I1119 12:23:21.325240 13747 net.cpp:122] Setting up relu5
I1119 12:23:21.325248 13747 net.cpp:129] Top shape: 1 384 10 30 30 (3456000)
I1119 12:23:21.325253 13747 net.cpp:137] Memory required for data: 718848004
I1119 12:23:21.325256 13747 layer_factory.hpp:77] Creating layer pool5
I1119 12:23:21.325265 13747 net.cpp:84] Creating Layer pool5
I1119 12:23:21.325275 13747 net.cpp:406] pool5 <- conv5
I1119 12:23:21.325283 13747 net.cpp:380] pool5 -> pool5
I1119 12:23:21.325309 13747 net.cpp:122] Setting up pool5
I1119 12:23:21.325316 13747 net.cpp:129] Top shape: 1 384 5 15 15 (432000)
I1119 12:23:21.325321 13747 net.cpp:137] Memory required for data: 720576004
I1119 12:23:21.325326 13747 layer_factory.hpp:77] Creating layer fc6
I1119 12:23:21.325336 13747 net.cpp:84] Creating Layer fc6
I1119 12:23:21.325347 13747 net.cpp:406] fc6 <- pool5
I1119 12:23:21.325354 13747 net.cpp:380] fc6 -> fc6
I1119 12:23:22.778301 13747 net.cpp:122] Setting up fc6
I1119 12:23:22.778338 13747 net.cpp:129] Top shape: 1 256 (256)
I1119 12:23:22.778343 13747 net.cpp:137] Memory required for data: 720577028
I1119 12:23:22.778362 13747 layer_factory.hpp:77] Creating layer relu6
I1119 12:23:22.778380 13747 net.cpp:84] Creating Layer relu6
I1119 12:23:22.778398 13747 net.cpp:406] relu6 <- fc6
I1119 12:23:22.778409 13747 net.cpp:367] relu6 -> fc6 (in-place)
I1119 12:23:22.778420 13747 net.cpp:122] Setting up relu6
I1119 12:23:22.778427 13747 net.cpp:129] Top shape: 1 256 (256)
I1119 12:23:22.778431 13747 net.cpp:137] Memory required for data: 720578052
I1119 12:23:22.778436 13747 layer_factory.hpp:77] Creating layer drop6
I1119 12:23:22.778447 13747 net.cpp:84] Creating Layer drop6
I1119 12:23:22.778452 13747 net.cpp:406] drop6 <- fc6
I1119 12:23:22.778460 13747 net.cpp:367] drop6 -> fc6 (in-place)
I1119 12:23:22.778486 13747 net.cpp:122] Setting up drop6
I1119 12:23:22.778494 13747 net.cpp:129] Top shape: 1 256 (256)
I1119 12:23:22.778499 13747 net.cpp:137] Memory required for data: 720579076
I1119 12:23:22.778504 13747 layer_factory.hpp:77] Creating layer fc7
I1119 12:23:22.778514 13747 net.cpp:84] Creating Layer fc7
I1119 12:23:22.778519 13747 net.cpp:406] fc7 <- fc6
I1119 12:23:22.778528 13747 net.cpp:380] fc7 -> fc7
I1119 12:23:22.780968 13747 net.cpp:122] Setting up fc7
I1119 12:23:22.780998 13747 net.cpp:129] Top shape: 1 256 (256)
I1119 12:23:22.781004 13747 net.cpp:137] Memory required for data: 720580100
I1119 12:23:22.781021 13747 layer_factory.hpp:77] Creating layer relu7
I1119 12:23:22.781064 13747 net.cpp:84] Creating Layer relu7
I1119 12:23:22.781070 13747 net.cpp:406] relu7 <- fc7
I1119 12:23:22.781080 13747 net.cpp:367] relu7 -> fc7 (in-place)
I1119 12:23:22.781097 13747 net.cpp:122] Setting up relu7
I1119 12:23:22.781105 13747 net.cpp:129] Top shape: 1 256 (256)
I1119 12:23:22.781110 13747 net.cpp:137] Memory required for data: 720581124
I1119 12:23:22.781114 13747 layer_factory.hpp:77] Creating layer drop7
I1119 12:23:22.781123 13747 net.cpp:84] Creating Layer drop7
I1119 12:23:22.781128 13747 net.cpp:406] drop7 <- fc7
I1119 12:23:22.781134 13747 net.cpp:367] drop7 -> fc7 (in-place)
I1119 12:23:22.781159 13747 net.cpp:122] Setting up drop7
I1119 12:23:22.781167 13747 net.cpp:129] Top shape: 1 256 (256)
I1119 12:23:22.781172 13747 net.cpp:137] Memory required for data: 720582148
I1119 12:23:22.781179 13747 layer_factory.hpp:77] Creating layer fc8
I1119 12:23:22.781193 13747 net.cpp:84] Creating Layer fc8
I1119 12:23:22.781203 13747 net.cpp:406] fc8 <- fc7
I1119 12:23:22.781211 13747 net.cpp:380] fc8 -> fc8
I1119 12:23:22.781618 13747 net.cpp:122] Setting up fc8
I1119 12:23:22.781626 13747 net.cpp:129] Top shape: 1 100 (100)
I1119 12:23:22.781630 13747 net.cpp:137] Memory required for data: 720582548
I1119 12:23:22.781637 13747 layer_factory.hpp:77] Creating layer conv1_p
I1119 12:23:22.781647 13747 net.cpp:84] Creating Layer conv1_p
I1119 12:23:22.781653 13747 net.cpp:406] conv1_p <- data_p
I1119 12:23:22.781661 13747 net.cpp:380] conv1_p -> conv1_p
I1119 12:23:22.784202 13747 net.cpp:122] Setting up conv1_p
I1119 12:23:22.784252 13747 net.cpp:129] Top shape: 1 96 40 120 120 (55296000)
I1119 12:23:22.784257 13747 net.cpp:137] Memory required for data: 941766548
I1119 12:23:22.784284 13747 net.cpp:465] Sharing parameters 'conv1_w' owned by layer 'conv1', param index 0
I1119 12:23:22.784294 13747 net.cpp:465] Sharing parameters 'conv1_b' owned by layer 'conv1', param index 1
I1119 12:23:22.784301 13747 layer_factory.hpp:77] Creating layer relu1_p
I1119 12:23:22.784313 13747 net.cpp:84] Creating Layer relu1_p
I1119 12:23:22.784319 13747 net.cpp:406] relu1_p <- conv1_p
I1119 12:23:22.784329 13747 net.cpp:367] relu1_p -> conv1_p (in-place)
I1119 12:23:22.784343 13747 net.cpp:122] Setting up relu1_p
I1119 12:23:22.784349 13747 net.cpp:129] Top shape: 1 96 40 120 120 (55296000)
I1119 12:23:22.784354 13747 net.cpp:137] Memory required for data: 1162950548
I1119 12:23:22.784358 13747 layer_factory.hpp:77] Creating layer pool1_p
I1119 12:23:22.784368 13747 net.cpp:84] Creating Layer pool1_p
I1119 12:23:22.784409 13747 net.cpp:406] pool1_p <- conv1_p
I1119 12:23:22.784417 13747 net.cpp:380] pool1_p -> pool1_p
I1119 12:23:22.784515 13747 net.cpp:122] Setting up pool1_p
I1119 12:23:22.784526 13747 net.cpp:129] Top shape: 1 96 20 60 60 (6912000)
I1119 12:23:22.784531 13747 net.cpp:137] Memory required for data: 1190598548
I1119 12:23:22.784536 13747 layer_factory.hpp:77] Creating layer conv2_p
I1119 12:23:22.784548 13747 net.cpp:84] Creating Layer conv2_p
I1119 12:23:22.784555 13747 net.cpp:406] conv2_p <- pool1_p
I1119 12:23:22.784564 13747 net.cpp:380] conv2_p -> conv2_p
I1119 12:23:22.794203 13747 net.cpp:122] Setting up conv2_p
I1119 12:23:22.794237 13747 net.cpp:129] Top shape: 1 256 20 60 60 (18432000)
I1119 12:23:22.794242 13747 net.cpp:137] Memory required for data: 1264326548
I1119 12:23:22.794255 13747 net.cpp:465] Sharing parameters 'conv2_w' owned by layer 'conv2', param index 0
I1119 12:23:22.794263 13747 net.cpp:465] Sharing parameters 'conv2_b' owned by layer 'conv2', param index 1
I1119 12:23:22.794270 13747 layer_factory.hpp:77] Creating layer relu2_p
I1119 12:23:22.794282 13747 net.cpp:84] Creating Layer relu2_p
I1119 12:23:22.794302 13747 net.cpp:406] relu2_p <- conv2_p
I1119 12:23:22.794312 13747 net.cpp:367] relu2_p -> conv2_p (in-place)
I1119 12:23:22.794327 13747 net.cpp:122] Setting up relu2_p
I1119 12:23:22.794340 13747 net.cpp:129] Top shape: 1 256 20 60 60 (18432000)
I1119 12:23:22.794345 13747 net.cpp:137] Memory required for data: 1338054548
I1119 12:23:22.794349 13747 layer_factory.hpp:77] Creating layer pool2_p
I1119 12:23:22.794384 13747 net.cpp:84] Creating Layer pool2_p
I1119 12:23:22.794395 13747 net.cpp:406] pool2_p <- conv2_p
I1119 12:23:22.794402 13747 net.cpp:380] pool2_p -> pool2_p
I1119 12:23:22.794425 13747 net.cpp:122] Setting up pool2_p
I1119 12:23:22.794433 13747 net.cpp:129] Top shape: 1 256 10 30 30 (2304000)
I1119 12:23:22.794437 13747 net.cpp:137] Memory required for data: 1347270548
I1119 12:23:22.794442 13747 layer_factory.hpp:77] Creating layer conv3_p
I1119 12:23:22.794452 13747 net.cpp:84] Creating Layer conv3_p
I1119 12:23:22.794457 13747 net.cpp:406] conv3_p <- pool2_p
I1119 12:23:22.794466 13747 net.cpp:380] conv3_p -> conv3_p
I1119 12:23:22.830555 13747 net.cpp:122] Setting up conv3_p
I1119 12:23:22.830593 13747 net.cpp:129] Top shape: 1 384 10 30 30 (3456000)
I1119 12:23:22.830600 13747 net.cpp:137] Memory required for data: 1361094548
I1119 12:23:22.830615 13747 net.cpp:465] Sharing parameters 'conv3_w' owned by layer 'conv3', param index 0
I1119 12:23:22.830624 13747 net.cpp:465] Sharing parameters 'conv3_b' owned by layer 'conv3', param index 1
I1119 12:23:22.830631 13747 layer_factory.hpp:77] Creating layer relu3_p
I1119 12:23:22.830644 13747 net.cpp:84] Creating Layer relu3_p
I1119 12:23:22.830651 13747 net.cpp:406] relu3_p <- conv3_p
I1119 12:23:22.830662 13747 net.cpp:367] relu3_p -> conv3_p (in-place)
I1119 12:23:22.830673 13747 net.cpp:122] Setting up relu3_p
I1119 12:23:22.830680 13747 net.cpp:129] Top shape: 1 384 10 30 30 (3456000)
I1119 12:23:22.830684 13747 net.cpp:137] Memory required for data: 1374918548
I1119 12:23:22.830689 13747 layer_factory.hpp:77] Creating layer conv4_p
I1119 12:23:22.830700 13747 net.cpp:84] Creating Layer conv4_p
I1119 12:23:22.830704 13747 net.cpp:406] conv4_p <- conv3_p
I1119 12:23:22.830713 13747 net.cpp:380] conv4_p -> conv4_p
I1119 12:23:22.884343 13747 net.cpp:122] Setting up conv4_p
I1119 12:23:22.884383 13747 net.cpp:129] Top shape: 1 384 10 30 30 (3456000)
I1119 12:23:22.884390 13747 net.cpp:137] Memory required for data: 1388742548
I1119 12:23:22.884404 13747 net.cpp:465] Sharing parameters 'conv4_w' owned by layer 'conv4', param index 0
I1119 12:23:22.884413 13747 net.cpp:465] Sharing parameters 'conv4_b' owned by layer 'conv4', param index 1
I1119 12:23:22.884419 13747 layer_factory.hpp:77] Creating layer relu4_p
I1119 12:23:22.884433 13747 net.cpp:84] Creating Layer relu4_p
I1119 12:23:22.884439 13747 net.cpp:406] relu4_p <- conv4_p
I1119 12:23:22.884461 13747 net.cpp:367] relu4_p -> conv4_p (in-place)
I1119 12:23:22.884474 13747 net.cpp:122] Setting up relu4_p
I1119 12:23:22.884481 13747 net.cpp:129] Top shape: 1 384 10 30 30 (3456000)
I1119 12:23:22.884485 13747 net.cpp:137] Memory required for data: 1402566548
I1119 12:23:22.884490 13747 layer_factory.hpp:77] Creating layer conv5_p
I1119 12:23:22.884508 13747 net.cpp:84] Creating Layer conv5_p
I1119 12:23:22.884517 13747 net.cpp:406] conv5_p <- conv4_p
I1119 12:23:22.884526 13747 net.cpp:380] conv5_p -> conv5_p
I1119 12:23:22.937891 13747 net.cpp:122] Setting up conv5_p
I1119 12:23:22.937929 13747 net.cpp:129] Top shape: 1 384 10 30 30 (3456000)
I1119 12:23:22.937935 13747 net.cpp:137] Memory required for data: 1416390548
I1119 12:23:22.937949 13747 net.cpp:465] Sharing parameters 'conv5_w' owned by layer 'conv5', param index 0
I1119 12:23:22.937959 13747 net.cpp:465] Sharing parameters 'conv5_b' owned by layer 'conv5', param index 1
I1119 12:23:22.937965 13747 layer_factory.hpp:77] Creating layer relu5_p
I1119 12:23:22.937978 13747 net.cpp:84] Creating Layer relu5_p
I1119 12:23:22.938050 13747 net.cpp:406] relu5_p <- conv5_p
I1119 12:23:22.938062 13747 net.cpp:367] relu5_p -> conv5_p (in-place)
I1119 12:23:22.938073 13747 net.cpp:122] Setting up relu5_p
I1119 12:23:22.938081 13747 net.cpp:129] Top shape: 1 384 10 30 30 (3456000)
I1119 12:23:22.938086 13747 net.cpp:137] Memory required for data: 1430214548
I1119 12:23:22.938091 13747 layer_factory.hpp:77] Creating layer pool5_p
I1119 12:23:22.938099 13747 net.cpp:84] Creating Layer pool5_p
I1119 12:23:22.938127 13747 net.cpp:406] pool5_p <- conv5_p
I1119 12:23:22.938134 13747 net.cpp:380] pool5_p -> pool5_p
I1119 12:23:22.938163 13747 net.cpp:122] Setting up pool5_p
I1119 12:23:22.938170 13747 net.cpp:129] Top shape: 1 384 5 15 15 (432000)
I1119 12:23:22.938175 13747 net.cpp:137] Memory required for data: 1431942548
I1119 12:23:22.938179 13747 layer_factory.hpp:77] Creating layer fc6_p
I1119 12:23:22.938189 13747 net.cpp:84] Creating Layer fc6_p
I1119 12:23:22.938194 13747 net.cpp:406] fc6_p <- pool5_p
I1119 12:23:22.938202 13747 net.cpp:380] fc6_p -> fc6_p
I1119 12:23:24.377379 13747 net.cpp:122] Setting up fc6_p
I1119 12:23:24.377419 13747 net.cpp:129] Top shape: 1 256 (256)
I1119 12:23:24.377425 13747 net.cpp:137] Memory required for data: 1431943572
I1119 12:23:24.377439 13747 net.cpp:465] Sharing parameters 'fc6_w' owned by layer 'fc6', param index 0
I1119 12:23:24.377446 13747 net.cpp:465] Sharing parameters 'fc6_b' owned by layer 'fc6', param index 1
I1119 12:23:24.377454 13747 layer_factory.hpp:77] Creating layer relu6_p
I1119 12:23:24.377466 13747 net.cpp:84] Creating Layer relu6_p
I1119 12:23:24.377473 13747 net.cpp:406] relu6_p <- fc6_p
I1119 12:23:24.377485 13747 net.cpp:367] relu6_p -> fc6_p (in-place)
I1119 12:23:24.377496 13747 net.cpp:122] Setting up relu6_p
I1119 12:23:24.377502 13747 net.cpp:129] Top shape: 1 256 (256)
I1119 12:23:24.377507 13747 net.cpp:137] Memory required for data: 1431944596
I1119 12:23:24.377512 13747 layer_factory.hpp:77] Creating layer drop6_p
I1119 12:23:24.377521 13747 net.cpp:84] Creating Layer drop6_p
I1119 12:23:24.377526 13747 net.cpp:406] drop6_p <- fc6_p
I1119 12:23:24.377532 13747 net.cpp:367] drop6_p -> fc6_p (in-place)
I1119 12:23:24.377557 13747 net.cpp:122] Setting up drop6_p
I1119 12:23:24.377583 13747 net.cpp:129] Top shape: 1 256 (256)
I1119 12:23:24.377588 13747 net.cpp:137] Memory required for data: 1431945620
I1119 12:23:24.377591 13747 layer_factory.hpp:77] Creating layer fc7_p
I1119 12:23:24.377602 13747 net.cpp:84] Creating Layer fc7_p
I1119 12:23:24.377607 13747 net.cpp:406] fc7_p <- fc6_p
I1119 12:23:24.377614 13747 net.cpp:380] fc7_p -> fc7_p
I1119 12:23:24.378475 13747 net.cpp:122] Setting up fc7_p
I1119 12:23:24.378484 13747 net.cpp:129] Top shape: 1 256 (256)
I1119 12:23:24.378489 13747 net.cpp:137] Memory required for data: 1431946644
I1119 12:23:24.378494 13747 net.cpp:465] Sharing parameters 'fc7_w' owned by layer 'fc7', param index 0
I1119 12:23:24.378500 13747 net.cpp:465] Sharing parameters 'fc7_b' owned by layer 'fc7', param index 1
I1119 12:23:24.378505 13747 layer_factory.hpp:77] Creating layer relu7_p
I1119 12:23:24.378512 13747 net.cpp:84] Creating Layer relu7_p
I1119 12:23:24.378517 13747 net.cpp:406] relu7_p <- fc7_p
I1119 12:23:24.378525 13747 net.cpp:367] relu7_p -> fc7_p (in-place)
I1119 12:23:24.378531 13747 net.cpp:122] Setting up relu7_p
I1119 12:23:24.378537 13747 net.cpp:129] Top shape: 1 256 (256)
I1119 12:23:24.378541 13747 net.cpp:137] Memory required for data: 1431947668
I1119 12:23:24.378545 13747 layer_factory.hpp:77] Creating layer drop7_p
I1119 12:23:24.378551 13747 net.cpp:84] Creating Layer drop7_p
I1119 12:23:24.378556 13747 net.cpp:406] drop7_p <- fc7_p
I1119 12:23:24.378561 13747 net.cpp:367] drop7_p -> fc7_p (in-place)
I1119 12:23:24.378582 13747 net.cpp:122] Setting up drop7_p
I1119 12:23:24.378588 13747 net.cpp:129] Top shape: 1 256 (256)
I1119 12:23:24.378593 13747 net.cpp:137] Memory required for data: 1431948692
I1119 12:23:24.378597 13747 layer_factory.hpp:77] Creating layer fc8_p
I1119 12:23:24.378605 13747 net.cpp:84] Creating Layer fc8_p
I1119 12:23:24.378609 13747 net.cpp:406] fc8_p <- fc7_p
I1119 12:23:24.378618 13747 net.cpp:380] fc8_p -> fc8_p
I1119 12:23:24.379019 13747 net.cpp:122] Setting up fc8_p
I1119 12:23:24.379027 13747 net.cpp:129] Top shape: 1 100 (100)
I1119 12:23:24.379031 13747 net.cpp:137] Memory required for data: 1431949092
I1119 12:23:24.379036 13747 net.cpp:465] Sharing parameters 'fc8_w' owned by layer 'fc8', param index 0
I1119 12:23:24.379043 13747 net.cpp:465] Sharing parameters 'fc8_b' owned by layer 'fc8', param index 1
I1119 12:23:24.379070 13747 layer_factory.hpp:77] Creating layer loss
I1119 12:23:24.379081 13747 net.cpp:84] Creating Layer loss
…
