…
snapshot_prefix: "/home/hzzone/1tb/id-model/siamese/2d/2d_alexnet/2d_siamese_alexnet_train"
solver_mode: GPU
device_id: 0
net: "./train_val.prototxt"
train_state {
  level: 0
  stage: ""
}
I1119 11:10:20.079993  9434 solver.cpp:87] Creating training net from net file: ./train_val.prototxt
I1119 11:10:20.080927  9434 net.cpp:51] Initializing net from parameters: 
name: "AlexNet"
state {
  phase: TRAIN
  level: 0
  stage: ""
}
layer {
  name: "pair_data"
  type: "HDF5Data"
  top: "pair_data"
  top: "sim"
  include {
    phase: TRAIN
  }
  hdf5_data_param {
    source: "../train.txt"
    batch_size: 10
    shuffle: true
  }
}
layer {
  name: "slice_pair"
  type: "Slice"
  bottom: "pair_data"
  top: "data"
  top: "data_p"
  slice_param {
    slice_dim: 1
    slice_point: 40
  }
}
layer {
  name: "conv1"
  type: "Convolution"
  bottom: "data"
  top: "conv1"
  param {
    name: "conv1_w"
    lr_mult: 1
    decay_mult: 1
  }
  param {
    name: "conv1_b"
    lr_mult: 2
    decay_mult: 0
  }
  convolution_param {
    num_output: 96
    kernel_size: 11
    stride: 4
    weight_filler {
      type: "gaussian"
      std: 0.01
    }
    bias_filler {
      type: "constant"
      value: 0
    }
  }
}
layer {
  name: "relu1"
  type: "ReLU"
  bottom: "conv1"
  top: "conv1"
}
layer {
  name: "norm1"
  type: "LRN"
  bottom: "conv1"
  top: "norm1"
  lrn_param {
    local_size: 5
    alpha: 0.0001
    beta: 0.75
  }
}
layer {
  name: "pool1"
  type: "Pooling"
  bottom: "norm1"
  top: "pool1"
  pooling_param {
    pool: MAX
    kernel_size: 3
    stride: 2
  }
}
layer {
  name: "conv2"
  type: "Convolution"
  bottom: "pool1"
  top: "conv2"
  param {
    name: "conv2_w"
    lr_mult: 1
    decay_mult: 1
  }
  param {
    name: "conv2_b"
    lr_mult: 2
    decay_mult: 0
  }
  convolution_param {
    num_output: 256
    pad: 2
    kernel_size: 5
    group: 2
    weight_filler {
      type: "gaussian"
      std: 0.01
    }
    bias_filler {
      type: "constant"
      value: 0.1
    }
  }
}
layer {
  name: "relu2"
  type: "ReLU"
  bottom: "conv2"
  top: "conv2"
}
layer {
  name: "norm2"
  type: "LRN"
  bottom: "conv2"
  top: "norm2"
  lrn_param {
    local_size: 5
    alpha: 0.0001
    beta: 0.75
  }
}
layer {
  name: "pool2"
  type: "Pooling"
  bottom: "norm2"
  top: "pool2"
  pooling_param {
    pool: MAX
    kernel_size: 3
    stride: 2
  }
}
layer {
  name: "conv3"
  type: "Convolution"
  bottom: "pool2"
  top: "conv3"
  param {
    name: "conv3_w"
    lr_mult: 1
    decay_mult: 1
  }
  param {
    name: "conv3_b"
    lr_mult: 2
    decay_mult: 0
  }
  convolution_param {
    num_output: 384
    pad: 1
    kernel_size: 3
    weight_filler {
      type: "gaussian"
      std: 0.01
    }
    bias_filler {
      type: "constant"
      value: 0
    }
  }
}
layer {
  name: "relu3"
  type: "ReLU"
  bottom: "conv3"
  top: "conv3"
}
layer {
  name: "conv4"
  type: "Convolution"
  bottom: "conv3"
  top: "conv4"
  param {
    name: "conv4_w"
    lr_mult: 1
    decay_mult: 1
  }
  param {
    name: "conv4_b"
    lr_mult: 2
    decay_mult: 0
  }
  convolution_param {
    num_output: 384
    pad: 1
    kernel_size: 3
    group: 2
    weight_filler {
      type: "gaussian"
      std: 0.01
    }
    bias_filler {
      type: "constant"
      value: 0.1
    }
  }
}
layer {
  name: "relu4"
  type: "ReLU"
  bottom: "conv4"
  top: "conv4"
}
layer {
  name: "conv5"
  type: "Convolution"
  bottom: "conv4"
  top: "conv5"
  param {
    name: "conv5_w"
    lr_mult: 1
    decay_mult: 1
  }
  param {
    name: "conv5_b"
    lr_mult: 2
    decay_mult: 0
  }
  convolution_param {
    num_output: 256
    pad: 1
    kernel_size: 3
    group: 2
    weight_filler {
      type: "gaussian"
      std: 0.01
    }
    bias_filler {
      type: "constant"
      value: 0.1
    }
  }
}
layer {
  name: "relu5"
  type: "ReLU"
  bottom: "conv5"
  top: "conv5"
}
layer {
  name: "pool5"
  type: "Pooling"
  bottom: "conv5"
  top: "pool5"
  pooling_param {
    pool: MAX
    kernel_size: 3
    stride: 2
  }
}
layer {
  name: "fc6"
  type: "InnerProduct"
  bottom: "pool5"
  top: "fc6"
  param {
    name: "fc6_w"
    lr_mult: 1
    decay_mult: 1
  }
  param {
    name: "fc6_b"
    lr_mult: 2
    decay_mult: 0
  }
  inner_product_param {
    num_output: 4096
    weight_filler {
      type: "gaussian"
      std: 0.005
    }
    bias_filler {
      type: "constant"
      value: 0.1
    }
  }
}
layer {
  name: "relu6"
  type: "ReLU"
  bottom: "fc6"
  top: "fc6"
}
layer {
  name: "drop6"
  type: "Dropout"
  bottom: "fc6"
  top: "fc6"
  dropout_param {
    dropout_ratio: 0.5
  }
}
layer {
  name: "fc7"
  type: "InnerProduct"
  bottom: "fc6"
  top: "fc7"
  param {
    name: "fc7_w"
    lr_mult: 1
    decay_mult: 1
  }
  param {
    name: "fc7_b"
    lr_mult: 2
    decay_mult: 0
  }
  inner_product_param {
    num_output: 4096
    weight_filler {
      type: "gaussian"
      std: 0.005
    }
    bias_filler {
      type: "constant"
      value: 0.1
    }
  }
}
layer {
  name: "relu7"
  type: "ReLU"
  bottom: "fc7"
  top: "fc7"
}
layer {
  name: "drop7"
  type: "Dropout"
  bottom: "fc7"
  top: "fc7"
  dropout_param {
    dropout_ratio: 0.5
  }
}
layer {
  name: "fc8"
  type: "InnerProduct"
  bottom: "fc7"
  top: "fc8"
  param {
    name: "fc8_w"
    lr_mult: 1
    decay_mult: 1
  }
  param {
    name: "fc8_b"
    lr_mult: 2
    decay_mult: 0
  }
  inner_product_param {
    num_output: 100
    weight_filler {
      type: "gaussian"
      std: 0.01
    }
    bias_filler {
      type: "constant"
      value: 0
    }
  }
}
layer {
  name: "conv1_p"
  type: "Convolution"
  bottom: "data_p"
  top: "conv1_p"
  param {
    name: "conv1_w"
    lr_mult: 1
    decay_mult: 1
  }
  param {
    name: "conv1_b"
    lr_mult: 2
    decay_mult: 0
  }
  convolution_param {
    num_output: 96
    kernel_size: 11
    stride: 4
    weight_filler {
      type: "gaussian"
      std: 0.01
    }
    bias_filler {
      type: "constant"
      value: 0
    }
  }
}
layer {
  name: "relu1_p"
  type: "ReLU"
  bottom: "conv1_p"
  top: "conv1_p"
}
layer {
  name: "norm1_p"
  type: "LRN"
  bottom: "conv1_p"
  top: "norm1_p"
  lrn_param {
    local_size: 5
    alpha: 0.0001
    beta: 0.75
  }
}
layer {
  name: "pool1_p"
  type: "Pooling"
  bottom: "norm1_p"
  top: "pool1_p"
  pooling_param {
    pool: MAX
    kernel_size: 3
    stride: 2
  }
}
layer {
  name: "conv2_p"
  type: "Convolution"
  bottom: "pool1_p"
  top: "conv2_p"
  param {
    name: "conv2_w"
    lr_mult: 1
    decay_mult: 1
  }
  param {
    name: "conv2_b"
    lr_mult: 2
    decay_mult: 0
  }
  convolution_param {
    num_output: 256
    pad: 2
    kernel_size: 5
    group: 2
    weight_filler {
      type: "gaussian"
      std: 0.01
    }
    bias_filler {
      type: "constant"
      value: 0.1
    }
  }
}
layer {
  name: "relu2_p"
  type: "ReLU"
  bottom: "conv2_p"
  top: "conv2_p"
}
layer {
  name: "norm2_p"
  type: "LRN"
  bottom: "conv2_p"
  top: "norm2_p"
  lrn_param {
    local_size: 5
    alpha: 0.0001
    beta: 0.75
  }
}
layer {
  name: "pool2_p"
  type: "Pooling"
  bottom: "norm2_p"
  top: "pool2_p"
  pooling_param {
    pool: MAX
    kernel_size: 3
    stride: 2
  }
}
layer {
  name: "conv3_p"
  type: "Convolution"
  bottom: "pool2_p"
  top: "conv3_p"
  param {
    name: "conv3_w"
    lr_mult: 1
    decay_mult: 1
  }
  param {
    name: "conv3_b"
    lr_mult: 2
    decay_mult: 0
  }
  convolution_param {
    num_output: 384
    pad: 1
    kernel_size: 3
    weight_filler {
      type: "gaussian"
      std: 0.01
    }
    bias_filler {
      type: "constant"
      value: 0
    }
  }
}
layer {
  name: "relu3_p"
  type: "ReLU"
  bottom: "conv3_p"
  top: "conv3_p"
}
layer {
  name: "conv4_p"
  type: "Convolution"
  bottom: "conv3_p"
  top: "conv4_p"
  param {
    name: "conv4_w"
    lr_mult: 1
    decay_mult: 1
  }
  param {
    name: "conv4_b"
    lr_mult: 2
    decay_mult: 0
  }
  convolution_param {
    num_output: 384
    pad: 1
    kernel_size: 3
    group: 2
    weight_filler {
      type: "gaussian"
      std: 0.01
    }
    bias_filler {
      type: "constant"
      value: 0.1
    }
  }
}
layer {
  name: "relu4_p"
  type: "ReLU"
  bottom: "conv4_p"
  top: "conv4_p"
}
layer {
  name: "conv5_p"
  type: "Convolution"
  bottom: "conv4_p"
  top: "conv5_p"
  param {
    name: "conv5_w"
    lr_mult: 1
    decay_mult: 1
  }
  param {
    name: "conv5_b"
    lr_mult: 2
    decay_mult: 0
  }
  convolution_param {
    num_output: 256
    pad: 1
    kernel_size: 3
    group: 2
    weight_filler {
      type: "gaussian"
      std: 0.01
    }
    bias_filler {
      type: "constant"
      value: 0.1
    }
  }
}
layer {
  name: "relu5_p"
  type: "ReLU"
  bottom: "conv5_p"
  top: "conv5_p"
}
layer {
  name: "pool5_p"
  type: "Pooling"
  bottom: "conv5_p"
  top: "pool5_p"
  pooling_param {
    pool: MAX
    kernel_size: 3
    stride: 2
  }
}
layer {
  name: "fc6_p"
  type: "InnerProduct"
  bottom: "pool5_p"
  top: "fc6_p"
  param {
    name: "fc6_w"
    lr_mult: 1
    decay_mult: 1
  }
  param {
    name: "fc6_b"
    lr_mult: 2
    decay_mult: 0
  }
  inner_product_param {
    num_output: 4096
    weight_filler {
      type: "gaussian"
      std: 0.005
    }
    bias_filler {
      type: "constant"
      value: 0.1
    }
  }
}
layer {
  name: "relu6_p"
  type: "ReLU"
  bottom: "fc6_p"
  top: "fc6_p"
}
layer {
  name: "drop6_p"
  type: "Dropout"
  bottom: "fc6_p"
  top: "fc6_p"
  dropout_param {
    dropout_ratio: 0.5
  }
}
layer {
  name: "fc7_p"
  type: "InnerProduct"
  bottom: "fc6_p"
  top: "fc7_p"
  param {
    name: "fc7_w"
    lr_mult: 1
    decay_mult: 1
  }
  param {
    name: "fc7_b"
    lr_mult: 2
    decay_mult: 0
  }
  inner_product_param {
    num_output: 4096
    weight_filler {
      type: "gaussian"
      std: 0.005
    }
    bias_filler {
      type: "constant"
      value: 0.1
    }
  }
}
layer {
  name: "relu7_p"
  type: "ReLU"
  bottom: "fc7_p"
  top: "fc7_p"
}
layer {
  name: "drop7_p"
  type: "Dropout"
  bottom: "fc7_p"
  top: "fc7_p"
  dropout_param {
    dropout_ratio: 0.5
  }
}
layer {
  name: "fc8_p"
  type: "InnerProduct"
  bottom: "fc7_p"
  top: "fc8_p"
  param {
    name: "fc8_w"
    lr_mult: 1
    decay_mult: 1
  }
  param {
    name: "fc8_b"
    lr_mult: 2
    decay_mult: 0
  }
  inner_product_param {
    num_output: 100
    weight_filler {
      type: "gaussian"
      std: 0.01
    }
    bias_filler {
      type: "constant"
      value: 0
    }
  }
}
layer {
  name: "loss"
  type: "ContrastiveLoss"
  bottom: "fc8"
  bottom: "fc8_p"
  bottom: "sim"
  top: "loss"
  contrastive_loss_param {
    margin: 1
  }
}
I1119 11:10:20.081110  9434 layer_factory.hpp:77] Creating layer pair_data
I1119 11:10:20.081125  9434 net.cpp:84] Creating Layer pair_data
I1119 11:10:20.081135  9434 net.cpp:380] pair_data -> pair_data
I1119 11:10:20.081156  9434 net.cpp:380] pair_data -> sim
I1119 11:10:20.081169  9434 hdf5_data_layer.cpp:80] Loading list of HDF5 filenames from: ../train.txt
I1119 11:10:20.081269  9434 hdf5_data_layer.cpp:94] Number of HDF5 files: 166
I1119 11:10:20.082425  9434 hdf5.cpp:32] Datatype class: H5T_FLOAT
I1119 11:10:20.094265  9434 net.cpp:122] Setting up pair_data
I1119 11:10:20.094311  9434 net.cpp:129] Top shape: 10 80 120 120 (11520000)
I1119 11:10:20.094321  9434 net.cpp:129] Top shape: 10 (10)
I1119 11:10:20.094326  9434 net.cpp:137] Memory required for data: 46080040
I1119 11:10:20.094336  9434 layer_factory.hpp:77] Creating layer slice_pair
I1119 11:10:20.094359  9434 net.cpp:84] Creating Layer slice_pair
I1119 11:10:20.094368  9434 net.cpp:406] slice_pair <- pair_data
I1119 11:10:20.094385  9434 net.cpp:380] slice_pair -> data
I1119 11:10:20.094401  9434 net.cpp:380] slice_pair -> data_p
I1119 11:10:20.094439  9434 net.cpp:122] Setting up slice_pair
I1119 11:10:20.094446  9434 net.cpp:129] Top shape: 10 40 120 120 (5760000)
I1119 11:10:20.094454  9434 net.cpp:129] Top shape: 10 40 120 120 (5760000)
I1119 11:10:20.094457  9434 net.cpp:137] Memory required for data: 92160040
I1119 11:10:20.094461  9434 layer_factory.hpp:77] Creating layer conv1
I1119 11:10:20.094511  9434 net.cpp:84] Creating Layer conv1
I1119 11:10:20.094518  9434 net.cpp:406] conv1 <- data
I1119 11:10:20.094525  9434 net.cpp:380] conv1 -> conv1
I1119 11:10:20.406255  9434 net.cpp:122] Setting up conv1
I1119 11:10:20.406301  9434 net.cpp:129] Top shape: 10 96 28 28 (752640)
I1119 11:10:20.406306  9434 net.cpp:137] Memory required for data: 95170600
I1119 11:10:20.406332  9434 layer_factory.hpp:77] Creating layer relu1
I1119 11:10:20.406345  9434 net.cpp:84] Creating Layer relu1
I1119 11:10:20.406350  9434 net.cpp:406] relu1 <- conv1
I1119 11:10:20.406359  9434 net.cpp:367] relu1 -> conv1 (in-place)
I1119 11:10:20.406616  9434 net.cpp:122] Setting up relu1
I1119 11:10:20.406630  9434 net.cpp:129] Top shape: 10 96 28 28 (752640)
I1119 11:10:20.406635  9434 net.cpp:137] Memory required for data: 98181160
I1119 11:10:20.406639  9434 layer_factory.hpp:77] Creating layer norm1
I1119 11:10:20.406654  9434 net.cpp:84] Creating Layer norm1
I1119 11:10:20.406659  9434 net.cpp:406] norm1 <- conv1
I1119 11:10:20.406667  9434 net.cpp:380] norm1 -> norm1
I1119 11:10:20.406916  9434 net.cpp:122] Setting up norm1
I1119 11:10:20.406927  9434 net.cpp:129] Top shape: 10 96 28 28 (752640)
I1119 11:10:20.406931  9434 net.cpp:137] Memory required for data: 101191720
I1119 11:10:20.406936  9434 layer_factory.hpp:77] Creating layer pool1
I1119 11:10:20.406945  9434 net.cpp:84] Creating Layer pool1
I1119 11:10:20.406950  9434 net.cpp:406] pool1 <- norm1
I1119 11:10:20.406957  9434 net.cpp:380] pool1 -> pool1
I1119 11:10:20.407006  9434 net.cpp:122] Setting up pool1
I1119 11:10:20.407023  9434 net.cpp:129] Top shape: 10 96 14 14 (188160)
I1119 11:10:20.407028  9434 net.cpp:137] Memory required for data: 101944360
I1119 11:10:20.407033  9434 layer_factory.hpp:77] Creating layer conv2
I1119 11:10:20.407049  9434 net.cpp:84] Creating Layer conv2
I1119 11:10:20.407059  9434 net.cpp:406] conv2 <- pool1
I1119 11:10:20.407068  9434 net.cpp:380] conv2 -> conv2
I1119 11:10:20.414094  9434 net.cpp:122] Setting up conv2
I1119 11:10:20.414134  9434 net.cpp:129] Top shape: 10 256 14 14 (501760)
I1119 11:10:20.414140  9434 net.cpp:137] Memory required for data: 103951400
I1119 11:10:20.414163  9434 layer_factory.hpp:77] Creating layer relu2
I1119 11:10:20.414177  9434 net.cpp:84] Creating Layer relu2
I1119 11:10:20.414185  9434 net.cpp:406] relu2 <- conv2
I1119 11:10:20.414194  9434 net.cpp:367] relu2 -> conv2 (in-place)
I1119 11:10:20.414393  9434 net.cpp:122] Setting up relu2
I1119 11:10:20.414403  9434 net.cpp:129] Top shape: 10 256 14 14 (501760)
I1119 11:10:20.414408  9434 net.cpp:137] Memory required for data: 105958440
I1119 11:10:20.414413  9434 layer_factory.hpp:77] Creating layer norm2
I1119 11:10:20.414427  9434 net.cpp:84] Creating Layer norm2
I1119 11:10:20.414433  9434 net.cpp:406] norm2 <- conv2
I1119 11:10:20.414440  9434 net.cpp:380] norm2 -> norm2
I1119 11:10:20.414656  9434 net.cpp:122] Setting up norm2
I1119 11:10:20.414666  9434 net.cpp:129] Top shape: 10 256 14 14 (501760)
I1119 11:10:20.414671  9434 net.cpp:137] Memory required for data: 107965480
I1119 11:10:20.414675  9434 layer_factory.hpp:77] Creating layer pool2
I1119 11:10:20.414685  9434 net.cpp:84] Creating Layer pool2
I1119 11:10:20.414690  9434 net.cpp:406] pool2 <- norm2
I1119 11:10:20.414697  9434 net.cpp:380] pool2 -> pool2
I1119 11:10:20.414738  9434 net.cpp:122] Setting up pool2
I1119 11:10:20.414746  9434 net.cpp:129] Top shape: 10 256 7 7 (125440)
I1119 11:10:20.414750  9434 net.cpp:137] Memory required for data: 108467240
I1119 11:10:20.414755  9434 layer_factory.hpp:77] Creating layer conv3
I1119 11:10:20.414768  9434 net.cpp:84] Creating Layer conv3
I1119 11:10:20.414773  9434 net.cpp:406] conv3 <- pool2
I1119 11:10:20.414782  9434 net.cpp:380] conv3 -> conv3
I1119 11:10:20.428750  9434 net.cpp:122] Setting up conv3
I1119 11:10:20.428791  9434 net.cpp:129] Top shape: 10 384 7 7 (188160)
I1119 11:10:20.428797  9434 net.cpp:137] Memory required for data: 109219880
I1119 11:10:20.428817  9434 layer_factory.hpp:77] Creating layer relu3
I1119 11:10:20.428859  9434 net.cpp:84] Creating Layer relu3
I1119 11:10:20.428865  9434 net.cpp:406] relu3 <- conv3
I1119 11:10:20.428875  9434 net.cpp:367] relu3 -> conv3 (in-place)
I1119 11:10:20.429338  9434 net.cpp:122] Setting up relu3
I1119 11:10:20.429349  9434 net.cpp:129] Top shape: 10 384 7 7 (188160)
I1119 11:10:20.429354  9434 net.cpp:137] Memory required for data: 109972520
I1119 11:10:20.429359  9434 layer_factory.hpp:77] Creating layer conv4
I1119 11:10:20.429374  9434 net.cpp:84] Creating Layer conv4
I1119 11:10:20.429383  9434 net.cpp:406] conv4 <- conv3
I1119 11:10:20.429392  9434 net.cpp:380] conv4 -> conv4
I1119 11:10:20.441073  9434 net.cpp:122] Setting up conv4
I1119 11:10:20.441110  9434 net.cpp:129] Top shape: 10 384 7 7 (188160)
I1119 11:10:20.441117  9434 net.cpp:137] Memory required for data: 110725160
I1119 11:10:20.441133  9434 layer_factory.hpp:77] Creating layer relu4
I1119 11:10:20.441149  9434 net.cpp:84] Creating Layer relu4
I1119 11:10:20.441156  9434 net.cpp:406] relu4 <- conv4
I1119 11:10:20.441166  9434 net.cpp:367] relu4 -> conv4 (in-place)
I1119 11:10:20.441622  9434 net.cpp:122] Setting up relu4
I1119 11:10:20.441633  9434 net.cpp:129] Top shape: 10 384 7 7 (188160)
I1119 11:10:20.441638  9434 net.cpp:137] Memory required for data: 111477800
I1119 11:10:20.441643  9434 layer_factory.hpp:77] Creating layer conv5
I1119 11:10:20.441658  9434 net.cpp:84] Creating Layer conv5
I1119 11:10:20.441668  9434 net.cpp:406] conv5 <- conv4
I1119 11:10:20.441676  9434 net.cpp:380] conv5 -> conv5
I1119 11:10:20.450589  9434 net.cpp:122] Setting up conv5
I1119 11:10:20.450630  9434 net.cpp:129] Top shape: 10 256 7 7 (125440)
I1119 11:10:20.450635  9434 net.cpp:137] Memory required for data: 111979560
I1119 11:10:20.450661  9434 layer_factory.hpp:77] Creating layer relu5
I1119 11:10:20.450676  9434 net.cpp:84] Creating Layer relu5
I1119 11:10:20.450682  9434 net.cpp:406] relu5 <- conv5
I1119 11:10:20.450692  9434 net.cpp:367] relu5 -> conv5 (in-place)
I1119 11:10:20.450906  9434 net.cpp:122] Setting up relu5
I1119 11:10:20.450917  9434 net.cpp:129] Top shape: 10 256 7 7 (125440)
I1119 11:10:20.450922  9434 net.cpp:137] Memory required for data: 112481320
I1119 11:10:20.450925  9434 layer_factory.hpp:77] Creating layer pool5
I1119 11:10:20.450938  9434 net.cpp:84] Creating Layer pool5
I1119 11:10:20.450943  9434 net.cpp:406] pool5 <- conv5
I1119 11:10:20.450950  9434 net.cpp:380] pool5 -> pool5
I1119 11:10:20.451000  9434 net.cpp:122] Setting up pool5
I1119 11:10:20.451009  9434 net.cpp:129] Top shape: 10 256 3 3 (23040)
I1119 11:10:20.451014  9434 net.cpp:137] Memory required for data: 112573480
I1119 11:10:20.451019  9434 layer_factory.hpp:77] Creating layer fc6
I1119 11:10:20.451028  9434 net.cpp:84] Creating Layer fc6
I1119 11:10:20.451033  9434 net.cpp:406] fc6 <- pool5
I1119 11:10:20.451040  9434 net.cpp:380] fc6 -> fc6
I1119 11:10:20.579013  9434 net.cpp:122] Setting up fc6
I1119 11:10:20.579062  9434 net.cpp:129] Top shape: 10 4096 (40960)
I1119 11:10:20.579067  9434 net.cpp:137] Memory required for data: 112737320
I1119 11:10:20.579089  9434 layer_factory.hpp:77] Creating layer relu6
I1119 11:10:20.579104  9434 net.cpp:84] Creating Layer relu6
I1119 11:10:20.579111  9434 net.cpp:406] relu6 <- fc6
I1119 11:10:20.579121  9434 net.cpp:367] relu6 -> fc6 (in-place)
I1119 11:10:20.579432  9434 net.cpp:122] Setting up relu6
I1119 11:10:20.579442  9434 net.cpp:129] Top shape: 10 4096 (40960)
I1119 11:10:20.579447  9434 net.cpp:137] Memory required for data: 112901160
I1119 11:10:20.579452  9434 layer_factory.hpp:77] Creating layer drop6
I1119 11:10:20.579460  9434 net.cpp:84] Creating Layer drop6
I1119 11:10:20.579470  9434 net.cpp:406] drop6 <- fc6
I1119 11:10:20.579478  9434 net.cpp:367] drop6 -> fc6 (in-place)
I1119 11:10:20.579510  9434 net.cpp:122] Setting up drop6
I1119 11:10:20.579517  9434 net.cpp:129] Top shape: 10 4096 (40960)
I1119 11:10:20.579521  9434 net.cpp:137] Memory required for data: 113065000
I1119 11:10:20.579525  9434 layer_factory.hpp:77] Creating layer fc7
I1119 11:10:20.579557  9434 net.cpp:84] Creating Layer fc7
I1119 11:10:20.579581  9434 net.cpp:406] fc7 <- fc6
I1119 11:10:20.579604  9434 net.cpp:380] fc7 -> fc7
I1119 11:10:20.801201  9434 net.cpp:122] Setting up fc7
I1119 11:10:20.801256  9434 net.cpp:129] Top shape: 10 4096 (40960)
I1119 11:10:20.801260  9434 net.cpp:137] Memory required for data: 113228840
I1119 11:10:20.801275  9434 layer_factory.hpp:77] Creating layer relu7
I1119 11:10:20.801290  9434 net.cpp:84] Creating Layer relu7
I1119 11:10:20.801295  9434 net.cpp:406] relu7 <- fc7
I1119 11:10:20.801304  9434 net.cpp:367] relu7 -> fc7 (in-place)
I1119 11:10:20.801618  9434 net.cpp:122] Setting up relu7
I1119 11:10:20.801628  9434 net.cpp:129] Top shape: 10 4096 (40960)
I1119 11:10:20.801632  9434 net.cpp:137] Memory required for data: 113392680
I1119 11:10:20.801636  9434 layer_factory.hpp:77] Creating layer drop7
I1119 11:10:20.801647  9434 net.cpp:84] Creating Layer drop7
I1119 11:10:20.801652  9434 net.cpp:406] drop7 <- fc7
I1119 11:10:20.801658  9434 net.cpp:367] drop7 -> fc7 (in-place)
I1119 11:10:20.801686  9434 net.cpp:122] Setting up drop7
I1119 11:10:20.801692  9434 net.cpp:129] Top shape: 10 4096 (40960)
I1119 11:10:20.801695  9434 net.cpp:137] Memory required for data: 113556520
I1119 11:10:20.801700  9434 layer_factory.hpp:77] Creating layer fc8
I1119 11:10:20.801712  9434 net.cpp:84] Creating Layer fc8
I1119 11:10:20.801717  9434 net.cpp:406] fc8 <- fc7
I1119 11:10:20.801724  9434 net.cpp:380] fc8 -> fc8
I1119 11:10:20.808032  9434 net.cpp:122] Setting up fc8
I1119 11:10:20.808075  9434 net.cpp:129] Top shape: 10 100 (1000)
I1119 11:10:20.808079  9434 net.cpp:137] Memory required for data: 113560520
I1119 11:10:20.808094  9434 layer_factory.hpp:77] Creating layer conv1_p
I1119 11:10:20.808121  9434 net.cpp:84] Creating Layer conv1_p
I1119 11:10:20.808130  9434 net.cpp:406] conv1_p <- data_p
I1119 11:10:20.808141  9434 net.cpp:380] conv1_p -> conv1_p
I1119 11:10:20.816710  9434 net.cpp:122] Setting up conv1_p
I1119 11:10:20.816758  9434 net.cpp:129] Top shape: 10 96 28 28 (752640)
I1119 11:10:20.816763  9434 net.cpp:137] Memory required for data: 116571080
I1119 11:10:20.816781  9434 net.cpp:465] Sharing parameters 'conv1_w' owned by layer 'conv1', param index 0
I1119 11:10:20.816790  9434 net.cpp:465] Sharing parameters 'conv1_b' owned by layer 'conv1', param index 1
I1119 11:10:20.816797  9434 layer_factory.hpp:77] Creating layer relu1_p
I1119 11:10:20.816810  9434 net.cpp:84] Creating Layer relu1_p
I1119 11:10:20.816817  9434 net.cpp:406] relu1_p <- conv1_p
I1119 11:10:20.816829  9434 net.cpp:367] relu1_p -> conv1_p (in-place)
I1119 11:10:20.817096  9434 net.cpp:122] Setting up relu1_p
I1119 11:10:20.817112  9434 net.cpp:129] Top shape: 10 96 28 28 (752640)
I1119 11:10:20.817117  9434 net.cpp:137] Memory required for data: 119581640
I1119 11:10:20.817122  9434 layer_factory.hpp:77] Creating layer norm1_p
I1119 11:10:20.817136  9434 net.cpp:84] Creating Layer norm1_p
I1119 11:10:20.817140  9434 net.cpp:406] norm1_p <- conv1_p
I1119 11:10:20.817148  9434 net.cpp:380] norm1_p -> norm1_p
I1119 11:10:20.817965  9434 net.cpp:122] Setting up norm1_p
I1119 11:10:20.817987  9434 net.cpp:129] Top shape: 10 96 28 28 (752640)
I1119 11:10:20.817992  9434 net.cpp:137] Memory required for data: 122592200
I1119 11:10:20.817998  9434 layer_factory.hpp:77] Creating layer pool1_p
I1119 11:10:20.818009  9434 net.cpp:84] Creating Layer pool1_p
I1119 11:10:20.818015  9434 net.cpp:406] pool1_p <- norm1_p
I1119 11:10:20.818025  9434 net.cpp:380] pool1_p -> pool1_p
I1119 11:10:20.818073  9434 net.cpp:122] Setting up pool1_p
I1119 11:10:20.818079  9434 net.cpp:129] Top shape: 10 96 14 14 (188160)
I1119 11:10:20.818084  9434 net.cpp:137] Memory required for data: 123344840
I1119 11:10:20.818086  9434 layer_factory.hpp:77] Creating layer conv2_p
I1119 11:10:20.818104  9434 net.cpp:84] Creating Layer conv2_p
I1119 11:10:20.818107  9434 net.cpp:406] conv2_p <- pool1_p
I1119 11:10:20.818116  9434 net.cpp:380] conv2_p -> conv2_p
I1119 11:10:20.825482  9434 net.cpp:122] Setting up conv2_p
I1119 11:10:20.825551  9434 net.cpp:129] Top shape: 10 256 14 14 (501760)
I1119 11:10:20.825557  9434 net.cpp:137] Memory required for data: 125351880
I1119 11:10:20.825567  9434 net.cpp:465] Sharing parameters 'conv2_w' owned by layer 'conv2', param index 0
I1119 11:10:20.825574  9434 net.cpp:465] Sharing parameters 'conv2_b' owned by layer 'conv2', param index 1
I1119 11:10:20.825579  9434 layer_factory.hpp:77] Creating layer relu2_p
I1119 11:10:20.825593  9434 net.cpp:84] Creating Layer relu2_p
I1119 11:10:20.825599  9434 net.cpp:406] relu2_p <- conv2_p
I1119 11:10:20.825610  9434 net.cpp:367] relu2_p -> conv2_p (in-place)
I1119 11:10:20.825814  9434 net.cpp:122] Setting up relu2_p
I1119 11:10:20.825822  9434 net.cpp:129] Top shape: 10 256 14 14 (501760)
I1119 11:10:20.825826  9434 net.cpp:137] Memory required for data: 127358920
I1119 11:10:20.825830  9434 layer_factory.hpp:77] Creating layer norm2_p
I1119 11:10:20.825842  9434 net.cpp:84] Creating Layer norm2_p
I1119 11:10:20.825846  9434 net.cpp:406] norm2_p <- conv2_p
I1119 11:10:20.825852  9434 net.cpp:380] norm2_p -> norm2_p
I1119 11:10:20.826083  9434 net.cpp:122] Setting up norm2_p
I1119 11:10:20.826092  9434 net.cpp:129] Top shape: 10 256 14 14 (501760)
I1119 11:10:20.826097  9434 net.cpp:137] Memory required for data: 129365960
I1119 11:10:20.826100  9434 layer_factory.hpp:77] Creating layer pool2_p
I1119 11:10:20.826107  9434 net.cpp:84] Creating Layer pool2_p
I1119 11:10:20.826112  9434 net.cpp:406] pool2_p <- norm2_p
I1119 11:10:20.826118  9434 net.cpp:380] pool2_p -> pool2_p
I1119 11:10:20.826159  9434 net.cpp:122] Setting up pool2_p
I1119 11:10:20.826169  9434 net.cpp:129] Top shape: 10 256 7 7 (125440)
I1119 11:10:20.826172  9434 net.cpp:137] Memory required for data: 129867720
I1119 11:10:20.826175  9434 layer_factory.hpp:77] Creating layer conv3_p
I1119 11:10:20.826200  9434 net.cpp:84] Creating Layer conv3_p
I1119 11:10:20.826206  9434 net.cpp:406] conv3_p <- pool2_p
I1119 11:10:20.826215  9434 net.cpp:380] conv3_p -> conv3_p
I1119 11:10:20.840298  9434 net.cpp:122] Setting up conv3_p
I1119 11:10:20.840343  9434 net.cpp:129] Top shape: 10 384 7 7 (188160)
I1119 11:10:20.840348  9434 net.cpp:137] Memory required for data: 130620360
I1119 11:10:20.840358  9434 net.cpp:465] Sharing parameters 'conv3_w' owned by layer 'conv3', param index 0
I1119 11:10:20.840365  9434 net.cpp:465] Sharing parameters 'conv3_b' owned by layer 'conv3', param index 1
I1119 11:10:20.840370  9434 layer_factory.hpp:77] Creating layer relu3_p
I1119 11:10:20.840384  9434 net.cpp:84] Creating Layer relu3_p
I1119 11:10:20.840389  9434 net.cpp:406] relu3_p <- conv3_p
I1119 11:10:20.840399  9434 net.cpp:367] relu3_p -> conv3_p (in-place)
I1119 11:10:20.840638  9434 net.cpp:122] Setting up relu3_p
I1119 11:10:20.840651  9434 net.cpp:129] Top shape: 10 384 7 7 (188160)
I1119 11:10:20.840656  9434 net.cpp:137] Memory required for data: 131373000
I1119 11:10:20.840659  9434 layer_factory.hpp:77] Creating layer conv4_p
I1119 11:10:20.840673  9434 net.cpp:84] Creating Layer conv4_p
I1119 11:10:20.840678  9434 net.cpp:406] conv4_p <- conv3_p
I1119 11:10:20.840685  9434 net.cpp:380] conv4_p -> conv4_p
I1119 11:10:20.852641  9434 net.cpp:122] Setting up conv4_p
I1119 11:10:20.852679  9434 net.cpp:129] Top shape: 10 384 7 7 (188160)
I1119 11:10:20.852684  9434 net.cpp:137] Memory required for data: 132125640
I1119 11:10:20.852692  9434 net.cpp:465] Sharing parameters 'conv4_w' owned by layer 'conv4', param index 0
I1119 11:10:20.852699  9434 net.cpp:465] Sharing parameters 'conv4_b' owned by layer 'conv4', param index 1
I1119 11:10:20.852705  9434 layer_factory.hpp:77] Creating layer relu4_p
I1119 11:10:20.852717  9434 net.cpp:84] Creating Layer relu4_p
I1119 11:10:20.852723  9434 net.cpp:406] relu4_p <- conv4_p
I1119 11:10:20.852733  9434 net.cpp:367] relu4_p -> conv4_p (in-place)
I1119 11:10:20.852947  9434 net.cpp:122] Setting up relu4_p
I1119 11:10:20.852957  9434 net.cpp:129] Top shape: 10 384 7 7 (188160)
I1119 11:10:20.852962  9434 net.cpp:137] Memory required for data: 132878280
I1119 11:10:20.852994  9434 layer_factory.hpp:77] Creating layer conv5_p
I1119 11:10:20.853010  9434 net.cpp:84] Creating Layer conv5_p
I1119 11:10:20.853015  9434 net.cpp:406] conv5_p <- conv4_p
I1119 11:10:20.853022  9434 net.cpp:380] conv5_p -> conv5_p
I1119 11:10:20.862403  9434 net.cpp:122] Setting up conv5_p
I1119 11:10:20.862442  9434 net.cpp:129] Top shape: 10 256 7 7 (125440)
I1119 11:10:20.862447  9434 net.cpp:137] Memory required for data: 133380040
I1119 11:10:20.862455  9434 net.cpp:465] Sharing parameters 'conv5_w' owned by layer 'conv5', param index 0
I1119 11:10:20.862462  9434 net.cpp:465] Sharing parameters 'conv5_b' owned by layer 'conv5', param index 1
I1119 11:10:20.862468  9434 layer_factory.hpp:77] Creating layer relu5_p
I1119 11:10:20.862479  9434 net.cpp:84] Creating Layer relu5_p
I1119 11:10:20.862485  9434 net.cpp:406] relu5_p <- conv5_p
I1119 11:10:20.862494  9434 net.cpp:367] relu5_p -> conv5_p (in-place)
I1119 11:10:20.862713  9434 net.cpp:122] Setting up relu5_p
I1119 11:10:20.862727  9434 net.cpp:129] Top shape: 10 256 7 7 (125440)
I1119 11:10:20.862731  9434 net.cpp:137] Memory required for data: 133881800
I1119 11:10:20.862735  9434 layer_factory.hpp:77] Creating layer pool5_p
I1119 11:10:20.862742  9434 net.cpp:84] Creating Layer pool5_p
I1119 11:10:20.862746  9434 net.cpp:406] pool5_p <- conv5_p
I1119 11:10:20.862753  9434 net.cpp:380] pool5_p -> pool5_p
I1119 11:10:20.862804  9434 net.cpp:122] Setting up pool5_p
I1119 11:10:20.862810  9434 net.cpp:129] Top shape: 10 256 3 3 (23040)
I1119 11:10:20.862814  9434 net.cpp:137] Memory required for data: 133973960
I1119 11:10:20.862818  9434 layer_factory.hpp:77] Creating layer fc6_p
I1119 11:10:20.862829  9434 net.cpp:84] Creating Layer fc6_p
I1119 11:10:20.862833  9434 net.cpp:406] fc6_p <- pool5_p
I1119 11:10:20.862841  9434 net.cpp:380] fc6_p -> fc6_p
I1119 11:10:20.988288  9434 net.cpp:122] Setting up fc6_p
I1119 11:10:20.988332  9434 net.cpp:129] Top shape: 10 4096 (40960)
I1119 11:10:20.988338  9434 net.cpp:137] Memory required for data: 134137800
I1119 11:10:20.988348  9434 net.cpp:465] Sharing parameters 'fc6_w' owned by layer 'fc6', param index 0
I1119 11:10:20.988358  9434 net.cpp:465] Sharing parameters 'fc6_b' owned by layer 'fc6', param index 1
I1119 11:10:20.988363  9434 layer_factory.hpp:77] Creating layer relu6_p
I1119 11:10:20.988379  9434 net.cpp:84] Creating Layer relu6_p
I1119 11:10:20.988384  9434 net.cpp:406] relu6_p <- fc6_p
I1119 11:10:20.988394  9434 net.cpp:367] relu6_p -> fc6_p (in-place)
I1119 11:10:20.989182  9434 net.cpp:122] Setting up relu6_p
I1119 11:10:20.989194  9434 net.cpp:129] Top shape: 10 4096 (40960)
I1119 11:10:20.989198  9434 net.cpp:137] Memory required for data: 134301640
I1119 11:10:20.989202  9434 layer_factory.hpp:77] Creating layer drop6_p
I1119 11:10:20.989215  9434 net.cpp:84] Creating Layer drop6_p
I1119 11:10:20.989220  9434 net.cpp:406] drop6_p <- fc6_p
I1119 11:10:20.989228  9434 net.cpp:367] drop6_p -> fc6_p (in-place)
I1119 11:10:20.989256  9434 net.cpp:122] Setting up drop6_p
I1119 11:10:20.989267  9434 net.cpp:129] Top shape: 10 4096 (40960)
I1119 11:10:20.989272  9434 net.cpp:137] Memory required for data: 134465480
I1119 11:10:20.989276  9434 layer_factory.hpp:77] Creating layer fc7_p
I1119 11:10:20.989286  9434 net.cpp:84] Creating Layer fc7_p
I1119 11:10:20.989291  9434 net.cpp:406] fc7_p <- fc6_p
I1119 11:10:20.989300  9434 net.cpp:380] fc7_p -> fc7_p
I1119 11:10:21.210868  9434 net.cpp:122] Setting up fc7_p
I1119 11:10:21.210916  9434 net.cpp:129] Top shape: 10 4096 (40960)
I1119 11:10:21.210922  9434 net.cpp:137] Memory required for data: 134629320
I1119 11:10:21.210932  9434 net.cpp:465] Sharing parameters 'fc7_w' owned by layer 'fc7', param index 0
I1119 11:10:21.210940  9434 net.cpp:465] Sharing parameters 'fc7_b' owned by layer 'fc7', param index 1
I1119 11:10:21.210945  9434 layer_factory.hpp:77] Creating layer relu7_p
I1119 11:10:21.210958  9434 net.cpp:84] Creating Layer relu7_p
I1119 11:10:21.210964  9434 net.cpp:406] relu7_p <- fc7_p
I1119 11:10:21.211012  9434 net.cpp:367] relu7_p -> fc7_p (in-place)
I1119 11:10:21.211305  9434 net.cpp:122] Setting up relu7_p
I1119 11:10:21.211315  9434 net.cpp:129] Top shape: 10 4096 (40960)
I1119 11:10:21.211319  9434 net.cpp:137] Memory required for data: 134793160
I1119 11:10:21.211323  9434 layer_factory.hpp:77] Creating layer drop7_p
I1119 11:10:21.211331  9434 net.cpp:84] Creating Layer drop7_p
I1119 11:10:21.211335  9434 net.cpp:406] drop7_p <- fc7_p
I1119 11:10:21.211344  9434 net.cpp:367] drop7_p -> fc7_p (in-place)
I1119 11:10:21.211369  9434 net.cpp:122] Setting up drop7_p
I1119 11:10:21.211377  9434 net.cpp:129] Top shape: 10 4096 (40960)
I1119 11:10:21.211380  9434 net.cpp:137] Memory required for data: 134957000
I1119 11:10:21.211385  9434 layer_factory.hpp:77] Creating layer fc8_p
I1119 11:10:21.211395  9434 net.cpp:84] Creating Layer fc8_p
I1119 11:10:21.211400  9434 net.cpp:406] fc8_p <- fc7_p
I1119 11:10:21.211407  9434 net.cpp:380] fc8_p -> fc8_p
I1119 11:10:21.217738  9434 net.cpp:122] Setting up fc8_p
I1119 11:10:21.217780  9434 net.cpp:129] Top shape: 10 100 (1000)
I1119 11:10:21.217784  9434 net.cpp:137] Memory required for data: 134961000
I1119 11:10:21.217794  9434 net.cpp:465] Sharing parameters 'fc8_w' owned by layer 'fc8', param index 0
I1119 11:10:21.217803  9434 net.cpp:465] Sharing parameters 'fc8_b' owned by layer 'fc8', param index 1
I1119 11:10:21.217808  9434 layer_factory.hpp:77] Creating layer loss
I1119 11:10:21.217823  9434 net.cpp:84] Creating Layer loss
…
