…
snapshot_prefix: "/home/hzzone/1tb/id-model/classification/3d/3d_caffenet/3d_classification_caffenet_train"
solver_mode: GPU
device_id: 0
net: "./train_val.prototxt"
train_state {
  level: 0
  stage: ""
}
I1118 19:46:14.285852 27418 solver.cpp:87] Creating training net from net file: ./train_val.prototxt
I1118 19:46:14.286401 27418 net.cpp:51] Initializing net from parameters: 
name: "CaffeNet"
state {
  phase: TRAIN
  level: 0
  stage: ""
}
layer {
  name: "data"
  type: "HDF5Data"
  top: "data"
  top: "label"
  include {
    phase: TRAIN
  }
  hdf5_data_param {
    source: "../train.txt"
    batch_size: 4
  }
}
layer {
  name: "conv1"
  type: "Convolution3D"
  bottom: "data"
  top: "conv1"
  param {
    lr_mult: 1
    decay_mult: 1
  }
  param {
    lr_mult: 2
    decay_mult: 0
  }
  convolution3d_param {
    num_output: 96
    pad: 1
    kernel_size: 11
    kernel_depth: 3
    stride: 1
    temporal_stride: 1
    weight_filler {
      type: "gaussian"
      std: 0.01
    }
    bias_filler {
      type: "constant"
      value: 0
    }
    temporal_pad: 1
  }
}
layer {
  name: "relu1"
  type: "ReLU"
  bottom: "conv1"
  top: "conv1"
}
layer {
  name: "pool1"
  type: "Pooling3D"
  bottom: "conv1"
  top: "pool1"
  pooling3d_param {
    pool: MAX
    kernel_size: 2
    stride: 2
    kernel_depth: 2
    temporal_stride: 2
  }
}
layer {
  name: "conv2"
  type: "Convolution3D"
  bottom: "pool1"
  top: "conv2"
  param {
    lr_mult: 1
    decay_mult: 1
  }
  param {
    lr_mult: 2
    decay_mult: 0
  }
  convolution3d_param {
    num_output: 256
    pad: 1
    kernel_size: 3
    kernel_depth: 3
    stride: 1
    temporal_stride: 1
    weight_filler {
      type: "gaussian"
      std: 0.01
    }
    bias_filler {
      type: "constant"
      value: 1
    }
    temporal_pad: 1
  }
}
layer {
  name: "relu2"
  type: "ReLU"
  bottom: "conv2"
  top: "conv2"
}
layer {
  name: "pool2"
  type: "Pooling3D"
  bottom: "conv2"
  top: "pool2"
  pooling3d_param {
    pool: MAX
    kernel_size: 2
    stride: 2
    kernel_depth: 2
    temporal_stride: 2
  }
}
layer {
  name: "conv3"
  type: "Convolution3D"
  bottom: "pool2"
  top: "conv3"
  param {
    lr_mult: 1
    decay_mult: 1
  }
  param {
    lr_mult: 2
    decay_mult: 0
  }
  convolution3d_param {
    num_output: 384
    pad: 1
    kernel_size: 3
    kernel_depth: 3
    stride: 1
    temporal_stride: 1
    weight_filler {
      type: "gaussian"
      std: 0.01
    }
    bias_filler {
      type: "constant"
      value: 1
    }
    temporal_pad: 1
  }
}
layer {
  name: "relu3"
  type: "ReLU"
  bottom: "conv3"
  top: "conv3"
}
layer {
  name: "conv4"
  type: "Convolution3D"
  bottom: "conv3"
  top: "conv4"
  param {
    lr_mult: 1
    decay_mult: 1
  }
  param {
    lr_mult: 2
    decay_mult: 0
  }
  convolution3d_param {
    num_output: 384
    pad: 1
    kernel_size: 3
    kernel_depth: 3
    stride: 1
    temporal_stride: 1
    weight_filler {
      type: "gaussian"
      std: 0.01
    }
    bias_filler {
      type: "constant"
      value: 1
    }
    temporal_pad: 1
  }
}
layer {
  name: "relu4"
  type: "ReLU"
  bottom: "conv4"
  top: "conv4"
}
layer {
  name: "conv5"
  type: "Convolution3D"
  bottom: "conv4"
  top: "conv5"
  param {
    lr_mult: 1
    decay_mult: 1
  }
  param {
    lr_mult: 2
    decay_mult: 0
  }
  convolution3d_param {
    num_output: 256
    pad: 1
    kernel_size: 3
    kernel_depth: 3
    stride: 1
    temporal_stride: 1
    weight_filler {
      type: "gaussian"
      std: 0.01
    }
    bias_filler {
      type: "constant"
      value: 1
    }
    temporal_pad: 1
  }
}
layer {
  name: "relu5"
  type: "ReLU"
  bottom: "conv5"
  top: "conv5"
}
layer {
  name: "pool5"
  type: "Pooling3D"
  bottom: "conv5"
  top: "pool5"
  pooling3d_param {
    pool: MAX
    kernel_size: 2
    stride: 2
    kernel_depth: 2
    temporal_stride: 2
  }
}
layer {
  name: "fc6"
  type: "InnerProduct"
  bottom: "pool5"
  top: "fc6"
  param {
    lr_mult: 1
    decay_mult: 1
  }
  param {
    lr_mult: 2
    decay_mult: 0
  }
  inner_product_param {
    num_output: 1024
    weight_filler {
      type: "gaussian"
      std: 0.005
    }
    bias_filler {
      type: "constant"
      value: 1
    }
  }
}
layer {
  name: "relu6"
  type: "ReLU"
  bottom: "fc6"
  top: "fc6"
}
layer {
  name: "drop6"
  type: "Dropout"
  bottom: "fc6"
  top: "fc6"
  dropout_param {
    dropout_ratio: 0.5
  }
}
layer {
  name: "fc7"
  type: "InnerProduct"
  bottom: "fc6"
  top: "fc7"
  param {
    lr_mult: 1
    decay_mult: 1
  }
  param {
    lr_mult: 2
    decay_mult: 0
  }
  inner_product_param {
    num_output: 1024
    weight_filler {
      type: "gaussian"
      std: 0.005
    }
    bias_filler {
      type: "constant"
      value: 1
    }
  }
}
layer {
  name: "relu7"
  type: "ReLU"
  bottom: "fc7"
  top: "fc7"
}
layer {
  name: "drop7"
  type: "Dropout"
  bottom: "fc7"
  top: "fc7"
  dropout_param {
    dropout_ratio: 0.5
  }
}
layer {
  name: "fc8"
  type: "InnerProduct"
  bottom: "fc7"
  top: "fc8"
  param {
    lr_mult: 1
    decay_mult: 1
  }
  param {
    lr_mult: 2
    decay_mult: 0
  }
  inner_product_param {
    num_output: 70
    weight_filler {
      type: "gaussian"
      std: 0.01
    }
    bias_filler {
      type: "constant"
      value: 0
    }
  }
}
layer {
  name: "loss"
  type: "SoftmaxWithLoss"
  bottom: "fc8"
  bottom: "label"
  top: "loss"
}
I1118 19:46:14.286528 27418 layer_factory.hpp:77] Creating layer data
I1118 19:46:14.286543 27418 net.cpp:84] Creating Layer data
I1118 19:46:14.286551 27418 net.cpp:380] data -> data
I1118 19:46:14.286576 27418 net.cpp:380] data -> label
I1118 19:46:14.286589 27418 hdf5_data_layer.cpp:79] Loading list of HDF5 filenames from: ../train.txt
I1118 19:46:14.286695 27418 hdf5_data_layer.cpp:93] Number of HDF5 files: 146
I1118 19:46:14.287827 27418 hdf5.cpp:32] Datatype class: H5T_FLOAT
I1118 19:46:14.295320 27418 net.cpp:122] Setting up data
I1118 19:46:14.295367 27418 net.cpp:129] Top shape: 4 1 40 120 120 (2304000)
I1118 19:46:14.295374 27418 net.cpp:129] Top shape: 4 (4)
I1118 19:46:14.295379 27418 net.cpp:137] Memory required for data: 9216016
I1118 19:46:14.295390 27418 layer_factory.hpp:77] Creating layer conv1
I1118 19:46:14.295415 27418 net.cpp:84] Creating Layer conv1
I1118 19:46:14.295424 27418 net.cpp:406] conv1 <- data
I1118 19:46:14.295442 27418 net.cpp:380] conv1 -> conv1
I1118 19:46:14.299863 27418 net.cpp:122] Setting up conv1
I1118 19:46:14.299918 27418 net.cpp:129] Top shape: 4 96 40 112 112 (192675840)
I1118 19:46:14.299924 27418 net.cpp:137] Memory required for data: 779919376
I1118 19:46:14.299967 27418 layer_factory.hpp:77] Creating layer relu1
I1118 19:46:14.299985 27418 net.cpp:84] Creating Layer relu1
I1118 19:46:14.299993 27418 net.cpp:406] relu1 <- conv1
I1118 19:46:14.300002 27418 net.cpp:367] relu1 -> conv1 (in-place)
I1118 19:46:14.300017 27418 net.cpp:122] Setting up relu1
I1118 19:46:14.300143 27418 net.cpp:129] Top shape: 4 96 40 112 112 (192675840)
I1118 19:46:14.300149 27418 net.cpp:137] Memory required for data: 1550622736
I1118 19:46:14.300154 27418 layer_factory.hpp:77] Creating layer pool1
I1118 19:46:14.300163 27418 net.cpp:84] Creating Layer pool1
I1118 19:46:14.300168 27418 net.cpp:406] pool1 <- conv1
I1118 19:46:14.300175 27418 net.cpp:380] pool1 -> pool1
I1118 19:46:14.300258 27418 net.cpp:122] Setting up pool1
I1118 19:46:14.300266 27418 net.cpp:129] Top shape: 4 96 20 56 56 (24084480)
I1118 19:46:14.300271 27418 net.cpp:137] Memory required for data: 1646960656
I1118 19:46:14.300276 27418 layer_factory.hpp:77] Creating layer conv2
I1118 19:46:14.300288 27418 net.cpp:84] Creating Layer conv2
I1118 19:46:14.300292 27418 net.cpp:406] conv2 <- pool1
I1118 19:46:14.300300 27418 net.cpp:380] conv2 -> conv2
I1118 19:46:14.310052 27418 net.cpp:122] Setting up conv2
I1118 19:46:14.310089 27418 net.cpp:129] Top shape: 4 256 20 56 56 (64225280)
I1118 19:46:14.310096 27418 net.cpp:137] Memory required for data: 1903861776
I1118 19:46:14.310147 27418 layer_factory.hpp:77] Creating layer relu2
I1118 19:46:14.310163 27418 net.cpp:84] Creating Layer relu2
I1118 19:46:14.310171 27418 net.cpp:406] relu2 <- conv2
I1118 19:46:14.310183 27418 net.cpp:367] relu2 -> conv2 (in-place)
I1118 19:46:14.310197 27418 net.cpp:122] Setting up relu2
I1118 19:46:14.310206 27418 net.cpp:129] Top shape: 4 256 20 56 56 (64225280)
I1118 19:46:14.310211 27418 net.cpp:137] Memory required for data: 2160762896
I1118 19:46:14.310215 27418 layer_factory.hpp:77] Creating layer pool2
I1118 19:46:14.310225 27418 net.cpp:84] Creating Layer pool2
I1118 19:46:14.310230 27418 net.cpp:406] pool2 <- conv2
I1118 19:46:14.310237 27418 net.cpp:380] pool2 -> pool2
I1118 19:46:14.310258 27418 net.cpp:122] Setting up pool2
I1118 19:46:14.310267 27418 net.cpp:129] Top shape: 4 256 10 28 28 (8028160)
I1118 19:46:14.310272 27418 net.cpp:137] Memory required for data: 2192875536
I1118 19:46:14.310276 27418 layer_factory.hpp:77] Creating layer conv3
I1118 19:46:14.310286 27418 net.cpp:84] Creating Layer conv3
I1118 19:46:14.310290 27418 net.cpp:406] conv3 <- pool2
I1118 19:46:14.310297 27418 net.cpp:380] conv3 -> conv3
I1118 19:46:14.349316 27418 net.cpp:122] Setting up conv3
I1118 19:46:14.349361 27418 net.cpp:129] Top shape: 4 384 10 28 28 (12042240)
I1118 19:46:14.349367 27418 net.cpp:137] Memory required for data: 2241044496
I1118 19:46:14.349397 27418 layer_factory.hpp:77] Creating layer relu3
I1118 19:46:14.349414 27418 net.cpp:84] Creating Layer relu3
I1118 19:46:14.349421 27418 net.cpp:406] relu3 <- conv3
I1118 19:46:14.349431 27418 net.cpp:367] relu3 -> conv3 (in-place)
I1118 19:46:14.349444 27418 net.cpp:122] Setting up relu3
I1118 19:46:14.349450 27418 net.cpp:129] Top shape: 4 384 10 28 28 (12042240)
I1118 19:46:14.349455 27418 net.cpp:137] Memory required for data: 2289213456
I1118 19:46:14.349460 27418 layer_factory.hpp:77] Creating layer conv4
I1118 19:46:14.349472 27418 net.cpp:84] Creating Layer conv4
I1118 19:46:14.349476 27418 net.cpp:406] conv4 <- conv3
I1118 19:46:14.349485 27418 net.cpp:380] conv4 -> conv4
I1118 19:46:14.402971 27418 net.cpp:122] Setting up conv4
I1118 19:46:14.403008 27418 net.cpp:129] Top shape: 4 384 10 28 28 (12042240)
I1118 19:46:14.403014 27418 net.cpp:137] Memory required for data: 2337382416
I1118 19:46:14.403033 27418 layer_factory.hpp:77] Creating layer relu4
I1118 19:46:14.403048 27418 net.cpp:84] Creating Layer relu4
I1118 19:46:14.403054 27418 net.cpp:406] relu4 <- conv4
I1118 19:46:14.403064 27418 net.cpp:367] relu4 -> conv4 (in-place)
I1118 19:46:14.403090 27418 net.cpp:122] Setting up relu4
I1118 19:46:14.403098 27418 net.cpp:129] Top shape: 4 384 10 28 28 (12042240)
I1118 19:46:14.403103 27418 net.cpp:137] Memory required for data: 2385551376
I1118 19:46:14.403107 27418 layer_factory.hpp:77] Creating layer conv5
I1118 19:46:14.403118 27418 net.cpp:84] Creating Layer conv5
I1118 19:46:14.403123 27418 net.cpp:406] conv5 <- conv4
I1118 19:46:14.403131 27418 net.cpp:380] conv5 -> conv5
I1118 19:46:14.439143 27418 net.cpp:122] Setting up conv5
I1118 19:46:14.439182 27418 net.cpp:129] Top shape: 4 256 10 28 28 (8028160)
I1118 19:46:14.439188 27418 net.cpp:137] Memory required for data: 2417664016
I1118 19:46:14.439214 27418 layer_factory.hpp:77] Creating layer relu5
I1118 19:46:14.439227 27418 net.cpp:84] Creating Layer relu5
I1118 19:46:14.439234 27418 net.cpp:406] relu5 <- conv5
I1118 19:46:14.439244 27418 net.cpp:367] relu5 -> conv5 (in-place)
I1118 19:46:14.439255 27418 net.cpp:122] Setting up relu5
I1118 19:46:14.439261 27418 net.cpp:129] Top shape: 4 256 10 28 28 (8028160)
I1118 19:46:14.439266 27418 net.cpp:137] Memory required for data: 2449776656
I1118 19:46:14.439270 27418 layer_factory.hpp:77] Creating layer pool5
I1118 19:46:14.439280 27418 net.cpp:84] Creating Layer pool5
I1118 19:46:14.439283 27418 net.cpp:406] pool5 <- conv5
I1118 19:46:14.439291 27418 net.cpp:380] pool5 -> pool5
I1118 19:46:14.439312 27418 net.cpp:122] Setting up pool5
I1118 19:46:14.439344 27418 net.cpp:129] Top shape: 4 256 5 14 14 (1003520)
I1118 19:46:14.439368 27418 net.cpp:137] Memory required for data: 2453790736
I1118 19:46:14.439373 27418 layer_factory.hpp:77] Creating layer fc6
I1118 19:46:14.439383 27418 net.cpp:84] Creating Layer fc6
I1118 19:46:14.439388 27418 net.cpp:406] fc6 <- pool5
I1118 19:46:14.439396 27418 net.cpp:380] fc6 -> fc6
I1118 19:46:17.813935 27418 net.cpp:122] Setting up fc6
I1118 19:46:17.813972 27418 net.cpp:129] Top shape: 4 1024 (4096)
I1118 19:46:17.813977 27418 net.cpp:137] Memory required for data: 2453807120
I1118 19:46:17.813995 27418 layer_factory.hpp:77] Creating layer relu6
I1118 19:46:17.814010 27418 net.cpp:84] Creating Layer relu6
I1118 19:46:17.814018 27418 net.cpp:406] relu6 <- fc6
I1118 19:46:17.814028 27418 net.cpp:367] relu6 -> fc6 (in-place)
I1118 19:46:17.814040 27418 net.cpp:122] Setting up relu6
I1118 19:46:17.814047 27418 net.cpp:129] Top shape: 4 1024 (4096)
I1118 19:46:17.814052 27418 net.cpp:137] Memory required for data: 2453823504
I1118 19:46:17.814057 27418 layer_factory.hpp:77] Creating layer drop6
I1118 19:46:17.814072 27418 net.cpp:84] Creating Layer drop6
I1118 19:46:17.814079 27418 net.cpp:406] drop6 <- fc6
I1118 19:46:17.814085 27418 net.cpp:367] drop6 -> fc6 (in-place)
I1118 19:46:17.814112 27418 net.cpp:122] Setting up drop6
I1118 19:46:17.814121 27418 net.cpp:129] Top shape: 4 1024 (4096)
I1118 19:46:17.814124 27418 net.cpp:137] Memory required for data: 2453839888
I1118 19:46:17.814129 27418 layer_factory.hpp:77] Creating layer fc7
I1118 19:46:17.814141 27418 net.cpp:84] Creating Layer fc7
I1118 19:46:17.814146 27418 net.cpp:406] fc7 <- fc6
I1118 19:46:17.814153 27418 net.cpp:380] fc7 -> fc7
I1118 19:46:17.828884 27418 net.cpp:122] Setting up fc7
I1118 19:46:17.828920 27418 net.cpp:129] Top shape: 4 1024 (4096)
I1118 19:46:17.828925 27418 net.cpp:137] Memory required for data: 2453856272
I1118 19:46:17.828941 27418 layer_factory.hpp:77] Creating layer relu7
I1118 19:46:17.828955 27418 net.cpp:84] Creating Layer relu7
I1118 19:46:17.828992 27418 net.cpp:406] relu7 <- fc7
I1118 19:46:17.829013 27418 net.cpp:367] relu7 -> fc7 (in-place)
I1118 19:46:17.829027 27418 net.cpp:122] Setting up relu7
I1118 19:46:17.829036 27418 net.cpp:129] Top shape: 4 1024 (4096)
I1118 19:46:17.829041 27418 net.cpp:137] Memory required for data: 2453872656
I1118 19:46:17.829044 27418 layer_factory.hpp:77] Creating layer drop7
I1118 19:46:17.829054 27418 net.cpp:84] Creating Layer drop7
I1118 19:46:17.829061 27418 net.cpp:406] drop7 <- fc7
I1118 19:46:17.829068 27418 net.cpp:367] drop7 -> fc7 (in-place)
I1118 19:46:17.829102 27418 net.cpp:122] Setting up drop7
I1118 19:46:17.829123 27418 net.cpp:129] Top shape: 4 1024 (4096)
I1118 19:46:17.829138 27418 net.cpp:137] Memory required for data: 2453889040
I1118 19:46:17.829155 27418 layer_factory.hpp:77] Creating layer fc8
I1118 19:46:17.829180 27418 net.cpp:84] Creating Layer fc8
I1118 19:46:17.829195 27418 net.cpp:406] fc8 <- fc7
I1118 19:46:17.829216 27418 net.cpp:380] fc8 -> fc8
I1118 19:46:17.831637 27418 net.cpp:122] Setting up fc8
I1118 19:46:17.831671 27418 net.cpp:129] Top shape: 4 70 (280)
I1118 19:46:17.831677 27418 net.cpp:137] Memory required for data: 2453890160
I1118 19:46:17.831692 27418 layer_factory.hpp:77] Creating layer loss
I1118 19:46:17.831707 27418 net.cpp:84] Creating Layer loss
I1118 19:46:17.831712 27418 net.cpp:406] loss <- fc8
I1118 19:46:17.831722 27418 net.cpp:406] loss <- label
I1118 19:46:17.831732 27418 net.cpp:380] loss -> loss
I1118 19:46:17.831756 27418 layer_factory.hpp:77] Creating layer loss
…
