…
snapshot_prefix: "/home/hzzone/1tb/id-model/siamese/3d/3d_caffenet/3d_siamese_caffenet_train"
solver_mode: GPU
device_id: 0
net: "./train_val.prototxt"
train_state {
  level: 0
  stage: ""
}
I1119 14:53:23.266211 12021 solver.cpp:87] Creating training net from net file: ./train_val.prototxt
I1119 14:53:23.267073 12021 net.cpp:51] Initializing net from parameters: 
name: "CaffeNet"
state {
  phase: TRAIN
  level: 0
  stage: ""
}
layer {
  name: "pair_data"
  type: "HDF5Data"
  top: "pair_data"
  top: "sim"
  include {
    phase: TRAIN
  }
  hdf5_data_param {
    source: "../train.txt"
    batch_size: 1
  }
}
layer {
  name: "slice_pair"
  type: "Slice"
  bottom: "pair_data"
  top: "data"
  top: "data_p"
  slice_param {
    slice_dim: 2
    slice_point: 40
  }
}
layer {
  name: "conv1"
  type: "Convolution3D"
  bottom: "data"
  top: "conv1"
  param {
    name: "conv1_w"
    lr_mult: 1
    decay_mult: 1
  }
  param {
    name: "conv1_b"
    lr_mult: 2
    decay_mult: 0
  }
  convolution3d_param {
    num_output: 96
    pad: 1
    kernel_size: 11
    kernel_depth: 3
    stride: 1
    temporal_stride: 1
    weight_filler {
      type: "gaussian"
      std: 0.01
    }
    bias_filler {
      type: "constant"
      value: 0
    }
    temporal_pad: 1
  }
}
layer {
  name: "relu1"
  type: "ReLU"
  bottom: "conv1"
  top: "conv1"
}
layer {
  name: "pool1"
  type: "Pooling3D"
  bottom: "conv1"
  top: "pool1"
  pooling3d_param {
    pool: MAX
    kernel_size: 3
    stride: 2
    kernel_depth: 3
    temporal_stride: 2
  }
}
layer {
  name: "conv2"
  type: "Convolution3D"
  bottom: "pool1"
  top: "conv2"
  param {
    name: "conv2_w"
    lr_mult: 1
    decay_mult: 1
  }
  param {
    name: "conv2_b"
    lr_mult: 2
    decay_mult: 0
  }
  convolution3d_param {
    num_output: 256
    pad: 1
    kernel_size: 3
    kernel_depth: 3
    stride: 1
    temporal_stride: 1
    weight_filler {
      type: "gaussian"
      std: 0.01
    }
    bias_filler {
      type: "constant"
      value: 1
    }
    temporal_pad: 1
  }
}
layer {
  name: "relu2"
  type: "ReLU"
  bottom: "conv2"
  top: "conv2"
}
layer {
  name: "pool2"
  type: "Pooling3D"
  bottom: "conv2"
  top: "pool2"
  pooling3d_param {
    pool: MAX
    kernel_size: 3
    stride: 2
    kernel_depth: 3
    temporal_stride: 2
  }
}
layer {
  name: "conv3"
  type: "Convolution3D"
  bottom: "pool2"
  top: "conv3"
  param {
    name: "conv3_w"
    lr_mult: 1
    decay_mult: 1
  }
  param {
    name: "conv3_b"
    lr_mult: 2
    decay_mult: 0
  }
  convolution3d_param {
    num_output: 256
    pad: 1
    kernel_size: 3
    kernel_depth: 3
    stride: 1
    temporal_stride: 1
    weight_filler {
      type: "gaussian"
      std: 0.01
    }
    bias_filler {
      type: "constant"
      value: 1
    }
    temporal_pad: 1
  }
}
layer {
  name: "relu3"
  type: "ReLU"
  bottom: "conv3"
  top: "conv3"
}
layer {
  name: "conv4"
  type: "Convolution3D"
  bottom: "conv3"
  top: "conv4"
  param {
    name: "conv4_w"
    lr_mult: 1
    decay_mult: 1
  }
  param {
    name: "conv4_b"
    lr_mult: 2
    decay_mult: 0
  }
  convolution3d_param {
    num_output: 384
    pad: 1
    kernel_size: 3
    kernel_depth: 3
    stride: 1
    temporal_stride: 1
    weight_filler {
      type: "gaussian"
      std: 0.01
    }
    bias_filler {
      type: "constant"
      value: 1
    }
    temporal_pad: 1
  }
}
layer {
  name: "relu4"
  type: "ReLU"
  bottom: "conv4"
  top: "conv4"
}
layer {
  name: "conv5"
  type: "Convolution3D"
  bottom: "conv4"
  top: "conv5"
  param {
    name: "conv5_w"
    lr_mult: 1
    decay_mult: 1
  }
  param {
    name: "conv5_b"
    lr_mult: 2
    decay_mult: 0
  }
  convolution3d_param {
    num_output: 256
    pad: 1
    kernel_size: 3
    kernel_depth: 3
    stride: 1
    temporal_stride: 1
    weight_filler {
      type: "gaussian"
      std: 0.01
    }
    bias_filler {
      type: "constant"
      value: 1
    }
    temporal_pad: 1
  }
}
layer {
  name: "relu5"
  type: "ReLU"
  bottom: "conv5"
  top: "conv5"
}
layer {
  name: "pool5"
  type: "Pooling3D"
  bottom: "conv5"
  top: "pool5"
  pooling3d_param {
    pool: MAX
    kernel_size: 3
    stride: 2
    kernel_depth: 3
    temporal_stride: 2
  }
}
layer {
  name: "fc6"
  type: "InnerProduct"
  bottom: "pool5"
  top: "fc6"
  param {
    name: "fc6_w"
    lr_mult: 1
    decay_mult: 1
  }
  param {
    name: "fc6_b"
    lr_mult: 2
    decay_mult: 0
  }
  inner_product_param {
    num_output: 128
    weight_filler {
      type: "gaussian"
      std: 0.005
    }
    bias_filler {
      type: "constant"
      value: 1
    }
  }
}
layer {
  name: "relu6"
  type: "ReLU"
  bottom: "fc6"
  top: "fc6"
}
layer {
  name: "drop6"
  type: "Dropout"
  bottom: "fc6"
  top: "fc6"
  dropout_param {
    dropout_ratio: 0.5
  }
}
layer {
  name: "fc7"
  type: "InnerProduct"
  bottom: "fc6"
  top: "fc7"
  param {
    name: "fc7_w"
    lr_mult: 1
    decay_mult: 1
  }
  param {
    name: "fc7_b"
    lr_mult: 2
    decay_mult: 0
  }
  inner_product_param {
    num_output: 128
    weight_filler {
      type: "gaussian"
      std: 0.005
    }
    bias_filler {
      type: "constant"
      value: 1
    }
  }
}
layer {
  name: "relu7"
  type: "ReLU"
  bottom: "fc7"
  top: "fc7"
}
layer {
  name: "drop7"
  type: "Dropout"
  bottom: "fc7"
  top: "fc7"
  dropout_param {
    dropout_ratio: 0.5
  }
}
layer {
  name: "fc8"
  type: "InnerProduct"
  bottom: "fc7"
  top: "fc8"
  param {
    name: "fc8_w"
    lr_mult: 1
    decay_mult: 1
  }
  param {
    name: "fc8_b"
    lr_mult: 2
    decay_mult: 0
  }
  inner_product_param {
    num_output: 70
    weight_filler {
      type: "gaussian"
      std: 0.01
    }
    bias_filler {
      type: "constant"
      value: 0
    }
  }
}
layer {
  name: "conv1_p"
  type: "Convolution3D"
  bottom: "data_p"
  top: "conv1_p"
  param {
    name: "conv1_w"
    lr_mult: 1
    decay_mult: 1
  }
  param {
    name: "conv1_b"
    lr_mult: 2
    decay_mult: 0
  }
  convolution3d_param {
    num_output: 96
    pad: 1
    kernel_size: 11
    kernel_depth: 3
    stride: 1
    temporal_stride: 1
    weight_filler {
      type: "gaussian"
      std: 0.01
    }
    bias_filler {
      type: "constant"
      value: 0
    }
    temporal_pad: 1
  }
}
layer {
  name: "relu1_p"
  type: "ReLU"
  bottom: "conv1_p"
  top: "conv1_p"
}
layer {
  name: "pool1_p"
  type: "Pooling3D"
  bottom: "conv1_p"
  top: "pool1_p"
  pooling3d_param {
    pool: MAX
    kernel_size: 3
    stride: 2
    kernel_depth: 3
    temporal_stride: 2
  }
}
layer {
  name: "conv2_p"
  type: "Convolution3D"
  bottom: "pool1_p"
  top: "conv2_p"
  param {
    name: "conv2_w"
    lr_mult: 1
    decay_mult: 1
  }
  param {
    name: "conv2_b"
    lr_mult: 2
    decay_mult: 0
  }
  convolution3d_param {
    num_output: 256
    pad: 1
    kernel_size: 3
    kernel_depth: 3
    stride: 1
    temporal_stride: 1
    weight_filler {
      type: "gaussian"
      std: 0.01
    }
    bias_filler {
      type: "constant"
      value: 1
    }
    temporal_pad: 1
  }
}
layer {
  name: "relu2_p"
  type: "ReLU"
  bottom: "conv2_p"
  top: "conv2_p"
}
layer {
  name: "pool2_p"
  type: "Pooling3D"
  bottom: "conv2_p"
  top: "pool2_p"
  pooling3d_param {
    pool: MAX
    kernel_size: 3
    stride: 2
    kernel_depth: 3
    temporal_stride: 2
  }
}
layer {
  name: "conv3_p"
  type: "Convolution3D"
  bottom: "pool2_p"
  top: "conv3_p"
  param {
    name: "conv3_w"
    lr_mult: 1
    decay_mult: 1
  }
  param {
    name: "conv3_b"
    lr_mult: 2
    decay_mult: 0
  }
  convolution3d_param {
    num_output: 256
    pad: 1
    kernel_size: 3
    kernel_depth: 3
    stride: 1
    temporal_stride: 1
    weight_filler {
      type: "gaussian"
      std: 0.01
    }
    bias_filler {
      type: "constant"
      value: 1
    }
    temporal_pad: 1
  }
}
layer {
  name: "relu3_p"
  type: "ReLU"
  bottom: "conv3_p"
  top: "conv3_p"
}
layer {
  name: "conv4_p"
  type: "Convolution3D"
  bottom: "conv3_p"
  top: "conv4_p"
  param {
    name: "conv4_w"
    lr_mult: 1
    decay_mult: 1
  }
  param {
    name: "conv4_b"
    lr_mult: 2
    decay_mult: 0
  }
  convolution3d_param {
    num_output: 384
    pad: 1
    kernel_size: 3
    kernel_depth: 3
    stride: 1
    temporal_stride: 1
    weight_filler {
      type: "gaussian"
      std: 0.01
    }
    bias_filler {
      type: "constant"
      value: 1
    }
    temporal_pad: 1
  }
}
layer {
  name: "relu4_p"
  type: "ReLU"
  bottom: "conv4_p"
  top: "conv4_p"
}
layer {
  name: "conv5_p"
  type: "Convolution3D"
  bottom: "conv4_p"
  top: "conv5_p"
  param {
    name: "conv5_w"
    lr_mult: 1
    decay_mult: 1
  }
  param {
    name: "conv5_b"
    lr_mult: 2
    decay_mult: 0
  }
  convolution3d_param {
    num_output: 256
    pad: 1
    kernel_size: 3
    kernel_depth: 3
    stride: 1
    temporal_stride: 1
    weight_filler {
      type: "gaussian"
      std: 0.01
    }
    bias_filler {
      type: "constant"
      value: 1
    }
    temporal_pad: 1
  }
}
layer {
  name: "relu5_p"
  type: "ReLU"
  bottom: "conv5_p"
  top: "conv5_p"
}
layer {
  name: "pool5_p"
  type: "Pooling3D"
  bottom: "conv5_p"
  top: "pool5_p"
  pooling3d_param {
    pool: MAX
    kernel_size: 3
    stride: 2
    kernel_depth: 3
    temporal_stride: 2
  }
}
layer {
  name: "fc6_p"
  type: "InnerProduct"
  bottom: "pool5_p"
  top: "fc6_p"
  param {
    name: "fc6_w"
    lr_mult: 1
    decay_mult: 1
  }
  param {
    name: "fc6_b"
    lr_mult: 2
    decay_mult: 0
  }
  inner_product_param {
    num_output: 128
    weight_filler {
      type: "gaussian"
      std: 0.005
    }
    bias_filler {
      type: "constant"
      value: 1
    }
  }
}
layer {
  name: "relu6_p"
  type: "ReLU"
  bottom: "fc6_p"
  top: "fc6_p"
}
layer {
  name: "drop6_p"
  type: "Dropout"
  bottom: "fc6_p"
  top: "fc6_p"
  dropout_param {
    dropout_ratio: 0.5
  }
}
layer {
  name: "fc7_p"
  type: "InnerProduct"
  bottom: "fc6_p"
  top: "fc7_p"
  param {
    name: "fc7_w"
    lr_mult: 1
    decay_mult: 1
  }
  param {
    name: "fc7_b"
    lr_mult: 2
    decay_mult: 0
  }
  inner_product_param {
    num_output: 128
    weight_filler {
      type: "gaussian"
      std: 0.005
    }
    bias_filler {
      type: "constant"
      value: 1
    }
  }
}
layer {
  name: "relu7_p"
  type: "ReLU"
  bottom: "fc7_p"
  top: "fc7_p"
}
layer {
  name: "drop7_p"
  type: "Dropout"
  bottom: "fc7_p"
  top: "fc7_p"
  dropout_param {
    dropout_ratio: 0.5
  }
}
layer {
  name: "fc8_p"
  type: "InnerProduct"
  bottom: "fc7_p"
  top: "fc8_p"
  param {
    name: "fc8_w"
    lr_mult: 1
    decay_mult: 1
  }
  param {
    name: "fc8_b"
    lr_mult: 2
    decay_mult: 0
  }
  inner_product_param {
    num_output: 70
    weight_filler {
      type: "gaussian"
      std: 0.01
    }
    bias_filler {
      type: "constant"
      value: 0
    }
  }
}
layer {
  name: "loss"
  type: "ContrastiveLoss"
  bottom: "fc8"
  bottom: "fc8_p"
  bottom: "sim"
  top: "loss"
  contrastive_loss_param {
    margin: 1
  }
}
I1119 14:53:23.267246 12021 layer_factory.hpp:77] Creating layer pair_data
I1119 14:53:23.267259 12021 net.cpp:84] Creating Layer pair_data
I1119 14:53:23.267268 12021 net.cpp:380] pair_data -> pair_data
I1119 14:53:23.267292 12021 net.cpp:380] pair_data -> sim
I1119 14:53:23.267302 12021 hdf5_data_layer.cpp:79] Loading list of HDF5 filenames from: ../train.txt
I1119 14:53:23.267398 12021 hdf5_data_layer.cpp:93] Number of HDF5 files: 166
I1119 14:53:23.268543 12021 hdf5.cpp:32] Datatype class: H5T_FLOAT
I1119 14:53:23.280063 12021 net.cpp:122] Setting up pair_data
I1119 14:53:23.280107 12021 net.cpp:129] Top shape: 1 1 80 120 120 (1152000)
I1119 14:53:23.280113 12021 net.cpp:129] Top shape: 1 (1)
I1119 14:53:23.280117 12021 net.cpp:137] Memory required for data: 4608004
I1119 14:53:23.280127 12021 layer_factory.hpp:77] Creating layer slice_pair
I1119 14:53:23.280144 12021 net.cpp:84] Creating Layer slice_pair
I1119 14:53:23.280151 12021 net.cpp:406] slice_pair <- pair_data
I1119 14:53:23.280167 12021 net.cpp:380] slice_pair -> data
I1119 14:53:23.280215 12021 net.cpp:380] slice_pair -> data_p
I1119 14:53:23.280249 12021 net.cpp:122] Setting up slice_pair
I1119 14:53:23.280256 12021 net.cpp:129] Top shape: 1 1 40 120 120 (576000)
I1119 14:53:23.280261 12021 net.cpp:129] Top shape: 1 1 40 120 120 (576000)
I1119 14:53:23.280264 12021 net.cpp:137] Memory required for data: 9216004
I1119 14:53:23.280268 12021 layer_factory.hpp:77] Creating layer conv1
I1119 14:53:23.280280 12021 net.cpp:84] Creating Layer conv1
I1119 14:53:23.280284 12021 net.cpp:406] conv1 <- data
I1119 14:53:23.280290 12021 net.cpp:380] conv1 -> conv1
I1119 14:53:23.284268 12021 net.cpp:122] Setting up conv1
I1119 14:53:23.284317 12021 net.cpp:129] Top shape: 1 96 40 112 112 (48168960)
I1119 14:53:23.284323 12021 net.cpp:137] Memory required for data: 201891844
I1119 14:53:23.284354 12021 layer_factory.hpp:77] Creating layer relu1
I1119 14:53:23.284368 12021 net.cpp:84] Creating Layer relu1
I1119 14:53:23.284374 12021 net.cpp:406] relu1 <- conv1
I1119 14:53:23.284382 12021 net.cpp:367] relu1 -> conv1 (in-place)
I1119 14:53:23.284395 12021 net.cpp:122] Setting up relu1
I1119 14:53:23.284401 12021 net.cpp:129] Top shape: 1 96 40 112 112 (48168960)
I1119 14:53:23.284405 12021 net.cpp:137] Memory required for data: 394567684
I1119 14:53:23.284409 12021 layer_factory.hpp:77] Creating layer pool1
I1119 14:53:23.284417 12021 net.cpp:84] Creating Layer pool1
I1119 14:53:23.284420 12021 net.cpp:406] pool1 <- conv1
I1119 14:53:23.284426 12021 net.cpp:380] pool1 -> pool1
I1119 14:53:23.284543 12021 net.cpp:122] Setting up pool1
I1119 14:53:23.284554 12021 net.cpp:129] Top shape: 1 96 20 56 56 (6021120)
I1119 14:53:23.284557 12021 net.cpp:137] Memory required for data: 418652164
I1119 14:53:23.284560 12021 layer_factory.hpp:77] Creating layer conv2
I1119 14:53:23.284570 12021 net.cpp:84] Creating Layer conv2
I1119 14:53:23.284574 12021 net.cpp:406] conv2 <- pool1
I1119 14:53:23.284580 12021 net.cpp:380] conv2 -> conv2
I1119 14:53:23.294073 12021 net.cpp:122] Setting up conv2
I1119 14:53:23.294112 12021 net.cpp:129] Top shape: 1 256 20 56 56 (16056320)
I1119 14:53:23.294118 12021 net.cpp:137] Memory required for data: 482877444
I1119 14:53:23.294140 12021 layer_factory.hpp:77] Creating layer relu2
I1119 14:53:23.294154 12021 net.cpp:84] Creating Layer relu2
I1119 14:53:23.294178 12021 net.cpp:406] relu2 <- conv2
I1119 14:53:23.294188 12021 net.cpp:367] relu2 -> conv2 (in-place)
I1119 14:53:23.294203 12021 net.cpp:122] Setting up relu2
I1119 14:53:23.294212 12021 net.cpp:129] Top shape: 1 256 20 56 56 (16056320)
I1119 14:53:23.294217 12021 net.cpp:137] Memory required for data: 547102724
I1119 14:53:23.294221 12021 layer_factory.hpp:77] Creating layer pool2
I1119 14:53:23.294230 12021 net.cpp:84] Creating Layer pool2
I1119 14:53:23.294234 12021 net.cpp:406] pool2 <- conv2
I1119 14:53:23.294241 12021 net.cpp:380] pool2 -> pool2
I1119 14:53:23.294261 12021 net.cpp:122] Setting up pool2
I1119 14:53:23.294270 12021 net.cpp:129] Top shape: 1 256 10 28 28 (2007040)
I1119 14:53:23.294273 12021 net.cpp:137] Memory required for data: 555130884
I1119 14:53:23.294277 12021 layer_factory.hpp:77] Creating layer conv3
I1119 14:53:23.294289 12021 net.cpp:84] Creating Layer conv3
I1119 14:53:23.294301 12021 net.cpp:406] conv3 <- pool2
I1119 14:53:23.294307 12021 net.cpp:380] conv3 -> conv3
I1119 14:53:23.322973 12021 net.cpp:122] Setting up conv3
I1119 14:53:23.323021 12021 net.cpp:129] Top shape: 1 256 10 28 28 (2007040)
I1119 14:53:23.323029 12021 net.cpp:137] Memory required for data: 563159044
I1119 14:53:23.323056 12021 layer_factory.hpp:77] Creating layer relu3
I1119 14:53:23.323071 12021 net.cpp:84] Creating Layer relu3
I1119 14:53:23.323078 12021 net.cpp:406] relu3 <- conv3
I1119 14:53:23.323088 12021 net.cpp:367] relu3 -> conv3 (in-place)
I1119 14:53:23.323133 12021 net.cpp:122] Setting up relu3
I1119 14:53:23.323141 12021 net.cpp:129] Top shape: 1 256 10 28 28 (2007040)
I1119 14:53:23.323146 12021 net.cpp:137] Memory required for data: 571187204
I1119 14:53:23.323150 12021 layer_factory.hpp:77] Creating layer conv4
I1119 14:53:23.323185 12021 net.cpp:84] Creating Layer conv4
I1119 14:53:23.323194 12021 net.cpp:406] conv4 <- conv3
I1119 14:53:23.323201 12021 net.cpp:380] conv4 -> conv4
I1119 14:53:23.360070 12021 net.cpp:122] Setting up conv4
I1119 14:53:23.360108 12021 net.cpp:129] Top shape: 1 384 10 28 28 (3010560)
I1119 14:53:23.360113 12021 net.cpp:137] Memory required for data: 583229444
I1119 14:53:23.360134 12021 layer_factory.hpp:77] Creating layer relu4
I1119 14:53:23.360148 12021 net.cpp:84] Creating Layer relu4
I1119 14:53:23.360155 12021 net.cpp:406] relu4 <- conv4
I1119 14:53:23.360165 12021 net.cpp:367] relu4 -> conv4 (in-place)
I1119 14:53:23.360175 12021 net.cpp:122] Setting up relu4
I1119 14:53:23.360182 12021 net.cpp:129] Top shape: 1 384 10 28 28 (3010560)
I1119 14:53:23.360186 12021 net.cpp:137] Memory required for data: 595271684
I1119 14:53:23.360189 12021 layer_factory.hpp:77] Creating layer conv5
I1119 14:53:23.360200 12021 net.cpp:84] Creating Layer conv5
I1119 14:53:23.360205 12021 net.cpp:406] conv5 <- conv4
I1119 14:53:23.360213 12021 net.cpp:380] conv5 -> conv5
I1119 14:53:23.395664 12021 net.cpp:122] Setting up conv5
I1119 14:53:23.395701 12021 net.cpp:129] Top shape: 1 256 10 28 28 (2007040)
I1119 14:53:23.395706 12021 net.cpp:137] Memory required for data: 603299844
I1119 14:53:23.395730 12021 layer_factory.hpp:77] Creating layer relu5
I1119 14:53:23.395743 12021 net.cpp:84] Creating Layer relu5
I1119 14:53:23.395787 12021 net.cpp:406] relu5 <- conv5
I1119 14:53:23.395812 12021 net.cpp:367] relu5 -> conv5 (in-place)
I1119 14:53:23.395836 12021 net.cpp:122] Setting up relu5
I1119 14:53:23.395855 12021 net.cpp:129] Top shape: 1 256 10 28 28 (2007040)
I1119 14:53:23.395871 12021 net.cpp:137] Memory required for data: 611328004
I1119 14:53:23.395889 12021 layer_factory.hpp:77] Creating layer pool5
I1119 14:53:23.395913 12021 net.cpp:84] Creating Layer pool5
I1119 14:53:23.395928 12021 net.cpp:406] pool5 <- conv5
I1119 14:53:23.395947 12021 net.cpp:380] pool5 -> pool5
I1119 14:53:23.395980 12021 net.cpp:122] Setting up pool5
I1119 14:53:23.396019 12021 net.cpp:129] Top shape: 1 256 5 14 14 (250880)
I1119 14:53:23.396025 12021 net.cpp:137] Memory required for data: 612331524
I1119 14:53:23.396030 12021 layer_factory.hpp:77] Creating layer fc6
I1119 14:53:23.396039 12021 net.cpp:84] Creating Layer fc6
I1119 14:53:23.396056 12021 net.cpp:406] fc6 <- pool5
I1119 14:53:23.396076 12021 net.cpp:380] fc6 -> fc6
I1119 14:53:23.810530 12021 net.cpp:122] Setting up fc6
I1119 14:53:23.810569 12021 net.cpp:129] Top shape: 1 128 (128)
I1119 14:53:23.810573 12021 net.cpp:137] Memory required for data: 612332036
I1119 14:53:23.810590 12021 layer_factory.hpp:77] Creating layer relu6
I1119 14:53:23.810611 12021 net.cpp:84] Creating Layer relu6
I1119 14:53:23.810617 12021 net.cpp:406] relu6 <- fc6
I1119 14:53:23.810627 12021 net.cpp:367] relu6 -> fc6 (in-place)
I1119 14:53:23.810672 12021 net.cpp:122] Setting up relu6
I1119 14:53:23.810690 12021 net.cpp:129] Top shape: 1 128 (128)
I1119 14:53:23.810708 12021 net.cpp:137] Memory required for data: 612332548
I1119 14:53:23.810724 12021 layer_factory.hpp:77] Creating layer drop6
I1119 14:53:23.810763 12021 net.cpp:84] Creating Layer drop6
I1119 14:53:23.810781 12021 net.cpp:406] drop6 <- fc6
I1119 14:53:23.810799 12021 net.cpp:367] drop6 -> fc6 (in-place)
I1119 14:53:23.810844 12021 net.cpp:122] Setting up drop6
I1119 14:53:23.810853 12021 net.cpp:129] Top shape: 1 128 (128)
I1119 14:53:23.810856 12021 net.cpp:137] Memory required for data: 612333060
I1119 14:53:23.810860 12021 layer_factory.hpp:77] Creating layer fc7
I1119 14:53:23.810871 12021 net.cpp:84] Creating Layer fc7
I1119 14:53:23.810875 12021 net.cpp:406] fc7 <- fc6
I1119 14:53:23.810883 12021 net.cpp:380] fc7 -> fc7
I1119 14:53:23.811187 12021 net.cpp:122] Setting up fc7
I1119 14:53:23.811193 12021 net.cpp:129] Top shape: 1 128 (128)
I1119 14:53:23.811197 12021 net.cpp:137] Memory required for data: 612333572
I1119 14:53:23.811204 12021 layer_factory.hpp:77] Creating layer relu7
I1119 14:53:23.811236 12021 net.cpp:84] Creating Layer relu7
I1119 14:53:23.811241 12021 net.cpp:406] relu7 <- fc7
I1119 14:53:23.811247 12021 net.cpp:367] relu7 -> fc7 (in-place)
I1119 14:53:23.811254 12021 net.cpp:122] Setting up relu7
I1119 14:53:23.811259 12021 net.cpp:129] Top shape: 1 128 (128)
I1119 14:53:23.811261 12021 net.cpp:137] Memory required for data: 612334084
I1119 14:53:23.811265 12021 layer_factory.hpp:77] Creating layer drop7
I1119 14:53:23.811271 12021 net.cpp:84] Creating Layer drop7
I1119 14:53:23.811275 12021 net.cpp:406] drop7 <- fc7
I1119 14:53:23.811281 12021 net.cpp:367] drop7 -> fc7 (in-place)
I1119 14:53:23.811301 12021 net.cpp:122] Setting up drop7
I1119 14:53:23.811308 12021 net.cpp:129] Top shape: 1 128 (128)
I1119 14:53:23.811312 12021 net.cpp:137] Memory required for data: 612334596
I1119 14:53:23.811316 12021 layer_factory.hpp:77] Creating layer fc8
I1119 14:53:23.811323 12021 net.cpp:84] Creating Layer fc8
I1119 14:53:23.811327 12021 net.cpp:406] fc8 <- fc7
I1119 14:53:23.811334 12021 net.cpp:380] fc8 -> fc8
I1119 14:53:23.811543 12021 net.cpp:122] Setting up fc8
I1119 14:53:23.811550 12021 net.cpp:129] Top shape: 1 70 (70)
I1119 14:53:23.811554 12021 net.cpp:137] Memory required for data: 612334876
I1119 14:53:23.811561 12021 layer_factory.hpp:77] Creating layer conv1_p
I1119 14:53:23.811570 12021 net.cpp:84] Creating Layer conv1_p
I1119 14:53:23.811575 12021 net.cpp:406] conv1_p <- data_p
I1119 14:53:23.811583 12021 net.cpp:380] conv1_p -> conv1_p
I1119 14:53:23.814142 12021 net.cpp:122] Setting up conv1_p
I1119 14:53:23.814193 12021 net.cpp:129] Top shape: 1 96 40 112 112 (48168960)
I1119 14:53:23.814198 12021 net.cpp:137] Memory required for data: 805010716
I1119 14:53:23.814221 12021 net.cpp:465] Sharing parameters 'conv1_w' owned by layer 'conv1', param index 0
I1119 14:53:23.814231 12021 net.cpp:465] Sharing parameters 'conv1_b' owned by layer 'conv1', param index 1
I1119 14:53:23.814237 12021 layer_factory.hpp:77] Creating layer relu1_p
I1119 14:53:23.814250 12021 net.cpp:84] Creating Layer relu1_p
I1119 14:53:23.814256 12021 net.cpp:406] relu1_p <- conv1_p
I1119 14:53:23.814266 12021 net.cpp:367] relu1_p -> conv1_p (in-place)
I1119 14:53:23.814280 12021 net.cpp:122] Setting up relu1_p
I1119 14:53:23.814285 12021 net.cpp:129] Top shape: 1 96 40 112 112 (48168960)
I1119 14:53:23.814291 12021 net.cpp:137] Memory required for data: 997686556
I1119 14:53:23.814294 12021 layer_factory.hpp:77] Creating layer pool1_p
I1119 14:53:23.814303 12021 net.cpp:84] Creating Layer pool1_p
I1119 14:53:23.814311 12021 net.cpp:406] pool1_p <- conv1_p
I1119 14:53:23.814318 12021 net.cpp:380] pool1_p -> pool1_p
I1119 14:53:23.814389 12021 net.cpp:122] Setting up pool1_p
I1119 14:53:23.814398 12021 net.cpp:129] Top shape: 1 96 20 56 56 (6021120)
I1119 14:53:23.814402 12021 net.cpp:137] Memory required for data: 1021771036
I1119 14:53:23.814406 12021 layer_factory.hpp:77] Creating layer conv2_p
I1119 14:53:23.814416 12021 net.cpp:84] Creating Layer conv2_p
I1119 14:53:23.814421 12021 net.cpp:406] conv2_p <- pool1_p
I1119 14:53:23.814429 12021 net.cpp:380] conv2_p -> conv2_p
I1119 14:53:23.823931 12021 net.cpp:122] Setting up conv2_p
I1119 14:53:23.823966 12021 net.cpp:129] Top shape: 1 256 20 56 56 (16056320)
I1119 14:53:23.823971 12021 net.cpp:137] Memory required for data: 1085996316
I1119 14:53:23.823982 12021 net.cpp:465] Sharing parameters 'conv2_w' owned by layer 'conv2', param index 0
I1119 14:53:23.823990 12021 net.cpp:465] Sharing parameters 'conv2_b' owned by layer 'conv2', param index 1
I1119 14:53:23.823995 12021 layer_factory.hpp:77] Creating layer relu2_p
I1119 14:53:23.824007 12021 net.cpp:84] Creating Layer relu2_p
I1119 14:53:23.824031 12021 net.cpp:406] relu2_p <- conv2_p
I1119 14:53:23.824041 12021 net.cpp:367] relu2_p -> conv2_p (in-place)
I1119 14:53:23.824053 12021 net.cpp:122] Setting up relu2_p
I1119 14:53:23.824062 12021 net.cpp:129] Top shape: 1 256 20 56 56 (16056320)
I1119 14:53:23.824066 12021 net.cpp:137] Memory required for data: 1150221596
I1119 14:53:23.824071 12021 layer_factory.hpp:77] Creating layer pool2_p
I1119 14:53:23.824100 12021 net.cpp:84] Creating Layer pool2_p
I1119 14:53:23.824108 12021 net.cpp:406] pool2_p <- conv2_p
I1119 14:53:23.824115 12021 net.cpp:380] pool2_p -> pool2_p
I1119 14:53:23.824137 12021 net.cpp:122] Setting up pool2_p
I1119 14:53:23.824146 12021 net.cpp:129] Top shape: 1 256 10 28 28 (2007040)
I1119 14:53:23.824149 12021 net.cpp:137] Memory required for data: 1158249756
I1119 14:53:23.824153 12021 layer_factory.hpp:77] Creating layer conv3_p
I1119 14:53:23.824163 12021 net.cpp:84] Creating Layer conv3_p
I1119 14:53:23.824172 12021 net.cpp:406] conv3_p <- pool2_p
I1119 14:53:23.824180 12021 net.cpp:380] conv3_p -> conv3_p
I1119 14:53:23.848161 12021 net.cpp:122] Setting up conv3_p
I1119 14:53:23.848197 12021 net.cpp:129] Top shape: 1 256 10 28 28 (2007040)
I1119 14:53:23.848202 12021 net.cpp:137] Memory required for data: 1166277916
I1119 14:53:23.848214 12021 net.cpp:465] Sharing parameters 'conv3_w' owned by layer 'conv3', param index 0
I1119 14:53:23.848223 12021 net.cpp:465] Sharing parameters 'conv3_b' owned by layer 'conv3', param index 1
I1119 14:53:23.848228 12021 layer_factory.hpp:77] Creating layer relu3_p
I1119 14:53:23.848239 12021 net.cpp:84] Creating Layer relu3_p
I1119 14:53:23.848244 12021 net.cpp:406] relu3_p <- conv3_p
I1119 14:53:23.848254 12021 net.cpp:367] relu3_p -> conv3_p (in-place)
I1119 14:53:23.848266 12021 net.cpp:122] Setting up relu3_p
I1119 14:53:23.848273 12021 net.cpp:129] Top shape: 1 256 10 28 28 (2007040)
I1119 14:53:23.848276 12021 net.cpp:137] Memory required for data: 1174306076
I1119 14:53:23.848280 12021 layer_factory.hpp:77] Creating layer conv4_p
I1119 14:53:23.848290 12021 net.cpp:84] Creating Layer conv4_p
I1119 14:53:23.848295 12021 net.cpp:406] conv4_p <- conv3_p
I1119 14:53:23.848302 12021 net.cpp:380] conv4_p -> conv4_p
I1119 14:53:23.883558 12021 net.cpp:122] Setting up conv4_p
I1119 14:53:23.883594 12021 net.cpp:129] Top shape: 1 384 10 28 28 (3010560)
I1119 14:53:23.883600 12021 net.cpp:137] Memory required for data: 1186348316
I1119 14:53:23.883612 12021 net.cpp:465] Sharing parameters 'conv4_w' owned by layer 'conv4', param index 0
I1119 14:53:23.883620 12021 net.cpp:465] Sharing parameters 'conv4_b' owned by layer 'conv4', param index 1
I1119 14:53:23.883626 12021 layer_factory.hpp:77] Creating layer relu4_p
I1119 14:53:23.883639 12021 net.cpp:84] Creating Layer relu4_p
I1119 14:53:23.883646 12021 net.cpp:406] relu4_p <- conv4_p
I1119 14:53:23.883656 12021 net.cpp:367] relu4_p -> conv4_p (in-place)
I1119 14:53:23.883682 12021 net.cpp:122] Setting up relu4_p
I1119 14:53:23.883689 12021 net.cpp:129] Top shape: 1 384 10 28 28 (3010560)
I1119 14:53:23.883694 12021 net.cpp:137] Memory required for data: 1198390556
I1119 14:53:23.883698 12021 layer_factory.hpp:77] Creating layer conv5_p
I1119 14:53:23.883713 12021 net.cpp:84] Creating Layer conv5_p
I1119 14:53:23.883719 12021 net.cpp:406] conv5_p <- conv4_p
I1119 14:53:23.883726 12021 net.cpp:380] conv5_p -> conv5_p
I1119 14:53:23.918923 12021 net.cpp:122] Setting up conv5_p
I1119 14:53:23.918959 12021 net.cpp:129] Top shape: 1 256 10 28 28 (2007040)
I1119 14:53:23.918965 12021 net.cpp:137] Memory required for data: 1206418716
I1119 14:53:23.918977 12021 net.cpp:465] Sharing parameters 'conv5_w' owned by layer 'conv5', param index 0
I1119 14:53:23.918987 12021 net.cpp:465] Sharing parameters 'conv5_b' owned by layer 'conv5', param index 1
I1119 14:53:23.918992 12021 layer_factory.hpp:77] Creating layer relu5_p
I1119 14:53:23.919004 12021 net.cpp:84] Creating Layer relu5_p
I1119 14:53:23.919047 12021 net.cpp:406] relu5_p <- conv5_p
I1119 14:53:23.919056 12021 net.cpp:367] relu5_p -> conv5_p (in-place)
I1119 14:53:23.919067 12021 net.cpp:122] Setting up relu5_p
I1119 14:53:23.919073 12021 net.cpp:129] Top shape: 1 256 10 28 28 (2007040)
I1119 14:53:23.919077 12021 net.cpp:137] Memory required for data: 1214446876
I1119 14:53:23.919081 12021 layer_factory.hpp:77] Creating layer pool5_p
I1119 14:53:23.919090 12021 net.cpp:84] Creating Layer pool5_p
I1119 14:53:23.919095 12021 net.cpp:406] pool5_p <- conv5_p
I1119 14:53:23.919124 12021 net.cpp:380] pool5_p -> pool5_p
I1119 14:53:23.919147 12021 net.cpp:122] Setting up pool5_p
I1119 14:53:23.919154 12021 net.cpp:129] Top shape: 1 256 5 14 14 (250880)
I1119 14:53:23.919158 12021 net.cpp:137] Memory required for data: 1215450396
I1119 14:53:23.919162 12021 layer_factory.hpp:77] Creating layer fc6_p
I1119 14:53:23.919173 12021 net.cpp:84] Creating Layer fc6_p
I1119 14:53:23.919178 12021 net.cpp:406] fc6_p <- pool5_p
I1119 14:53:23.919184 12021 net.cpp:380] fc6_p -> fc6_p
I1119 14:53:24.332895 12021 net.cpp:122] Setting up fc6_p
I1119 14:53:24.332933 12021 net.cpp:129] Top shape: 1 128 (128)
I1119 14:53:24.332938 12021 net.cpp:137] Memory required for data: 1215450908
I1119 14:53:24.332949 12021 net.cpp:465] Sharing parameters 'fc6_w' owned by layer 'fc6', param index 0
I1119 14:53:24.332957 12021 net.cpp:465] Sharing parameters 'fc6_b' owned by layer 'fc6', param index 1
I1119 14:53:24.332964 12021 layer_factory.hpp:77] Creating layer relu6_p
I1119 14:53:24.332976 12021 net.cpp:84] Creating Layer relu6_p
I1119 14:53:24.332983 12021 net.cpp:406] relu6_p <- fc6_p
I1119 14:53:24.332993 12021 net.cpp:367] relu6_p -> fc6_p (in-place)
I1119 14:53:24.333003 12021 net.cpp:122] Setting up relu6_p
I1119 14:53:24.333007 12021 net.cpp:129] Top shape: 1 128 (128)
I1119 14:53:24.333011 12021 net.cpp:137] Memory required for data: 1215451420
I1119 14:53:24.333014 12021 layer_factory.hpp:77] Creating layer drop6_p
I1119 14:53:24.333024 12021 net.cpp:84] Creating Layer drop6_p
I1119 14:53:24.333029 12021 net.cpp:406] drop6_p <- fc6_p
I1119 14:53:24.333034 12021 net.cpp:367] drop6_p -> fc6_p (in-place)
I1119 14:53:24.333057 12021 net.cpp:122] Setting up drop6_p
I1119 14:53:24.333065 12021 net.cpp:129] Top shape: 1 128 (128)
I1119 14:53:24.333070 12021 net.cpp:137] Memory required for data: 1215451932
I1119 14:53:24.333073 12021 layer_factory.hpp:77] Creating layer fc7_p
I1119 14:53:24.333083 12021 net.cpp:84] Creating Layer fc7_p
I1119 14:53:24.333093 12021 net.cpp:406] fc7_p <- fc6_p
I1119 14:53:24.333101 12021 net.cpp:380] fc7_p -> fc7_p
I1119 14:53:24.333402 12021 net.cpp:122] Setting up fc7_p
I1119 14:53:24.333410 12021 net.cpp:129] Top shape: 1 128 (128)
I1119 14:53:24.333415 12021 net.cpp:137] Memory required for data: 1215452444
I1119 14:53:24.333420 12021 net.cpp:465] Sharing parameters 'fc7_w' owned by layer 'fc7', param index 0
I1119 14:53:24.333425 12021 net.cpp:465] Sharing parameters 'fc7_b' owned by layer 'fc7', param index 1
I1119 14:53:24.333429 12021 layer_factory.hpp:77] Creating layer relu7_p
I1119 14:53:24.333436 12021 net.cpp:84] Creating Layer relu7_p
I1119 14:53:24.333439 12021 net.cpp:406] relu7_p <- fc7_p
I1119 14:53:24.333446 12021 net.cpp:367] relu7_p -> fc7_p (in-place)
I1119 14:53:24.333452 12021 net.cpp:122] Setting up relu7_p
I1119 14:53:24.333458 12021 net.cpp:129] Top shape: 1 128 (128)
I1119 14:53:24.333461 12021 net.cpp:137] Memory required for data: 1215452956
I1119 14:53:24.333465 12021 layer_factory.hpp:77] Creating layer drop7_p
I1119 14:53:24.333472 12021 net.cpp:84] Creating Layer drop7_p
I1119 14:53:24.333475 12021 net.cpp:406] drop7_p <- fc7_p
I1119 14:53:24.333482 12021 net.cpp:367] drop7_p -> fc7_p (in-place)
I1119 14:53:24.333503 12021 net.cpp:122] Setting up drop7_p
I1119 14:53:24.333510 12021 net.cpp:129] Top shape: 1 128 (128)
I1119 14:53:24.333513 12021 net.cpp:137] Memory required for data: 1215453468
I1119 14:53:24.333518 12021 layer_factory.hpp:77] Creating layer fc8_p
I1119 14:53:24.333524 12021 net.cpp:84] Creating Layer fc8_p
I1119 14:53:24.333529 12021 net.cpp:406] fc8_p <- fc7_p
I1119 14:53:24.333536 12021 net.cpp:380] fc8_p -> fc8_p
I1119 14:53:24.333750 12021 net.cpp:122] Setting up fc8_p
I1119 14:53:24.333756 12021 net.cpp:129] Top shape: 1 70 (70)
I1119 14:53:24.333760 12021 net.cpp:137] Memory required for data: 1215453748
I1119 14:53:24.333765 12021 net.cpp:465] Sharing parameters 'fc8_w' owned by layer 'fc8', param index 0
I1119 14:53:24.333771 12021 net.cpp:465] Sharing parameters 'fc8_b' owned by layer 'fc8', param index 1
I1119 14:53:24.333799 12021 layer_factory.hpp:77] Creating layer loss
I1119 14:53:24.333808 12021 net.cpp:84] Creating Layer loss
…
