…
I0816 15:27:44.607324  5636 solver.cpp:87] Creating training net from net file: ./mnist_siamese_train_test.prototxt
I0816 15:27:44.608992  5636 net.cpp:294] The NetState phase (0) differed from the phase (1) specified by a rule in layer pair_data
I0816 15:27:44.609424  5636 net.cpp:51] Initializing net from parameters: 
name: "mnist_siamese_train_test"
state {
  phase: TRAIN
  level: 0
  stage: ""
}
layer {
  name: "pair_data"
  type: "Data"
  top: "pair_data"
  top: "sim"
  include {
    phase: TRAIN
  }
  transform_param {
    scale: 0.00390625
  }
  data_param {
    source: "./mnist_siamese_train_leveldb"
    batch_size: 64
  }
}
layer {
  name: "slice_pair"
  type: "Slice"
  bottom: "pair_data"
  top: "data"
  top: "data_p"
  slice_param {
    slice_dim: 1
    slice_point: 1
  }
}
layer {
  name: "conv1"
  type: "Convolution"
  bottom: "data"
  top: "conv1"
  param {
    name: "conv1_w"
    lr_mult: 1
  }
  param {
    name: "conv1_b"
    lr_mult: 2
  }
  convolution_param {
    num_output: 20
    kernel_size: 5
    stride: 1
    weight_filler {
      type: "xavier"
    }
    bias_filler {
      type: "constant"
    }
  }
}
layer {
  name: "pool1"
  type: "Pooling"
  bottom: "conv1"
  top: "pool1"
  pooling_param {
    pool: MAX
    kernel_size: 2
    stride: 2
  }
}
layer {
  name: "conv2"
  type: "Convolution"
  bottom: "pool1"
  top: "conv2"
  param {
    name: "conv2_w"
    lr_mult: 1
  }
  param {
    name: "conv2_b"
    lr_mult: 2
  }
  convolution_param {
    num_output: 50
    kernel_size: 5
    stride: 1
    weight_filler {
      type: "xavier"
    }
    bias_filler {
      type: "constant"
    }
  }
}
layer {
  name: "pool2"
  type: "Pooling"
  bottom: "conv2"
  top: "pool2"
  pooling_param {
    pool: MAX
    kernel_size: 2
    stride: 2
  }
}
layer {
  name: "ip1"
  type: "InnerProduct"
  bottom: "pool2"
  top: "ip1"
  param {
    name: "ip1_w"
    lr_mult: 1
  }
  param {
    name: "ip1_b"
    lr_mult: 2
  }
  inner_product_param {
    num_output: 500
    weight_filler {
      type: "xavier"
    }
    bias_filler {
      type: "constant"
    }
  }
}
layer {
  name: "relu1"
  type: "ReLU"
  bottom: "ip1"
  top: "ip1"
}
layer {
  name: "ip2"
  type: "InnerProduct"
  bottom: "ip1"
  top: "ip2"
  param {
    name: "ip2_w"
    lr_mult: 1
  }
  param {
    name: "ip2_b"
    lr_mult: 2
  }
  inner_product_param {
    num_output: 10
    weight_filler {
      type: "xavier"
    }
    bias_filler {
      type: "constant"
    }
  }
}
layer {
  name: "feat"
  type: "InnerProduct"
  bottom: "ip2"
  top: "feat"
  param {
    name: "feat_w"
    lr_mult: 1
  }
  param {
    name: "feat_b"
    lr_mult: 2
  }
  inner_product_param {
    num_output: 2
    weight_filler {
      type: "xavier"
    }
    bias_filler {
      type: "constant"
    }
  }
}
layer {
  name: "conv1_p"
  type: "Convolution"
  bottom: "data_p"
  top: "conv1_p"
  param {
    name: "conv1_w"
    lr_mult: 1
  }
  param {
    name: "conv1_b"
    lr_mult: 2
  }
  convolution_param {
    num_output: 20
    kernel_size: 5
    stride: 1
    weight_filler {
      type: "xavier"
    }
    bias_filler {
      type: "constant"
    }
  }
}
layer {
  name: "pool1_p"
  type: "Pooling"
  bottom: "conv1_p"
  top: "pool1_p"
  pooling_param {
    pool: MAX
    kernel_size: 2
    stride: 2
  }
}
layer {
  name: "conv2_p"
  type: "Convolution"
  bottom: "pool1_p"
  top: "conv2_p"
  param {
    name: "conv2_w"
    lr_mult: 1
  }
  param {
    name: "conv2_b"
    lr_mult: 2
  }
  convolution_param {
    num_output: 50
    kernel_size: 5
    stride: 1
    weight_filler {
      type: "xavier"
    }
    bias_filler {
      type: "constant"
    }
  }
}
layer {
  name: "pool2_p"
  type: "Pooling"
  bottom: "conv2_p"
  top: "pool2_p"
  pooling_param {
    pool: MAX
    kernel_size: 2
    stride: 2
  }
}
layer {
  name: "ip1_p"
  type: "InnerProduct"
  bottom: "pool2_p"
  top: "ip1_p"
  param {
    name: "ip1_w"
    lr_mult: 1
  }
  param {
    name: "ip1_b"
    lr_mult: 2
  }
  inner_product_param {
    num_output: 500
    weight_filler {
      type: "xavier"
    }
    bias_filler {
      type: "constant"
    }
  }
}
layer {
  name: "relu1_p"
  type: "ReLU"
  bottom: "ip1_p"
  top: "ip1_p"
}
layer {
  name: "ip2_p"
  type: "InnerProduct"
  bottom: "ip1_p"
  top: "ip2_p"
  param {
    name: "ip2_w"
    lr_mult: 1
  }
  param {
    name: "ip2_b"
    lr_mult: 2
  }
  inner_product_param {
    num_output: 10
    weight_filler {
      type: "xavier"
    }
    bias_filler {
      type: "constant"
    }
  }
}
layer {
  name: "feat_p"
  type: "InnerProduct"
  bottom: "ip2_p"
  top: "feat_p"
  param {
    name: "feat_w"
    lr_mult: 1
  }
  param {
    name: "feat_b"
    lr_mult: 2
  }
  inner_product_param {
    num_output: 2
    weight_filler {
      type: "xavier"
    }
    bias_filler {
      type: "constant"
    }
  }
}
layer {
  name: "loss"
  type: "ContrastiveLoss"
  bottom: "feat"
  bottom: "feat_p"
  bottom: "sim"
  top: "loss"
  contrastive_loss_param {
    margin: 1
  }
}
I0816 15:27:44.609724  5636 layer_factory.hpp:77] Creating layer pair_data
I0816 15:27:44.687985  5636 db_leveldb.cpp:18] Opened leveldb ./mnist_siamese_train_leveldb
I0816 15:27:44.688338  5636 net.cpp:84] Creating Layer pair_data
I0816 15:27:44.688381  5636 net.cpp:380] pair_data -> pair_data
I0816 15:27:44.689232  5636 net.cpp:380] pair_data -> sim
I0816 15:27:44.690949  5636 data_layer.cpp:45] output data size: 64,2,28,28
I0816 15:27:44.695272  5636 net.cpp:122] Setting up pair_data
I0816 15:27:44.695318  5636 net.cpp:129] Top shape: 64 2 28 28 (100352)
I0816 15:27:44.695336  5636 net.cpp:129] Top shape: 64 (64)
I0816 15:27:44.695348  5636 net.cpp:137] Memory required for data: 401664
I0816 15:27:44.695369  5636 layer_factory.hpp:77] Creating layer slice_pair
I0816 15:27:44.695392  5636 net.cpp:84] Creating Layer slice_pair
I0816 15:27:44.695410  5636 net.cpp:406] slice_pair <- pair_data
I0816 15:27:44.695435  5636 net.cpp:380] slice_pair -> data
I0816 15:27:44.695463  5636 net.cpp:380] slice_pair -> data_p
I0816 15:27:44.695825  5636 net.cpp:122] Setting up slice_pair
I0816 15:27:44.695950  5636 net.cpp:129] Top shape: 64 1 28 28 (50176)
I0816 15:27:44.695977  5636 net.cpp:129] Top shape: 64 1 28 28 (50176)
I0816 15:27:44.695996  5636 net.cpp:137] Memory required for data: 803072
I0816 15:27:44.696017  5636 layer_factory.hpp:77] Creating layer conv1
I0816 15:27:44.696914  5636 net.cpp:84] Creating Layer conv1
I0816 15:27:44.696969  5636 net.cpp:406] conv1 <- data
I0816 15:27:44.697006  5636 net.cpp:380] conv1 -> conv1
I0816 15:27:46.601730  5636 net.cpp:122] Setting up conv1
I0816 15:27:46.601827  5636 net.cpp:129] Top shape: 64 20 24 24 (737280)
I0816 15:27:46.601845  5636 net.cpp:137] Memory required for data: 3752192
I0816 15:27:46.601883  5636 layer_factory.hpp:77] Creating layer pool1
I0816 15:27:46.601933  5636 net.cpp:84] Creating Layer pool1
I0816 15:27:46.601950  5636 net.cpp:406] pool1 <- conv1
I0816 15:27:46.601966  5636 net.cpp:380] pool1 -> pool1
I0816 15:27:46.602797  5636 net.cpp:122] Setting up pool1
I0816 15:27:46.602823  5636 net.cpp:129] Top shape: 64 20 12 12 (184320)
I0816 15:27:46.602834  5636 net.cpp:137] Memory required for data: 4489472
I0816 15:27:46.602844  5636 layer_factory.hpp:77] Creating layer conv2
I0816 15:27:46.602891  5636 net.cpp:84] Creating Layer conv2
I0816 15:27:46.602908  5636 net.cpp:406] conv2 <- pool1
I0816 15:27:46.602924  5636 net.cpp:380] conv2 -> conv2
I0816 15:27:46.605800  5636 net.cpp:122] Setting up conv2
I0816 15:27:46.605830  5636 net.cpp:129] Top shape: 64 50 8 8 (204800)
I0816 15:27:46.605842  5636 net.cpp:137] Memory required for data: 5308672
I0816 15:27:46.605870  5636 layer_factory.hpp:77] Creating layer pool2
I0816 15:27:46.605903  5636 net.cpp:84] Creating Layer pool2
I0816 15:27:46.605916  5636 net.cpp:406] pool2 <- conv2
I0816 15:27:46.605928  5636 net.cpp:380] pool2 -> pool2
I0816 15:27:46.605990  5636 net.cpp:122] Setting up pool2
I0816 15:27:46.606010  5636 net.cpp:129] Top shape: 64 50 4 4 (51200)
I0816 15:27:46.606020  5636 net.cpp:137] Memory required for data: 5513472
I0816 15:27:46.606029  5636 layer_factory.hpp:77] Creating layer ip1
I0816 15:27:46.606047  5636 net.cpp:84] Creating Layer ip1
I0816 15:27:46.606057  5636 net.cpp:406] ip1 <- pool2
I0816 15:27:46.606071  5636 net.cpp:380] ip1 -> ip1
I0816 15:27:46.610860  5636 net.cpp:122] Setting up ip1
I0816 15:27:46.610901  5636 net.cpp:129] Top shape: 64 500 (32000)
I0816 15:27:46.610913  5636 net.cpp:137] Memory required for data: 5641472
I0816 15:27:46.610929  5636 layer_factory.hpp:77] Creating layer relu1
I0816 15:27:46.610949  5636 net.cpp:84] Creating Layer relu1
I0816 15:27:46.610958  5636 net.cpp:406] relu1 <- ip1
I0816 15:27:46.610971  5636 net.cpp:367] relu1 -> ip1 (in-place)
I0816 15:27:46.611560  5636 net.cpp:122] Setting up relu1
I0816 15:27:46.611582  5636 net.cpp:129] Top shape: 64 500 (32000)
I0816 15:27:46.611593  5636 net.cpp:137] Memory required for data: 5769472
I0816 15:27:46.611603  5636 layer_factory.hpp:77] Creating layer ip2
I0816 15:27:46.611624  5636 net.cpp:84] Creating Layer ip2
I0816 15:27:46.611634  5636 net.cpp:406] ip2 <- ip1
I0816 15:27:46.611649  5636 net.cpp:380] ip2 -> ip2
I0816 15:27:46.612476  5636 net.cpp:122] Setting up ip2
I0816 15:27:46.612502  5636 net.cpp:129] Top shape: 64 10 (640)
I0816 15:27:46.612514  5636 net.cpp:137] Memory required for data: 5772032
I0816 15:27:46.612527  5636 layer_factory.hpp:77] Creating layer feat
I0816 15:27:46.612543  5636 net.cpp:84] Creating Layer feat
I0816 15:27:46.612555  5636 net.cpp:406] feat <- ip2
I0816 15:27:46.612567  5636 net.cpp:380] feat -> feat
I0816 15:27:46.612710  5636 net.cpp:122] Setting up feat
I0816 15:27:46.612728  5636 net.cpp:129] Top shape: 64 2 (128)
I0816 15:27:46.612738  5636 net.cpp:137] Memory required for data: 5772544
I0816 15:27:46.612754  5636 layer_factory.hpp:77] Creating layer conv1_p
I0816 15:27:46.612774  5636 net.cpp:84] Creating Layer conv1_p
I0816 15:27:46.612784  5636 net.cpp:406] conv1_p <- data_p
I0816 15:27:46.612797  5636 net.cpp:380] conv1_p -> conv1_p
I0816 15:27:46.614692  5636 net.cpp:122] Setting up conv1_p
I0816 15:27:46.614717  5636 net.cpp:129] Top shape: 64 20 24 24 (737280)
I0816 15:27:46.614727  5636 net.cpp:137] Memory required for data: 8721664
I0816 15:27:46.614739  5636 net.cpp:465] Sharing parameters 'conv1_w' owned by layer 'conv1', param index 0
I0816 15:27:46.614750  5636 net.cpp:465] Sharing parameters 'conv1_b' owned by layer 'conv1', param index 1
I0816 15:27:46.614759  5636 layer_factory.hpp:77] Creating layer pool1_p
I0816 15:27:46.614778  5636 net.cpp:84] Creating Layer pool1_p
I0816 15:27:46.614789  5636 net.cpp:406] pool1_p <- conv1_p
I0816 15:27:46.614802  5636 net.cpp:380] pool1_p -> pool1_p
I0816 15:27:46.614876  5636 net.cpp:122] Setting up pool1_p
I0816 15:27:46.614893  5636 net.cpp:129] Top shape: 64 20 12 12 (184320)
I0816 15:27:46.614903  5636 net.cpp:137] Memory required for data: 9458944
I0816 15:27:46.614912  5636 layer_factory.hpp:77] Creating layer conv2_p
I0816 15:27:46.614930  5636 net.cpp:84] Creating Layer conv2_p
I0816 15:27:46.614940  5636 net.cpp:406] conv2_p <- pool1_p
I0816 15:27:46.614954  5636 net.cpp:380] conv2_p -> conv2_p
I0816 15:27:46.616902  5636 net.cpp:122] Setting up conv2_p
I0816 15:27:46.616966  5636 net.cpp:129] Top shape: 64 50 8 8 (204800)
I0816 15:27:46.616978  5636 net.cpp:137] Memory required for data: 10278144
I0816 15:27:46.616992  5636 net.cpp:465] Sharing parameters 'conv2_w' owned by layer 'conv2', param index 0
I0816 15:27:46.617004  5636 net.cpp:465] Sharing parameters 'conv2_b' owned by layer 'conv2', param index 1
I0816 15:27:46.617014  5636 layer_factory.hpp:77] Creating layer pool2_p
I0816 15:27:46.617051  5636 net.cpp:84] Creating Layer pool2_p
I0816 15:27:46.617074  5636 net.cpp:406] pool2_p <- conv2_p
I0816 15:27:46.617091  5636 net.cpp:380] pool2_p -> pool2_p
I0816 15:27:46.617161  5636 net.cpp:122] Setting up pool2_p
I0816 15:27:46.617177  5636 net.cpp:129] Top shape: 64 50 4 4 (51200)
I0816 15:27:46.617187  5636 net.cpp:137] Memory required for data: 10482944
I0816 15:27:46.617195  5636 layer_factory.hpp:77] Creating layer ip1_p
I0816 15:27:46.617218  5636 net.cpp:84] Creating Layer ip1_p
I0816 15:27:46.617228  5636 net.cpp:406] ip1_p <- pool2_p
I0816 15:27:46.617241  5636 net.cpp:380] ip1_p -> ip1_p
I0816 15:27:46.621739  5636 net.cpp:122] Setting up ip1_p
I0816 15:27:46.621775  5636 net.cpp:129] Top shape: 64 500 (32000)
I0816 15:27:46.621786  5636 net.cpp:137] Memory required for data: 10610944
I0816 15:27:46.621798  5636 net.cpp:465] Sharing parameters 'ip1_w' owned by layer 'ip1', param index 0
I0816 15:27:46.621810  5636 net.cpp:465] Sharing parameters 'ip1_b' owned by layer 'ip1', param index 1
I0816 15:27:46.621822  5636 layer_factory.hpp:77] Creating layer relu1_p
I0816 15:27:46.621843  5636 net.cpp:84] Creating Layer relu1_p
I0816 15:27:46.621853  5636 net.cpp:406] relu1_p <- ip1_p
I0816 15:27:46.621865  5636 net.cpp:367] relu1_p -> ip1_p (in-place)
I0816 15:27:46.622470  5636 net.cpp:122] Setting up relu1_p
I0816 15:27:46.622496  5636 net.cpp:129] Top shape: 64 500 (32000)
I0816 15:27:46.622506  5636 net.cpp:137] Memory required for data: 10738944
I0816 15:27:46.622516  5636 layer_factory.hpp:77] Creating layer ip2_p
I0816 15:27:46.622539  5636 net.cpp:84] Creating Layer ip2_p
I0816 15:27:46.622555  5636 net.cpp:406] ip2_p <- ip1_p
I0816 15:27:46.622570  5636 net.cpp:380] ip2_p -> ip2_p
I0816 15:27:46.622776  5636 net.cpp:122] Setting up ip2_p
I0816 15:27:46.622798  5636 net.cpp:129] Top shape: 64 10 (640)
I0816 15:27:46.622809  5636 net.cpp:137] Memory required for data: 10741504
I0816 15:27:46.622823  5636 net.cpp:465] Sharing parameters 'ip2_w' owned by layer 'ip2', param index 0
I0816 15:27:46.622835  5636 net.cpp:465] Sharing parameters 'ip2_b' owned by layer 'ip2', param index 1
I0816 15:27:46.622844  5636 layer_factory.hpp:77] Creating layer feat_p
I0816 15:27:46.622859  5636 net.cpp:84] Creating Layer feat_p
I0816 15:27:46.622879  5636 net.cpp:406] feat_p <- ip2_p
I0816 15:27:46.622892  5636 net.cpp:380] feat_p -> feat_p
I0816 15:27:46.623037  5636 net.cpp:122] Setting up feat_p
I0816 15:27:46.623057  5636 net.cpp:129] Top shape: 64 2 (128)
I0816 15:27:46.623067  5636 net.cpp:137] Memory required for data: 10742016
I0816 15:27:46.623077  5636 net.cpp:465] Sharing parameters 'feat_w' owned by layer 'feat', param index 0
I0816 15:27:46.623088  5636 net.cpp:465] Sharing parameters 'feat_b' owned by layer 'feat', param index 1
I0816 15:27:46.623097  5636 layer_factory.hpp:77] Creating layer loss
I0816 15:27:46.623114  5636 net.cpp:84] Creating Layer loss
…
I0816 15:27:46.624907  5636 solver.cpp:172] Creating test net (#0) specified by net file: ./mnist_siamese_train_test.prototxt
I0816 15:27:46.624971  5636 net.cpp:294] The NetState phase (1) differed from the phase (0) specified by a rule in layer pair_data
I0816 15:27:46.625185  5636 net.cpp:51] Initializing net from parameters: 
name: "mnist_siamese_train_test"
state {
  phase: TEST
}
layer {
  name: "pair_data"
  type: "Data"
  top: "pair_data"
  top: "sim"
  include {
    phase: TEST
  }
  transform_param {
    scale: 0.00390625
  }
  data_param {
    source: "./mnist_siamese_test_leveldb"
    batch_size: 100
  }
}
layer {
  name: "slice_pair"
  type: "Slice"
  bottom: "pair_data"
  top: "data"
  top: "data_p"
  slice_param {
    slice_dim: 1
    slice_point: 1
  }
}
layer {
  name: "conv1"
  type: "Convolution"
  bottom: "data"
  top: "conv1"
  param {
    name: "conv1_w"
    lr_mult: 1
  }
  param {
    name: "conv1_b"
    lr_mult: 2
  }
  convolution_param {
    num_output: 20
    kernel_size: 5
    stride: 1
    weight_filler {
      type: "xavier"
    }
    bias_filler {
      type: "constant"
    }
  }
}
layer {
  name: "pool1"
  type: "Pooling"
  bottom: "conv1"
  top: "pool1"
  pooling_param {
    pool: MAX
    kernel_size: 2
    stride: 2
  }
}
layer {
  name: "conv2"
  type: "Convolution"
  bottom: "pool1"
  top: "conv2"
  param {
    name: "conv2_w"
    lr_mult: 1
  }
  param {
    name: "conv2_b"
    lr_mult: 2
  }
  convolution_param {
    num_output: 50
    kernel_size: 5
    stride: 1
    weight_filler {
      type: "xavier"
    }
    bias_filler {
      type: "constant"
    }
  }
}
layer {
  name: "pool2"
  type: "Pooling"
  bottom: "conv2"
  top: "pool2"
  pooling_param {
    pool: MAX
    kernel_size: 2
    stride: 2
  }
}
layer {
  name: "ip1"
  type: "InnerProduct"
  bottom: "pool2"
  top: "ip1"
  param {
    name: "ip1_w"
    lr_mult: 1
  }
  param {
    name: "ip1_b"
    lr_mult: 2
  }
  inner_product_param {
    num_output: 500
    weight_filler {
      type: "xavier"
    }
    bias_filler {
      type: "constant"
    }
  }
}
layer {
  name: "relu1"
  type: "ReLU"
  bottom: "ip1"
  top: "ip1"
}
layer {
  name: "ip2"
  type: "InnerProduct"
  bottom: "ip1"
  top: "ip2"
  param {
    name: "ip2_w"
    lr_mult: 1
  }
  param {
    name: "ip2_b"
    lr_mult: 2
  }
  inner_product_param {
    num_output: 10
    weight_filler {
      type: "xavier"
    }
    bias_filler {
      type: "constant"
    }
  }
}
layer {
  name: "feat"
  type: "InnerProduct"
  bottom: "ip2"
  top: "feat"
  param {
    name: "feat_w"
    lr_mult: 1
  }
  param {
    name: "feat_b"
    lr_mult: 2
  }
  inner_product_param {
    num_output: 2
    weight_filler {
      type: "xavier"
    }
    bias_filler {
      type: "constant"
    }
  }
}
layer {
  name: "conv1_p"
  type: "Convolution"
  bottom: "data_p"
  top: "conv1_p"
  param {
    name: "conv1_w"
    lr_mult: 1
  }
  param {
    name: "conv1_b"
    lr_mult: 2
  }
  convolution_param {
    num_output: 20
    kernel_size: 5
    stride: 1
    weight_filler {
      type: "xavier"
    }
    bias_filler {
      type: "constant"
    }
  }
}
layer {
  name: "pool1_p"
  type: "Pooling"
  bottom: "conv1_p"
  top: "pool1_p"
  pooling_param {
    pool: MAX
    kernel_size: 2
    stride: 2
  }
}
layer {
  name: "conv2_p"
  type: "Convolution"
  bottom: "pool1_p"
  top: "conv2_p"
  param {
    name: "conv2_w"
    lr_mult: 1
  }
  param {
    name: "conv2_b"
    lr_mult: 2
  }
  convolution_param {
    num_output: 50
    kernel_size: 5
    stride: 1
    weight_filler {
      type: "xavier"
    }
    bias_filler {
      type: "constant"
    }
  }
}
layer {
  name: "pool2_p"
  type: "Pooling"
  bottom: "conv2_p"
  top: "pool2_p"
  pooling_param {
    pool: MAX
    kernel_size: 2
    stride: 2
  }
}
layer {
  name: "ip1_p"
  type: "InnerProduct"
  bottom: "pool2_p"
  top: "ip1_p"
  param {
    name: "ip1_w"
    lr_mult: 1
  }
  param {
    name: "ip1_b"
    lr_mult: 2
  }
  inner_product_param {
    num_output: 500
    weight_filler {
      type: "xavier"
    }
    bias_filler {
      type: "constant"
    }
  }
}
layer {
  name: "relu1_p"
  type: "ReLU"
  bottom: "ip1_p"
  top: "ip1_p"
}
layer {
  name: "ip2_p"
  type: "InnerProduct"
  bottom: "ip1_p"
  top: "ip2_p"
  param {
    name: "ip2_w"
    lr_mult: 1
  }
  param {
    name: "ip2_b"
    lr_mult: 2
  }
  inner_product_param {
    num_output: 10
    weight_filler {
      type: "xavier"
    }
    bias_filler {
      type: "constant"
    }
  }
}
layer {
  name: "feat_p"
  type: "InnerProduct"
  bottom: "ip2_p"
  top: "feat_p"
  param {
    name: "feat_w"
    lr_mult: 1
  }
  param {
    name: "feat_b"
    lr_mult: 2
  }
  inner_product_param {
    num_output: 2
    weight_filler {
      type: "xavier"
    }
    bias_filler {
      type: "constant"
    }
  }
}
layer {
  name: "loss"
  type: "ContrastiveLoss"
  bottom: "feat"
  bottom: "feat_p"
  bottom: "sim"
  top: "loss"
  contrastive_loss_param {
    margin: 1
  }
}
I0816 15:27:46.625301  5636 layer_factory.hpp:77] Creating layer pair_data
I0816 15:27:46.661991  5636 db_leveldb.cpp:18] Opened leveldb ./mnist_siamese_test_leveldb
I0816 15:27:46.662202  5636 net.cpp:84] Creating Layer pair_data
I0816 15:27:46.662235  5636 net.cpp:380] pair_data -> pair_data
I0816 15:27:46.662261  5636 net.cpp:380] pair_data -> sim
I0816 15:27:46.662477  5636 data_layer.cpp:45] output data size: 100,2,28,28
I0816 15:27:46.667639  5636 net.cpp:122] Setting up pair_data
I0816 15:27:46.667673  5636 net.cpp:129] Top shape: 100 2 28 28 (156800)
I0816 15:27:46.667687  5636 net.cpp:129] Top shape: 100 (100)
I0816 15:27:46.667697  5636 net.cpp:137] Memory required for data: 627600
I0816 15:27:46.667708  5636 layer_factory.hpp:77] Creating layer slice_pair
I0816 15:27:46.667726  5636 net.cpp:84] Creating Layer slice_pair
I0816 15:27:46.667740  5636 net.cpp:406] slice_pair <- pair_data
I0816 15:27:46.667754  5636 net.cpp:380] slice_pair -> data
I0816 15:27:46.667773  5636 net.cpp:380] slice_pair -> data_p
I0816 15:27:46.667851  5636 net.cpp:122] Setting up slice_pair
I0816 15:27:46.667872  5636 net.cpp:129] Top shape: 100 1 28 28 (78400)
I0816 15:27:46.667884  5636 net.cpp:129] Top shape: 100 1 28 28 (78400)
I0816 15:27:46.667893  5636 net.cpp:137] Memory required for data: 1254800
I0816 15:27:46.667902  5636 layer_factory.hpp:77] Creating layer conv1
I0816 15:27:46.667925  5636 net.cpp:84] Creating Layer conv1
I0816 15:27:46.667937  5636 net.cpp:406] conv1 <- data
I0816 15:27:46.667951  5636 net.cpp:380] conv1 -> conv1
I0816 15:27:46.672650  5636 net.cpp:122] Setting up conv1
I0816 15:27:46.672775  5636 net.cpp:129] Top shape: 100 20 24 24 (1152000)
I0816 15:27:46.672808  5636 net.cpp:137] Memory required for data: 5862800
I0816 15:27:46.672857  5636 layer_factory.hpp:77] Creating layer pool1
I0816 15:27:46.672907  5636 net.cpp:84] Creating Layer pool1
I0816 15:27:46.672931  5636 net.cpp:406] pool1 <- conv1
I0816 15:27:46.672958  5636 net.cpp:380] pool1 -> pool1
I0816 15:27:46.673094  5636 net.cpp:122] Setting up pool1
I0816 15:27:46.673135  5636 net.cpp:129] Top shape: 100 20 12 12 (288000)
I0816 15:27:46.673154  5636 net.cpp:137] Memory required for data: 7014800
I0816 15:27:46.673172  5636 layer_factory.hpp:77] Creating layer conv2
I0816 15:27:46.673243  5636 net.cpp:84] Creating Layer conv2
I0816 15:27:46.673305  5636 net.cpp:406] conv2 <- pool1
I0816 15:27:46.673338  5636 net.cpp:380] conv2 -> conv2
I0816 15:27:46.677471  5636 net.cpp:122] Setting up conv2
I0816 15:27:46.677551  5636 net.cpp:129] Top shape: 100 50 8 8 (320000)
I0816 15:27:46.677575  5636 net.cpp:137] Memory required for data: 8294800
I0816 15:27:46.677609  5636 layer_factory.hpp:77] Creating layer pool2
I0816 15:27:46.677652  5636 net.cpp:84] Creating Layer pool2
I0816 15:27:46.677675  5636 net.cpp:406] pool2 <- conv2
I0816 15:27:46.677707  5636 net.cpp:380] pool2 -> pool2
I0816 15:27:46.677870  5636 net.cpp:122] Setting up pool2
I0816 15:27:46.677909  5636 net.cpp:129] Top shape: 100 50 4 4 (80000)
I0816 15:27:46.677929  5636 net.cpp:137] Memory required for data: 8614800
I0816 15:27:46.677949  5636 layer_factory.hpp:77] Creating layer ip1
I0816 15:27:46.677980  5636 net.cpp:84] Creating Layer ip1
I0816 15:27:46.678000  5636 net.cpp:406] ip1 <- pool2
I0816 15:27:46.678027  5636 net.cpp:380] ip1 -> ip1
I0816 15:27:46.687060  5636 net.cpp:122] Setting up ip1
I0816 15:27:46.687116  5636 net.cpp:129] Top shape: 100 500 (50000)
I0816 15:27:46.687136  5636 net.cpp:137] Memory required for data: 8814800
I0816 15:27:46.687167  5636 layer_factory.hpp:77] Creating layer relu1
I0816 15:27:46.687201  5636 net.cpp:84] Creating Layer relu1
I0816 15:27:46.687219  5636 net.cpp:406] relu1 <- ip1
I0816 15:27:46.687242  5636 net.cpp:367] relu1 -> ip1 (in-place)
I0816 15:27:46.687695  5636 net.cpp:122] Setting up relu1
I0816 15:27:46.687736  5636 net.cpp:129] Top shape: 100 500 (50000)
I0816 15:27:46.687755  5636 net.cpp:137] Memory required for data: 9014800
I0816 15:27:46.687773  5636 layer_factory.hpp:77] Creating layer ip2
I0816 15:27:46.687805  5636 net.cpp:84] Creating Layer ip2
I0816 15:27:46.687824  5636 net.cpp:406] ip2 <- ip1
I0816 15:27:46.687849  5636 net.cpp:380] ip2 -> ip2
I0816 15:27:46.688235  5636 net.cpp:122] Setting up ip2
I0816 15:27:46.688274  5636 net.cpp:129] Top shape: 100 10 (1000)
I0816 15:27:46.688293  5636 net.cpp:137] Memory required for data: 9018800
I0816 15:27:46.688316  5636 layer_factory.hpp:77] Creating layer feat
I0816 15:27:46.688344  5636 net.cpp:84] Creating Layer feat
I0816 15:27:46.688362  5636 net.cpp:406] feat <- ip2
I0816 15:27:46.688386  5636 net.cpp:380] feat -> feat
I0816 15:27:46.688658  5636 net.cpp:122] Setting up feat
I0816 15:27:46.688696  5636 net.cpp:129] Top shape: 100 2 (200)
I0816 15:27:46.688715  5636 net.cpp:137] Memory required for data: 9019600
I0816 15:27:46.688743  5636 layer_factory.hpp:77] Creating layer conv1_p
I0816 15:27:46.688778  5636 net.cpp:84] Creating Layer conv1_p
I0816 15:27:46.688802  5636 net.cpp:406] conv1_p <- data_p
I0816 15:27:46.688827  5636 net.cpp:380] conv1_p -> conv1_p
I0816 15:27:46.691786  5636 net.cpp:122] Setting up conv1_p
I0816 15:27:46.691836  5636 net.cpp:129] Top shape: 100 20 24 24 (1152000)
I0816 15:27:46.691856  5636 net.cpp:137] Memory required for data: 13627600
I0816 15:27:46.691874  5636 net.cpp:465] Sharing parameters 'conv1_w' owned by layer 'conv1', param index 0
I0816 15:27:46.691893  5636 net.cpp:465] Sharing parameters 'conv1_b' owned by layer 'conv1', param index 1
I0816 15:27:46.691910  5636 layer_factory.hpp:77] Creating layer pool1_p
I0816 15:27:46.691934  5636 net.cpp:84] Creating Layer pool1_p
I0816 15:27:46.691956  5636 net.cpp:406] pool1_p <- conv1_p
I0816 15:27:46.691979  5636 net.cpp:380] pool1_p -> pool1_p
I0816 15:27:46.692091  5636 net.cpp:122] Setting up pool1_p
I0816 15:27:46.692126  5636 net.cpp:129] Top shape: 100 20 12 12 (288000)
I0816 15:27:46.692142  5636 net.cpp:137] Memory required for data: 14779600
I0816 15:27:46.692158  5636 layer_factory.hpp:77] Creating layer conv2_p
I0816 15:27:46.692189  5636 net.cpp:84] Creating Layer conv2_p
I0816 15:27:46.692217  5636 net.cpp:406] conv2_p <- pool1_p
I0816 15:27:46.692242  5636 net.cpp:380] conv2_p -> conv2_p
I0816 15:27:46.695433  5636 net.cpp:122] Setting up conv2_p
I0816 15:27:46.695484  5636 net.cpp:129] Top shape: 100 50 8 8 (320000)
I0816 15:27:46.695516  5636 net.cpp:137] Memory required for data: 16059600
I0816 15:27:46.695552  5636 net.cpp:465] Sharing parameters 'conv2_w' owned by layer 'conv2', param index 0
I0816 15:27:46.695575  5636 net.cpp:465] Sharing parameters 'conv2_b' owned by layer 'conv2', param index 1
I0816 15:27:46.695592  5636 layer_factory.hpp:77] Creating layer pool2_p
I0816 15:27:46.695617  5636 net.cpp:84] Creating Layer pool2_p
I0816 15:27:46.695639  5636 net.cpp:406] pool2_p <- conv2_p
I0816 15:27:46.695662  5636 net.cpp:380] pool2_p -> pool2_p
I0816 15:27:46.695775  5636 net.cpp:122] Setting up pool2_p
I0816 15:27:46.695811  5636 net.cpp:129] Top shape: 100 50 4 4 (80000)
I0816 15:27:46.695829  5636 net.cpp:137] Memory required for data: 16379600
I0816 15:27:46.695845  5636 layer_factory.hpp:77] Creating layer ip1_p
I0816 15:27:46.695871  5636 net.cpp:84] Creating Layer ip1_p
I0816 15:27:46.695888  5636 net.cpp:406] ip1_p <- pool2_p
I0816 15:27:46.695911  5636 net.cpp:380] ip1_p -> ip1_p
I0816 15:27:46.703814  5636 net.cpp:122] Setting up ip1_p
I0816 15:27:46.703860  5636 net.cpp:129] Top shape: 100 500 (50000)
I0816 15:27:46.703877  5636 net.cpp:137] Memory required for data: 16579600
I0816 15:27:46.703894  5636 net.cpp:465] Sharing parameters 'ip1_w' owned by layer 'ip1', param index 0
I0816 15:27:46.703912  5636 net.cpp:465] Sharing parameters 'ip1_b' owned by layer 'ip1', param index 1
I0816 15:27:46.703927  5636 layer_factory.hpp:77] Creating layer relu1_p
I0816 15:27:46.703948  5636 net.cpp:84] Creating Layer relu1_p
I0816 15:27:46.703963  5636 net.cpp:406] relu1_p <- ip1_p
I0816 15:27:46.703984  5636 net.cpp:367] relu1_p -> ip1_p (in-place)
I0816 15:27:46.704845  5636 net.cpp:122] Setting up relu1_p
I0816 15:27:46.704886  5636 net.cpp:129] Top shape: 100 500 (50000)
I0816 15:27:46.704903  5636 net.cpp:137] Memory required for data: 16779600
I0816 15:27:46.704919  5636 layer_factory.hpp:77] Creating layer ip2_p
I0816 15:27:46.704949  5636 net.cpp:84] Creating Layer ip2_p
I0816 15:27:46.704972  5636 net.cpp:406] ip2_p <- ip1_p
I0816 15:27:46.704994  5636 net.cpp:380] ip2_p -> ip2_p
I0816 15:27:46.705332  5636 net.cpp:122] Setting up ip2_p
I0816 15:27:46.705368  5636 net.cpp:129] Top shape: 100 10 (1000)
I0816 15:27:46.705384  5636 net.cpp:137] Memory required for data: 16783600
I0816 15:27:46.705406  5636 net.cpp:465] Sharing parameters 'ip2_w' owned by layer 'ip2', param index 0
I0816 15:27:46.705425  5636 net.cpp:465] Sharing parameters 'ip2_b' owned by layer 'ip2', param index 1
I0816 15:27:46.705440  5636 layer_factory.hpp:77] Creating layer feat_p
I0816 15:27:46.705463  5636 net.cpp:84] Creating Layer feat_p
I0816 15:27:46.705483  5636 net.cpp:406] feat_p <- ip2_p
I0816 15:27:46.705507  5636 net.cpp:380] feat_p -> feat_p
I0816 15:27:46.705752  5636 net.cpp:122] Setting up feat_p
I0816 15:27:46.705785  5636 net.cpp:129] Top shape: 100 2 (200)
I0816 15:27:46.705801  5636 net.cpp:137] Memory required for data: 16784400
I0816 15:27:46.705817  5636 net.cpp:465] Sharing parameters 'feat_w' owned by layer 'feat', param index 0
I0816 15:27:46.705834  5636 net.cpp:465] Sharing parameters 'feat_b' owned by layer 'feat', param index 1
I0816 15:27:46.705848  5636 layer_factory.hpp:77] Creating layer loss
I0816 15:27:46.705873  5636 net.cpp:84] Creating Layer loss
…
