…
snapshot_prefix: "/home/hzzone/1tb/id-model/siamese/2d/2d_caffenet/2d_siamese_caffenet_train"
solver_mode: GPU
device_id: 0
net: "./train_val.prototxt"
train_state {
  level: 0
  stage: ""
}
I1119 11:38:26.617518 11593 solver.cpp:87] Creating training net from net file: ./train_val.prototxt
I1119 11:38:26.619381 11593 net.cpp:51] Initializing net from parameters: 
name: "CaffeNet"
state {
  phase: TRAIN
  level: 0
  stage: ""
}
layer {
  name: "pair_data"
  type: "HDF5Data"
  top: "pair_data"
  top: "sim"
  include {
    phase: TRAIN
  }
  hdf5_data_param {
    source: "../train.txt"
    batch_size: 10
    shuffle: true
  }
}
layer {
  name: "slice_pair"
  type: "Slice"
  bottom: "pair_data"
  top: "data"
  top: "data_p"
  slice_param {
    slice_dim: 1
    slice_point: 40
  }
}
layer {
  name: "conv1"
  type: "Convolution"
  bottom: "data"
  top: "conv1"
  param {
    name: "conv1_w"
    lr_mult: 1
    decay_mult: 1
  }
  param {
    name: "conv1_b"
    lr_mult: 2
    decay_mult: 0
  }
  convolution_param {
    num_output: 96
    kernel_size: 11
    stride: 4
    weight_filler {
      type: "gaussian"
      std: 0.01
    }
    bias_filler {
      type: "constant"
      value: 0
    }
  }
}
layer {
  name: "relu1"
  type: "ReLU"
  bottom: "conv1"
  top: "conv1"
}
layer {
  name: "pool1"
  type: "Pooling"
  bottom: "conv1"
  top: "pool1"
  pooling_param {
    pool: MAX
    kernel_size: 3
    stride: 2
  }
}
layer {
  name: "norm1"
  type: "LRN"
  bottom: "pool1"
  top: "norm1"
  lrn_param {
    local_size: 5
    alpha: 0.0001
    beta: 0.75
  }
}
layer {
  name: "conv2"
  type: "Convolution"
  bottom: "norm1"
  top: "conv2"
  param {
    name: "conv2_w"
    lr_mult: 1
    decay_mult: 1
  }
  param {
    name: "conv2_b"
    lr_mult: 2
    decay_mult: 0
  }
  convolution_param {
    num_output: 256
    pad: 2
    kernel_size: 5
    group: 2
    weight_filler {
      type: "gaussian"
      std: 0.01
    }
    bias_filler {
      type: "constant"
      value: 1
    }
  }
}
layer {
  name: "relu2"
  type: "ReLU"
  bottom: "conv2"
  top: "conv2"
}
layer {
  name: "pool2"
  type: "Pooling"
  bottom: "conv2"
  top: "pool2"
  pooling_param {
    pool: MAX
    kernel_size: 3
    stride: 2
  }
}
layer {
  name: "norm2"
  type: "LRN"
  bottom: "pool2"
  top: "norm2"
  lrn_param {
    local_size: 5
    alpha: 0.0001
    beta: 0.75
  }
}
layer {
  name: "conv3"
  type: "Convolution"
  bottom: "norm2"
  top: "conv3"
  param {
    name: "conv3_w"
    lr_mult: 1
    decay_mult: 1
  }
  param {
    name: "conv3_b"
    lr_mult: 2
    decay_mult: 0
  }
  convolution_param {
    num_output: 384
    pad: 1
    kernel_size: 3
    weight_filler {
      type: "gaussian"
      std: 0.01
    }
    bias_filler {
      type: "constant"
      value: 0
    }
  }
}
layer {
  name: "relu3"
  type: "ReLU"
  bottom: "conv3"
  top: "conv3"
}
layer {
  name: "conv4"
  type: "Convolution"
  bottom: "conv3"
  top: "conv4"
  param {
    name: "conv4_w"
    lr_mult: 1
    decay_mult: 1
  }
  param {
    name: "conv4_b"
    lr_mult: 2
    decay_mult: 0
  }
  convolution_param {
    num_output: 384
    pad: 1
    kernel_size: 3
    group: 2
    weight_filler {
      type: "gaussian"
      std: 0.01
    }
    bias_filler {
      type: "constant"
      value: 1
    }
  }
}
layer {
  name: "relu4"
  type: "ReLU"
  bottom: "conv4"
  top: "conv4"
}
layer {
  name: "conv5"
  type: "Convolution"
  bottom: "conv4"
  top: "conv5"
  param {
    name: "conv5_w"
    lr_mult: 1
    decay_mult: 1
  }
  param {
    name: "conv5_b"
    lr_mult: 2
    decay_mult: 0
  }
  convolution_param {
    num_output: 256
    pad: 1
    kernel_size: 3
    group: 2
    weight_filler {
      type: "gaussian"
      std: 0.01
    }
    bias_filler {
      type: "constant"
      value: 1
    }
  }
}
layer {
  name: "relu5"
  type: "ReLU"
  bottom: "conv5"
  top: "conv5"
}
layer {
  name: "pool5"
  type: "Pooling"
  bottom: "conv5"
  top: "pool5"
  pooling_param {
    pool: MAX
    kernel_size: 3
    stride: 2
  }
}
layer {
  name: "fc6"
  type: "InnerProduct"
  bottom: "pool5"
  top: "fc6"
  param {
    name: "fc6_w"
    lr_mult: 1
    decay_mult: 1
  }
  param {
    name: "fc6_b"
    lr_mult: 2
    decay_mult: 0
  }
  inner_product_param {
    num_output: 4096
    weight_filler {
      type: "gaussian"
      std: 0.005
    }
    bias_filler {
      type: "constant"
      value: 1
    }
  }
}
layer {
  name: "relu6"
  type: "ReLU"
  bottom: "fc6"
  top: "fc6"
}
layer {
  name: "drop6"
  type: "Dropout"
  bottom: "fc6"
  top: "fc6"
  dropout_param {
    dropout_ratio: 0.5
  }
}
layer {
  name: "fc7"
  type: "InnerProduct"
  bottom: "fc6"
  top: "fc7"
  param {
    name: "fc7_w"
    lr_mult: 1
    decay_mult: 1
  }
  param {
    name: "fc7_b"
    lr_mult: 2
    decay_mult: 0
  }
  inner_product_param {
    num_output: 4096
    weight_filler {
      type: "gaussian"
      std: 0.005
    }
    bias_filler {
      type: "constant"
      value: 1
    }
  }
}
layer {
  name: "relu7"
  type: "ReLU"
  bottom: "fc7"
  top: "fc7"
}
layer {
  name: "drop7"
  type: "Dropout"
  bottom: "fc7"
  top: "fc7"
  dropout_param {
    dropout_ratio: 0.5
  }
}
layer {
  name: "fc8"
  type: "InnerProduct"
  bottom: "fc7"
  top: "fc8"
  param {
    name: "fc8_w"
    lr_mult: 1
    decay_mult: 1
  }
  param {
    name: "fc8_b"
    lr_mult: 2
    decay_mult: 0
  }
  inner_product_param {
    num_output: 100
    weight_filler {
      type: "gaussian"
      std: 0.01
    }
    bias_filler {
      type: "constant"
      value: 0
    }
  }
}
layer {
  name: "conv1_p"
  type: "Convolution"
  bottom: "data_p"
  top: "conv1_p"
  param {
    name: "conv1_w"
    lr_mult: 1
    decay_mult: 1
  }
  param {
    name: "conv1_b"
    lr_mult: 2
    decay_mult: 0
  }
  convolution_param {
    num_output: 96
    kernel_size: 11
    stride: 4
    weight_filler {
      type: "gaussian"
      std: 0.01
    }
    bias_filler {
      type: "constant"
      value: 0
    }
  }
}
layer {
  name: "relu1_p"
  type: "ReLU"
  bottom: "conv1_p"
  top: "conv1_p"
}
layer {
  name: "pool1_p"
  type: "Pooling"
  bottom: "conv1_p"
  top: "pool1_p"
  pooling_param {
    pool: MAX
    kernel_size: 3
    stride: 2
  }
}
layer {
  name: "norm1_p"
  type: "LRN"
  bottom: "pool1_p"
  top: "norm1_p"
  lrn_param {
    local_size: 5
    alpha: 0.0001
    beta: 0.75
  }
}
layer {
  name: "conv2_p"
  type: "Convolution"
  bottom: "norm1_p"
  top: "conv2_p"
  param {
    name: "conv2_w"
    lr_mult: 1
    decay_mult: 1
  }
  param {
    name: "conv2_b"
    lr_mult: 2
    decay_mult: 0
  }
  convolution_param {
    num_output: 256
    pad: 2
    kernel_size: 5
    group: 2
    weight_filler {
      type: "gaussian"
      std: 0.01
    }
    bias_filler {
      type: "constant"
      value: 1
    }
  }
}
layer {
  name: "relu2_p"
  type: "ReLU"
  bottom: "conv2_p"
  top: "conv2_p"
}
layer {
  name: "pool2_p"
  type: "Pooling"
  bottom: "conv2_p"
  top: "pool2_p"
  pooling_param {
    pool: MAX
    kernel_size: 3
    stride: 2
  }
}
layer {
  name: "norm2_p"
  type: "LRN"
  bottom: "pool2_p"
  top: "norm2_p"
  lrn_param {
    local_size: 5
    alpha: 0.0001
    beta: 0.75
  }
}
layer {
  name: "conv3_p"
  type: "Convolution"
  bottom: "norm2_p"
  top: "conv3_p"
  param {
    name: "conv3_w"
    lr_mult: 1
    decay_mult: 1
  }
  param {
    name: "conv3_b"
    lr_mult: 2
    decay_mult: 0
  }
  convolution_param {
    num_output: 384
    pad: 1
    kernel_size: 3
    weight_filler {
      type: "gaussian"
      std: 0.01
    }
    bias_filler {
      type: "constant"
      value: 0
    }
  }
}
layer {
  name: "relu3_p"
  type: "ReLU"
  bottom: "conv3_p"
  top: "conv3_p"
}
layer {
  name: "conv4_p"
  type: "Convolution"
  bottom: "conv3_p"
  top: "conv4_p"
  param {
    name: "conv4_w"
    lr_mult: 1
    decay_mult: 1
  }
  param {
    name: "conv4_b"
    lr_mult: 2
    decay_mult: 0
  }
  convolution_param {
    num_output: 384
    pad: 1
    kernel_size: 3
    group: 2
    weight_filler {
      type: "gaussian"
      std: 0.01
    }
    bias_filler {
      type: "constant"
      value: 1
    }
  }
}
layer {
  name: "relu4_p"
  type: "ReLU"
  bottom: "conv4_p"
  top: "conv4_p"
}
layer {
  name: "conv5_p"
  type: "Convolution"
  bottom: "conv4_p"
  top: "conv5_p"
  param {
    name: "conv5_w"
    lr_mult: 1
    decay_mult: 1
  }
  param {
    name: "conv5_b"
    lr_mult: 2
    decay_mult: 0
  }
  convolution_param {
    num_output: 256
    pad: 1
    kernel_size: 3
    group: 2
    weight_filler {
      type: "gaussian"
      std: 0.01
    }
    bias_filler {
      type: "constant"
      value: 1
    }
  }
}
layer {
  name: "relu5_p"
  type: "ReLU"
  bottom: "conv5_p"
  top: "conv5_p"
}
layer {
  name: "pool5_p"
  type: "Pooling"
  bottom: "conv5_p"
  top: "pool5_p"
  pooling_param {
    pool: MAX
    kernel_size: 3
    stride: 2
  }
}
layer {
  name: "fc6_p"
  type: "InnerProduct"
  bottom: "pool5_p"
  top: "fc6_p"
  param {
    name: "fc6_w"
    lr_mult: 1
    decay_mult: 1
  }
  param {
    name: "fc6_b"
    lr_mult: 2
    decay_mult: 0
  }
  inner_product_param {
    num_output: 4096
    weight_filler {
      type: "gaussian"
      std: 0.005
    }
    bias_filler {
      type: "constant"
      value: 1
    }
  }
}
layer {
  name: "relu6_p"
  type: "ReLU"
  bottom: "fc6_p"
  top: "fc6_p"
}
layer {
  name: "drop6_p"
  type: "Dropout"
  bottom: "fc6_p"
  top: "fc6_p"
  dropout_param {
    dropout_ratio: 0.5
  }
}
layer {
  name: "fc7_p"
  type: "InnerProduct"
  bottom: "fc6_p"
  top: "fc7_p"
  param {
    name: "fc7_w"
    lr_mult: 1
    decay_mult: 1
  }
  param {
    name: "fc7_b"
    lr_mult: 2
    decay_mult: 0
  }
  inner_product_param {
    num_output: 4096
    weight_filler {
      type: "gaussian"
      std: 0.005
    }
    bias_filler {
      type: "constant"
      value: 1
    }
  }
}
layer {
  name: "relu7_p"
  type: "ReLU"
  bottom: "fc7_p"
  top: "fc7_p"
}
layer {
  name: "drop7_p"
  type: "Dropout"
  bottom: "fc7_p"
  top: "fc7_p"
  dropout_param {
    dropout_ratio: 0.5
  }
}
layer {
  name: "fc8_p"
  type: "InnerProduct"
  bottom: "fc7_p"
  top: "fc8_p"
  param {
    name: "fc8_w"
    lr_mult: 1
    decay_mult: 1
  }
  param {
    name: "fc8_b"
    lr_mult: 2
    decay_mult: 0
  }
  inner_product_param {
    num_output: 100
    weight_filler {
      type: "gaussian"
      std: 0.01
    }
    bias_filler {
      type: "constant"
      value: 0
    }
  }
}
layer {
  name: "loss"
  type: "ContrastiveLoss"
  bottom: "fc8"
  bottom: "fc8_p"
  bottom: "sim"
  top: "loss"
  contrastive_loss_param {
    margin: 1
  }
}
I1119 11:38:26.619771 11593 layer_factory.hpp:77] Creating layer pair_data
I1119 11:38:26.619805 11593 net.cpp:84] Creating Layer pair_data
I1119 11:38:26.619822 11593 net.cpp:380] pair_data -> pair_data
I1119 11:38:26.619863 11593 net.cpp:380] pair_data -> sim
I1119 11:38:26.619889 11593 hdf5_data_layer.cpp:80] Loading list of HDF5 filenames from: ../train.txt
I1119 11:38:26.620262 11593 hdf5_data_layer.cpp:94] Number of HDF5 files: 166
I1119 11:38:26.621534 11593 hdf5.cpp:32] Datatype class: H5T_FLOAT
I1119 11:38:26.633746 11593 net.cpp:122] Setting up pair_data
I1119 11:38:26.633792 11593 net.cpp:129] Top shape: 10 80 120 120 (11520000)
I1119 11:38:26.633800 11593 net.cpp:129] Top shape: 10 (10)
I1119 11:38:26.633805 11593 net.cpp:137] Memory required for data: 46080040
I1119 11:38:26.633816 11593 layer_factory.hpp:77] Creating layer slice_pair
I1119 11:38:26.633839 11593 net.cpp:84] Creating Layer slice_pair
I1119 11:38:26.633848 11593 net.cpp:406] slice_pair <- pair_data
I1119 11:38:26.633865 11593 net.cpp:380] slice_pair -> data
I1119 11:38:26.633880 11593 net.cpp:380] slice_pair -> data_p
I1119 11:38:26.633919 11593 net.cpp:122] Setting up slice_pair
I1119 11:38:26.633926 11593 net.cpp:129] Top shape: 10 40 120 120 (5760000)
I1119 11:38:26.633934 11593 net.cpp:129] Top shape: 10 40 120 120 (5760000)
I1119 11:38:26.633939 11593 net.cpp:137] Memory required for data: 92160040
I1119 11:38:26.633942 11593 layer_factory.hpp:77] Creating layer conv1
I1119 11:38:26.633991 11593 net.cpp:84] Creating Layer conv1
I1119 11:38:26.634028 11593 net.cpp:406] conv1 <- data
I1119 11:38:26.634049 11593 net.cpp:380] conv1 -> conv1
I1119 11:38:26.952639 11593 net.cpp:122] Setting up conv1
I1119 11:38:26.952679 11593 net.cpp:129] Top shape: 10 96 28 28 (752640)
I1119 11:38:26.952685 11593 net.cpp:137] Memory required for data: 95170600
I1119 11:38:26.952716 11593 layer_factory.hpp:77] Creating layer relu1
I1119 11:38:26.952730 11593 net.cpp:84] Creating Layer relu1
I1119 11:38:26.952742 11593 net.cpp:406] relu1 <- conv1
I1119 11:38:26.952752 11593 net.cpp:367] relu1 -> conv1 (in-place)
I1119 11:38:26.953024 11593 net.cpp:122] Setting up relu1
I1119 11:38:26.953034 11593 net.cpp:129] Top shape: 10 96 28 28 (752640)
I1119 11:38:26.953039 11593 net.cpp:137] Memory required for data: 98181160
I1119 11:38:26.953043 11593 layer_factory.hpp:77] Creating layer pool1
I1119 11:38:26.953054 11593 net.cpp:84] Creating Layer pool1
I1119 11:38:26.953059 11593 net.cpp:406] pool1 <- conv1
I1119 11:38:26.953065 11593 net.cpp:380] pool1 -> pool1
I1119 11:38:26.953131 11593 net.cpp:122] Setting up pool1
I1119 11:38:26.953138 11593 net.cpp:129] Top shape: 10 96 14 14 (188160)
I1119 11:38:26.953142 11593 net.cpp:137] Memory required for data: 98933800
I1119 11:38:26.953146 11593 layer_factory.hpp:77] Creating layer norm1
I1119 11:38:26.953157 11593 net.cpp:84] Creating Layer norm1
I1119 11:38:26.953161 11593 net.cpp:406] norm1 <- pool1
I1119 11:38:26.953167 11593 net.cpp:380] norm1 -> norm1
I1119 11:38:26.953388 11593 net.cpp:122] Setting up norm1
I1119 11:38:26.953397 11593 net.cpp:129] Top shape: 10 96 14 14 (188160)
I1119 11:38:26.953402 11593 net.cpp:137] Memory required for data: 99686440
I1119 11:38:26.953407 11593 layer_factory.hpp:77] Creating layer conv2
I1119 11:38:26.953421 11593 net.cpp:84] Creating Layer conv2
I1119 11:38:26.953430 11593 net.cpp:406] conv2 <- norm1
I1119 11:38:26.953438 11593 net.cpp:380] conv2 -> conv2
I1119 11:38:26.960494 11593 net.cpp:122] Setting up conv2
I1119 11:38:26.960536 11593 net.cpp:129] Top shape: 10 256 14 14 (501760)
I1119 11:38:26.960546 11593 net.cpp:137] Memory required for data: 101693480
I1119 11:38:26.960568 11593 layer_factory.hpp:77] Creating layer relu2
I1119 11:38:26.960583 11593 net.cpp:84] Creating Layer relu2
I1119 11:38:26.960589 11593 net.cpp:406] relu2 <- conv2
I1119 11:38:26.960599 11593 net.cpp:367] relu2 -> conv2 (in-place)
I1119 11:38:26.960819 11593 net.cpp:122] Setting up relu2
I1119 11:38:26.960827 11593 net.cpp:129] Top shape: 10 256 14 14 (501760)
I1119 11:38:26.960832 11593 net.cpp:137] Memory required for data: 103700520
I1119 11:38:26.960836 11593 layer_factory.hpp:77] Creating layer pool2
I1119 11:38:26.960847 11593 net.cpp:84] Creating Layer pool2
I1119 11:38:26.960852 11593 net.cpp:406] pool2 <- conv2
I1119 11:38:26.960860 11593 net.cpp:380] pool2 -> pool2
I1119 11:38:26.960911 11593 net.cpp:122] Setting up pool2
I1119 11:38:26.960919 11593 net.cpp:129] Top shape: 10 256 7 7 (125440)
I1119 11:38:26.960924 11593 net.cpp:137] Memory required for data: 104202280
I1119 11:38:26.960928 11593 layer_factory.hpp:77] Creating layer norm2
I1119 11:38:26.960938 11593 net.cpp:84] Creating Layer norm2
I1119 11:38:26.960942 11593 net.cpp:406] norm2 <- pool2
I1119 11:38:26.960949 11593 net.cpp:380] norm2 -> norm2
I1119 11:38:26.961158 11593 net.cpp:122] Setting up norm2
I1119 11:38:26.961169 11593 net.cpp:129] Top shape: 10 256 7 7 (125440)
I1119 11:38:26.961172 11593 net.cpp:137] Memory required for data: 104704040
I1119 11:38:26.961177 11593 layer_factory.hpp:77] Creating layer conv3
I1119 11:38:26.961191 11593 net.cpp:84] Creating Layer conv3
I1119 11:38:26.961199 11593 net.cpp:406] conv3 <- norm2
I1119 11:38:26.961206 11593 net.cpp:380] conv3 -> conv3
I1119 11:38:26.975258 11593 net.cpp:122] Setting up conv3
I1119 11:38:26.975299 11593 net.cpp:129] Top shape: 10 384 7 7 (188160)
I1119 11:38:26.975304 11593 net.cpp:137] Memory required for data: 105456680
I1119 11:38:26.975327 11593 layer_factory.hpp:77] Creating layer relu3
I1119 11:38:26.975366 11593 net.cpp:84] Creating Layer relu3
I1119 11:38:26.975373 11593 net.cpp:406] relu3 <- conv3
I1119 11:38:26.975381 11593 net.cpp:367] relu3 -> conv3 (in-place)
I1119 11:38:26.975837 11593 net.cpp:122] Setting up relu3
I1119 11:38:26.975847 11593 net.cpp:129] Top shape: 10 384 7 7 (188160)
I1119 11:38:26.975852 11593 net.cpp:137] Memory required for data: 106209320
I1119 11:38:26.975857 11593 layer_factory.hpp:77] Creating layer conv4
I1119 11:38:26.975872 11593 net.cpp:84] Creating Layer conv4
I1119 11:38:26.975883 11593 net.cpp:406] conv4 <- conv3
I1119 11:38:26.975890 11593 net.cpp:380] conv4 -> conv4
I1119 11:38:26.987588 11593 net.cpp:122] Setting up conv4
I1119 11:38:26.987630 11593 net.cpp:129] Top shape: 10 384 7 7 (188160)
I1119 11:38:26.987635 11593 net.cpp:137] Memory required for data: 106961960
I1119 11:38:26.987650 11593 layer_factory.hpp:77] Creating layer relu4
I1119 11:38:26.987668 11593 net.cpp:84] Creating Layer relu4
I1119 11:38:26.987674 11593 net.cpp:406] relu4 <- conv4
I1119 11:38:26.987685 11593 net.cpp:367] relu4 -> conv4 (in-place)
I1119 11:38:26.988158 11593 net.cpp:122] Setting up relu4
I1119 11:38:26.988169 11593 net.cpp:129] Top shape: 10 384 7 7 (188160)
I1119 11:38:26.988174 11593 net.cpp:137] Memory required for data: 107714600
I1119 11:38:26.988179 11593 layer_factory.hpp:77] Creating layer conv5
I1119 11:38:26.988195 11593 net.cpp:84] Creating Layer conv5
I1119 11:38:26.988257 11593 net.cpp:406] conv5 <- conv4
I1119 11:38:26.988286 11593 net.cpp:380] conv5 -> conv5
I1119 11:38:26.997407 11593 net.cpp:122] Setting up conv5
I1119 11:38:26.997445 11593 net.cpp:129] Top shape: 10 256 7 7 (125440)
I1119 11:38:26.997450 11593 net.cpp:137] Memory required for data: 108216360
I1119 11:38:26.997474 11593 layer_factory.hpp:77] Creating layer relu5
I1119 11:38:26.997489 11593 net.cpp:84] Creating Layer relu5
I1119 11:38:26.997496 11593 net.cpp:406] relu5 <- conv5
I1119 11:38:26.997509 11593 net.cpp:367] relu5 -> conv5 (in-place)
I1119 11:38:26.997722 11593 net.cpp:122] Setting up relu5
I1119 11:38:26.997732 11593 net.cpp:129] Top shape: 10 256 7 7 (125440)
I1119 11:38:26.997736 11593 net.cpp:137] Memory required for data: 108718120
I1119 11:38:26.997740 11593 layer_factory.hpp:77] Creating layer pool5
I1119 11:38:26.997757 11593 net.cpp:84] Creating Layer pool5
I1119 11:38:26.997766 11593 net.cpp:406] pool5 <- conv5
I1119 11:38:26.997774 11593 net.cpp:380] pool5 -> pool5
I1119 11:38:26.997823 11593 net.cpp:122] Setting up pool5
I1119 11:38:26.997831 11593 net.cpp:129] Top shape: 10 256 3 3 (23040)
I1119 11:38:26.997835 11593 net.cpp:137] Memory required for data: 108810280
I1119 11:38:26.997840 11593 layer_factory.hpp:77] Creating layer fc6
I1119 11:38:26.997853 11593 net.cpp:84] Creating Layer fc6
I1119 11:38:26.997858 11593 net.cpp:406] fc6 <- pool5
I1119 11:38:26.997866 11593 net.cpp:380] fc6 -> fc6
I1119 11:38:27.126688 11593 net.cpp:122] Setting up fc6
I1119 11:38:27.126742 11593 net.cpp:129] Top shape: 10 4096 (40960)
I1119 11:38:27.126747 11593 net.cpp:137] Memory required for data: 108974120
I1119 11:38:27.126763 11593 layer_factory.hpp:77] Creating layer relu6
I1119 11:38:27.126777 11593 net.cpp:84] Creating Layer relu6
I1119 11:38:27.126785 11593 net.cpp:406] relu6 <- fc6
I1119 11:38:27.126796 11593 net.cpp:367] relu6 -> fc6 (in-place)
I1119 11:38:27.127097 11593 net.cpp:122] Setting up relu6
I1119 11:38:27.127107 11593 net.cpp:129] Top shape: 10 4096 (40960)
I1119 11:38:27.127111 11593 net.cpp:137] Memory required for data: 109137960
I1119 11:38:27.127115 11593 layer_factory.hpp:77] Creating layer drop6
I1119 11:38:27.127126 11593 net.cpp:84] Creating Layer drop6
I1119 11:38:27.127131 11593 net.cpp:406] drop6 <- fc6
I1119 11:38:27.127137 11593 net.cpp:367] drop6 -> fc6 (in-place)
I1119 11:38:27.127171 11593 net.cpp:122] Setting up drop6
I1119 11:38:27.127177 11593 net.cpp:129] Top shape: 10 4096 (40960)
I1119 11:38:27.127182 11593 net.cpp:137] Memory required for data: 109301800
I1119 11:38:27.127185 11593 layer_factory.hpp:77] Creating layer fc7
I1119 11:38:27.127234 11593 net.cpp:84] Creating Layer fc7
I1119 11:38:27.127240 11593 net.cpp:406] fc7 <- fc6
I1119 11:38:27.127248 11593 net.cpp:380] fc7 -> fc7
I1119 11:38:27.351646 11593 net.cpp:122] Setting up fc7
I1119 11:38:27.351696 11593 net.cpp:129] Top shape: 10 4096 (40960)
I1119 11:38:27.351701 11593 net.cpp:137] Memory required for data: 109465640
I1119 11:38:27.351716 11593 layer_factory.hpp:77] Creating layer relu7
I1119 11:38:27.351729 11593 net.cpp:84] Creating Layer relu7
I1119 11:38:27.351735 11593 net.cpp:406] relu7 <- fc7
I1119 11:38:27.351748 11593 net.cpp:367] relu7 -> fc7 (in-place)
I1119 11:38:27.352056 11593 net.cpp:122] Setting up relu7
I1119 11:38:27.352066 11593 net.cpp:129] Top shape: 10 4096 (40960)
I1119 11:38:27.352071 11593 net.cpp:137] Memory required for data: 109629480
I1119 11:38:27.352075 11593 layer_factory.hpp:77] Creating layer drop7
I1119 11:38:27.352084 11593 net.cpp:84] Creating Layer drop7
I1119 11:38:27.352090 11593 net.cpp:406] drop7 <- fc7
I1119 11:38:27.352099 11593 net.cpp:367] drop7 -> fc7 (in-place)
I1119 11:38:27.352126 11593 net.cpp:122] Setting up drop7
I1119 11:38:27.352139 11593 net.cpp:129] Top shape: 10 4096 (40960)
I1119 11:38:27.352144 11593 net.cpp:137] Memory required for data: 109793320
I1119 11:38:27.352147 11593 layer_factory.hpp:77] Creating layer fc8
I1119 11:38:27.352159 11593 net.cpp:84] Creating Layer fc8
I1119 11:38:27.352164 11593 net.cpp:406] fc8 <- fc7
I1119 11:38:27.352174 11593 net.cpp:380] fc8 -> fc8
I1119 11:38:27.358448 11593 net.cpp:122] Setting up fc8
I1119 11:38:27.358499 11593 net.cpp:129] Top shape: 10 100 (1000)
I1119 11:38:27.358503 11593 net.cpp:137] Memory required for data: 109797320
I1119 11:38:27.358521 11593 layer_factory.hpp:77] Creating layer conv1_p
I1119 11:38:27.358548 11593 net.cpp:84] Creating Layer conv1_p
I1119 11:38:27.358556 11593 net.cpp:406] conv1_p <- data_p
I1119 11:38:27.358574 11593 net.cpp:380] conv1_p -> conv1_p
I1119 11:38:27.366917 11593 net.cpp:122] Setting up conv1_p
I1119 11:38:27.366958 11593 net.cpp:129] Top shape: 10 96 28 28 (752640)
I1119 11:38:27.366963 11593 net.cpp:137] Memory required for data: 112807880
I1119 11:38:27.366981 11593 net.cpp:465] Sharing parameters 'conv1_w' owned by layer 'conv1', param index 0
I1119 11:38:27.366991 11593 net.cpp:465] Sharing parameters 'conv1_b' owned by layer 'conv1', param index 1
I1119 11:38:27.366997 11593 layer_factory.hpp:77] Creating layer relu1_p
I1119 11:38:27.367012 11593 net.cpp:84] Creating Layer relu1_p
I1119 11:38:27.367017 11593 net.cpp:406] relu1_p <- conv1_p
I1119 11:38:27.367027 11593 net.cpp:367] relu1_p -> conv1_p (in-place)
I1119 11:38:27.367254 11593 net.cpp:122] Setting up relu1_p
I1119 11:38:27.367264 11593 net.cpp:129] Top shape: 10 96 28 28 (752640)
I1119 11:38:27.367269 11593 net.cpp:137] Memory required for data: 115818440
I1119 11:38:27.367274 11593 layer_factory.hpp:77] Creating layer pool1_p
I1119 11:38:27.367282 11593 net.cpp:84] Creating Layer pool1_p
I1119 11:38:27.367286 11593 net.cpp:406] pool1_p <- conv1_p
I1119 11:38:27.367293 11593 net.cpp:380] pool1_p -> pool1_p
I1119 11:38:27.367342 11593 net.cpp:122] Setting up pool1_p
I1119 11:38:27.367373 11593 net.cpp:129] Top shape: 10 96 14 14 (188160)
I1119 11:38:27.367389 11593 net.cpp:137] Memory required for data: 116571080
I1119 11:38:27.367404 11593 layer_factory.hpp:77] Creating layer norm1_p
I1119 11:38:27.367424 11593 net.cpp:84] Creating Layer norm1_p
I1119 11:38:27.367439 11593 net.cpp:406] norm1_p <- pool1_p
I1119 11:38:27.367456 11593 net.cpp:380] norm1_p -> norm1_p
I1119 11:38:27.368038 11593 net.cpp:122] Setting up norm1_p
I1119 11:38:27.368052 11593 net.cpp:129] Top shape: 10 96 14 14 (188160)
I1119 11:38:27.368055 11593 net.cpp:137] Memory required for data: 117323720
I1119 11:38:27.368060 11593 layer_factory.hpp:77] Creating layer conv2_p
I1119 11:38:27.368077 11593 net.cpp:84] Creating Layer conv2_p
I1119 11:38:27.368083 11593 net.cpp:406] conv2_p <- norm1_p
I1119 11:38:27.368093 11593 net.cpp:380] conv2_p -> conv2_p
I1119 11:38:27.375425 11593 net.cpp:122] Setting up conv2_p
I1119 11:38:27.375495 11593 net.cpp:129] Top shape: 10 256 14 14 (501760)
I1119 11:38:27.375500 11593 net.cpp:137] Memory required for data: 119330760
I1119 11:38:27.375510 11593 net.cpp:465] Sharing parameters 'conv2_w' owned by layer 'conv2', param index 0
I1119 11:38:27.375519 11593 net.cpp:465] Sharing parameters 'conv2_b' owned by layer 'conv2', param index 1
I1119 11:38:27.375525 11593 layer_factory.hpp:77] Creating layer relu2_p
I1119 11:38:27.375540 11593 net.cpp:84] Creating Layer relu2_p
I1119 11:38:27.375546 11593 net.cpp:406] relu2_p <- conv2_p
I1119 11:38:27.375558 11593 net.cpp:367] relu2_p -> conv2_p (in-place)
I1119 11:38:27.375766 11593 net.cpp:122] Setting up relu2_p
I1119 11:38:27.375775 11593 net.cpp:129] Top shape: 10 256 14 14 (501760)
I1119 11:38:27.375780 11593 net.cpp:137] Memory required for data: 121337800
I1119 11:38:27.375784 11593 layer_factory.hpp:77] Creating layer pool2_p
I1119 11:38:27.375794 11593 net.cpp:84] Creating Layer pool2_p
I1119 11:38:27.375799 11593 net.cpp:406] pool2_p <- conv2_p
I1119 11:38:27.375807 11593 net.cpp:380] pool2_p -> pool2_p
I1119 11:38:27.375862 11593 net.cpp:122] Setting up pool2_p
I1119 11:38:27.375870 11593 net.cpp:129] Top shape: 10 256 7 7 (125440)
I1119 11:38:27.375874 11593 net.cpp:137] Memory required for data: 121839560
I1119 11:38:27.375880 11593 layer_factory.hpp:77] Creating layer norm2_p
I1119 11:38:27.375888 11593 net.cpp:84] Creating Layer norm2_p
I1119 11:38:27.375893 11593 net.cpp:406] norm2_p <- pool2_p
I1119 11:38:27.375903 11593 net.cpp:380] norm2_p -> norm2_p
I1119 11:38:27.376132 11593 net.cpp:122] Setting up norm2_p
I1119 11:38:27.376140 11593 net.cpp:129] Top shape: 10 256 7 7 (125440)
I1119 11:38:27.376145 11593 net.cpp:137] Memory required for data: 122341320
I1119 11:38:27.376149 11593 layer_factory.hpp:77] Creating layer conv3_p
I1119 11:38:27.376174 11593 net.cpp:84] Creating Layer conv3_p
I1119 11:38:27.376180 11593 net.cpp:406] conv3_p <- norm2_p
I1119 11:38:27.376188 11593 net.cpp:380] conv3_p -> conv3_p
I1119 11:38:27.390210 11593 net.cpp:122] Setting up conv3_p
I1119 11:38:27.390251 11593 net.cpp:129] Top shape: 10 384 7 7 (188160)
I1119 11:38:27.390256 11593 net.cpp:137] Memory required for data: 123093960
I1119 11:38:27.390267 11593 net.cpp:465] Sharing parameters 'conv3_w' owned by layer 'conv3', param index 0
I1119 11:38:27.390276 11593 net.cpp:465] Sharing parameters 'conv3_b' owned by layer 'conv3', param index 1
I1119 11:38:27.390282 11593 layer_factory.hpp:77] Creating layer relu3_p
I1119 11:38:27.390296 11593 net.cpp:84] Creating Layer relu3_p
I1119 11:38:27.390303 11593 net.cpp:406] relu3_p <- conv3_p
I1119 11:38:27.390316 11593 net.cpp:367] relu3_p -> conv3_p (in-place)
I1119 11:38:27.390545 11593 net.cpp:122] Setting up relu3_p
I1119 11:38:27.390555 11593 net.cpp:129] Top shape: 10 384 7 7 (188160)
I1119 11:38:27.390561 11593 net.cpp:137] Memory required for data: 123846600
I1119 11:38:27.390565 11593 layer_factory.hpp:77] Creating layer conv4_p
I1119 11:38:27.390583 11593 net.cpp:84] Creating Layer conv4_p
I1119 11:38:27.390589 11593 net.cpp:406] conv4_p <- conv3_p
I1119 11:38:27.390599 11593 net.cpp:380] conv4_p -> conv4_p
I1119 11:38:27.402590 11593 net.cpp:122] Setting up conv4_p
I1119 11:38:27.402628 11593 net.cpp:129] Top shape: 10 384 7 7 (188160)
I1119 11:38:27.402633 11593 net.cpp:137] Memory required for data: 124599240
I1119 11:38:27.402642 11593 net.cpp:465] Sharing parameters 'conv4_w' owned by layer 'conv4', param index 0
I1119 11:38:27.402652 11593 net.cpp:465] Sharing parameters 'conv4_b' owned by layer 'conv4', param index 1
I1119 11:38:27.402659 11593 layer_factory.hpp:77] Creating layer relu4_p
I1119 11:38:27.402673 11593 net.cpp:84] Creating Layer relu4_p
I1119 11:38:27.402680 11593 net.cpp:406] relu4_p <- conv4_p
I1119 11:38:27.402689 11593 net.cpp:367] relu4_p -> conv4_p (in-place)
I1119 11:38:27.402915 11593 net.cpp:122] Setting up relu4_p
I1119 11:38:27.402925 11593 net.cpp:129] Top shape: 10 384 7 7 (188160)
I1119 11:38:27.402930 11593 net.cpp:137] Memory required for data: 125351880
I1119 11:38:27.402954 11593 layer_factory.hpp:77] Creating layer conv5_p
I1119 11:38:27.402972 11593 net.cpp:84] Creating Layer conv5_p
I1119 11:38:27.402977 11593 net.cpp:406] conv5_p <- conv4_p
I1119 11:38:27.402987 11593 net.cpp:380] conv5_p -> conv5_p
I1119 11:38:27.412400 11593 net.cpp:122] Setting up conv5_p
I1119 11:38:27.412439 11593 net.cpp:129] Top shape: 10 256 7 7 (125440)
I1119 11:38:27.412461 11593 net.cpp:137] Memory required for data: 125853640
I1119 11:38:27.412472 11593 net.cpp:465] Sharing parameters 'conv5_w' owned by layer 'conv5', param index 0
I1119 11:38:27.412479 11593 net.cpp:465] Sharing parameters 'conv5_b' owned by layer 'conv5', param index 1
I1119 11:38:27.412484 11593 layer_factory.hpp:77] Creating layer relu5_p
I1119 11:38:27.412500 11593 net.cpp:84] Creating Layer relu5_p
I1119 11:38:27.412506 11593 net.cpp:406] relu5_p <- conv5_p
I1119 11:38:27.412519 11593 net.cpp:367] relu5_p -> conv5_p (in-place)
I1119 11:38:27.412742 11593 net.cpp:122] Setting up relu5_p
I1119 11:38:27.412751 11593 net.cpp:129] Top shape: 10 256 7 7 (125440)
I1119 11:38:27.412756 11593 net.cpp:137] Memory required for data: 126355400
I1119 11:38:27.412760 11593 layer_factory.hpp:77] Creating layer pool5_p
I1119 11:38:27.412768 11593 net.cpp:84] Creating Layer pool5_p
I1119 11:38:27.412773 11593 net.cpp:406] pool5_p <- conv5_p
I1119 11:38:27.412782 11593 net.cpp:380] pool5_p -> pool5_p
I1119 11:38:27.412833 11593 net.cpp:122] Setting up pool5_p
I1119 11:38:27.412843 11593 net.cpp:129] Top shape: 10 256 3 3 (23040)
I1119 11:38:27.412847 11593 net.cpp:137] Memory required for data: 126447560
I1119 11:38:27.412853 11593 layer_factory.hpp:77] Creating layer fc6_p
I1119 11:38:27.412863 11593 net.cpp:84] Creating Layer fc6_p
I1119 11:38:27.412866 11593 net.cpp:406] fc6_p <- pool5_p
I1119 11:38:27.412876 11593 net.cpp:380] fc6_p -> fc6_p
I1119 11:38:27.538322 11593 net.cpp:122] Setting up fc6_p
I1119 11:38:27.538374 11593 net.cpp:129] Top shape: 10 4096 (40960)
I1119 11:38:27.538379 11593 net.cpp:137] Memory required for data: 126611400
I1119 11:38:27.538393 11593 net.cpp:465] Sharing parameters 'fc6_w' owned by layer 'fc6', param index 0
I1119 11:38:27.538403 11593 net.cpp:465] Sharing parameters 'fc6_b' owned by layer 'fc6', param index 1
I1119 11:38:27.538409 11593 layer_factory.hpp:77] Creating layer relu6_p
I1119 11:38:27.538424 11593 net.cpp:84] Creating Layer relu6_p
I1119 11:38:27.538432 11593 net.cpp:406] relu6_p <- fc6_p
I1119 11:38:27.538444 11593 net.cpp:367] relu6_p -> fc6_p (in-place)
I1119 11:38:27.539216 11593 net.cpp:122] Setting up relu6_p
I1119 11:38:27.539227 11593 net.cpp:129] Top shape: 10 4096 (40960)
I1119 11:38:27.539233 11593 net.cpp:137] Memory required for data: 126775240
I1119 11:38:27.539237 11593 layer_factory.hpp:77] Creating layer drop6_p
I1119 11:38:27.539247 11593 net.cpp:84] Creating Layer drop6_p
I1119 11:38:27.539254 11593 net.cpp:406] drop6_p <- fc6_p
I1119 11:38:27.539266 11593 net.cpp:367] drop6_p -> fc6_p (in-place)
I1119 11:38:27.539297 11593 net.cpp:122] Setting up drop6_p
I1119 11:38:27.539304 11593 net.cpp:129] Top shape: 10 4096 (40960)
I1119 11:38:27.539309 11593 net.cpp:137] Memory required for data: 126939080
I1119 11:38:27.539314 11593 layer_factory.hpp:77] Creating layer fc7_p
I1119 11:38:27.539325 11593 net.cpp:84] Creating Layer fc7_p
I1119 11:38:27.539361 11593 net.cpp:406] fc7_p <- fc6_p
I1119 11:38:27.539373 11593 net.cpp:380] fc7_p -> fc7_p
I1119 11:38:27.761209 11593 net.cpp:122] Setting up fc7_p
I1119 11:38:27.761257 11593 net.cpp:129] Top shape: 10 4096 (40960)
I1119 11:38:27.761262 11593 net.cpp:137] Memory required for data: 127102920
I1119 11:38:27.761276 11593 net.cpp:465] Sharing parameters 'fc7_w' owned by layer 'fc7', param index 0
I1119 11:38:27.761284 11593 net.cpp:465] Sharing parameters 'fc7_b' owned by layer 'fc7', param index 1
I1119 11:38:27.761291 11593 layer_factory.hpp:77] Creating layer relu7_p
I1119 11:38:27.761310 11593 net.cpp:84] Creating Layer relu7_p
I1119 11:38:27.761317 11593 net.cpp:406] relu7_p <- fc7_p
I1119 11:38:27.761327 11593 net.cpp:367] relu7_p -> fc7_p (in-place)
I1119 11:38:27.761659 11593 net.cpp:122] Setting up relu7_p
I1119 11:38:27.761668 11593 net.cpp:129] Top shape: 10 4096 (40960)
I1119 11:38:27.761673 11593 net.cpp:137] Memory required for data: 127266760
I1119 11:38:27.761678 11593 layer_factory.hpp:77] Creating layer drop7_p
I1119 11:38:27.761690 11593 net.cpp:84] Creating Layer drop7_p
I1119 11:38:27.761716 11593 net.cpp:406] drop7_p <- fc7_p
I1119 11:38:27.761726 11593 net.cpp:367] drop7_p -> fc7_p (in-place)
I1119 11:38:27.761759 11593 net.cpp:122] Setting up drop7_p
I1119 11:38:27.761766 11593 net.cpp:129] Top shape: 10 4096 (40960)
I1119 11:38:27.761770 11593 net.cpp:137] Memory required for data: 127430600
I1119 11:38:27.761775 11593 layer_factory.hpp:77] Creating layer fc8_p
I1119 11:38:27.761786 11593 net.cpp:84] Creating Layer fc8_p
I1119 11:38:27.761790 11593 net.cpp:406] fc8_p <- fc7_p
I1119 11:38:27.761797 11593 net.cpp:380] fc8_p -> fc8_p
I1119 11:38:27.768123 11593 net.cpp:122] Setting up fc8_p
I1119 11:38:27.768173 11593 net.cpp:129] Top shape: 10 100 (1000)
I1119 11:38:27.768179 11593 net.cpp:137] Memory required for data: 127434600
I1119 11:38:27.768190 11593 net.cpp:465] Sharing parameters 'fc8_w' owned by layer 'fc8', param index 0
I1119 11:38:27.768200 11593 net.cpp:465] Sharing parameters 'fc8_b' owned by layer 'fc8', param index 1
I1119 11:38:27.768206 11593 layer_factory.hpp:77] Creating layer loss
I1119 11:38:27.768221 11593 net.cpp:84] Creating Layer loss
…
